…
I0821 20:50:17.249027 20352 net.cpp:322] The NetState phase (0) differed from the phase (1) specified by a rule in layer data
I0821 20:50:17.250149 20352 net.cpp:49] Initializing net from parameters: 
name: "DenseAttentionNet"
state {
  phase: TRAIN
}
layer {
  name: "data"
  type: "TextData"
  top: "data"
  top: "label"
  include {
    phase: TRAIN
  }
  text_data_param {
    label_source: "/ssd/ijcai18/data/agnews/train_label.txt"
    data_source: "/ssd/ijcai18/data/agnews/train_data.txt"
    dict_source: "/ssd/ijcai18/data/agnews/local_dic_index.txt"
    batch_size: 64
    channel: 1
    num_words: 200
    crop_height: 100
    crop_width: 300
  }
}
layer {
  name: "trans_layer_conv_0"
  type: "Convolution"
  bottom: "data"
  top: "trans_layer_conv_0"
  convolution_param {
    num_output: 64
    group: 1
    stride: 1
    weight_filler {
      type: "gaussian"
      std: 0.058925565
    }
    bias_filler {
      type: "constant"
      value: 0
    }
    pad_h: 0
    pad_w: 0
    kernel_h: 1
    kernel_w: 300
  }
}
layer {
  name: "trans_layer_bn_0"
  type: "BatchNorm"
  bottom: "trans_layer_conv_0"
  top: "trans_layer_bn_0"
  param {
    lr_mult: 0
    decay_mult: 0
  }
  param {
    lr_mult: 0
    decay_mult: 0
  }
  param {
    lr_mult: 0
    decay_mult: 0
  }
}
layer {
  name: "trans_layer_relu_0"
  type: "ReLU"
  bottom: "trans_layer_bn_0"
  top: "trans_layer_bn_0"
}
layer {
  name: "trans_layer_conv_1"
  type: "Convolution"
  bottom: "trans_layer_bn_0"
  top: "trans_layer_conv_1"
  convolution_param {
    num_output: 64
    group: 1
    stride: 1
    weight_filler {
      type: "gaussian"
      std: 0.058925565
    }
    bias_filler {
      type: "constant"
      value: 0
    }
    pad_h: 0
    pad_w: 0
    kernel_h: 1
    kernel_w: 1
  }
}
layer {
  name: "trans_layer_bn_1"
  type: "BatchNorm"
  bottom: "trans_layer_conv_1"
  top: "trans_layer_bn_1"
  param {
    lr_mult: 0
    decay_mult: 0
  }
  param {
    lr_mult: 0
    decay_mult: 0
  }
  param {
    lr_mult: 0
    decay_mult: 0
  }
}
layer {
  name: "trans_layer_relu_1"
  type: "ReLU"
  bottom: "trans_layer_bn_1"
  top: "trans_layer_bn_1"
}
layer {
  name: "trans_layer_conv_2"
  type: "Convolution"
  bottom: "trans_layer_bn_1"
  top: "trans_layer_conv_2"
  convolution_param {
    num_output: 64
    group: 1
    stride: 1
    weight_filler {
      type: "gaussian"
      std: 0.058925565
    }
    bias_filler {
      type: "constant"
      value: 0
    }
    pad_h: 0
    pad_w: 0
    kernel_h: 1
    kernel_w: 1
  }
}
layer {
  name: "trans_layer_bn_2"
  type: "BatchNorm"
  bottom: "trans_layer_conv_2"
  top: "trans_layer_bn_2"
  param {
    lr_mult: 0
    decay_mult: 0
  }
  param {
    lr_mult: 0
    decay_mult: 0
  }
  param {
    lr_mult: 0
    decay_mult: 0
  }
}
layer {
  name: "trans_layer_relu_2"
  type: "ReLU"
  bottom: "trans_layer_bn_2"
  top: "trans_layer_bn_2"
}
layer {
  name: "dense_layer_conv_0"
  type: "Convolution"
  bottom: "trans_layer_bn_2"
  top: "dense_layer_conv_0"
  convolution_param {
    num_output: 64
    group: 1
    stride: 1
    weight_filler {
      type: "gaussian"
      std: 0.058925565
    }
    bias_filler {
      type: "constant"
      value: 0
    }
    pad_h: 1
    pad_w: 0
    kernel_h: 3
    kernel_w: 1
  }
}
layer {
  name: "dense_layer_concat_0"
  type: "Concat"
  bottom: "dense_layer_conv_0"
  bottom: "trans_layer_conv_0"
  bottom: "trans_layer_conv_1"
  bottom: "trans_layer_conv_2"
  top: "dense_layer_concat_0"
  concat_param {
    axis: 1
  }
}
layer {
  name: "dense_layer_bn_0"
  type: "BatchNorm"
  bottom: "dense_layer_concat_0"
  top: "dense_layer_bn_0"
  param {
    lr_mult: 0
    decay_mult: 0
  }
  param {
    lr_mult: 0
    decay_mult: 0
  }
  param {
    lr_mult: 0
    decay_mult: 0
  }
}
layer {
  name: "dense_layer_relu_0"
  type: "ReLU"
  bottom: "dense_layer_bn_0"
  top: "dense_layer_bn_0"
}
layer {
  name: "dense_layer_pool_0"
  type: "Pooling"
  bottom: "dense_layer_bn_0"
  top: "dense_layer_pool_0"
  pooling_param {
    pool: AVE
    kernel_h: 3
    kernel_w: 1
    stride_h: 2
    stride_w: 1
    pad_h: 1
    pad_w: 0
  }
}
layer {
  name: "dense_layer_conv_1"
  type: "Convolution"
  bottom: "dense_layer_pool_0"
  top: "dense_layer_conv_1"
  convolution_param {
    num_output: 64
    group: 1
    stride: 1
    weight_filler {
      type: "gaussian"
      std: 0.058925565
    }
    bias_filler {
      type: "constant"
      value: 0
    }
    pad_h: 1
    pad_w: 0
    kernel_h: 3
    kernel_w: 1
  }
}
layer {
  name: "dense_layer_concat_1"
  type: "Concat"
  bottom: "dense_layer_conv_1"
  bottom: "dense_layer_pool_0"
  top: "dense_layer_concat_1"
  concat_param {
    axis: 1
  }
}
layer {
  name: "dense_layer_bn_1"
  type: "BatchNorm"
  bottom: "dense_layer_concat_1"
  top: "dense_layer_bn_1"
  param {
    lr_mult: 0
    decay_mult: 0
  }
  param {
    lr_mult: 0
    decay_mult: 0
  }
  param {
    lr_mult: 0
    decay_mult: 0
  }
}
layer {
  name: "dense_layer_relu_1"
  type: "ReLU"
  bottom: "dense_layer_bn_1"
  top: "dense_layer_bn_1"
}
layer {
  name: "dense_layer_pool_1"
  type: "Pooling"
  bottom: "dense_layer_bn_1"
  top: "dense_layer_pool_1"
  pooling_param {
    pool: AVE
    kernel_h: 3
    kernel_w: 1
    stride_h: 2
    stride_w: 1
    pad_h: 1
    pad_w: 0
  }
}
layer {
  name: "dense_layer_conv_2"
  type: "Convolution"
  bottom: "dense_layer_pool_1"
  top: "dense_layer_conv_2"
  convolution_param {
    num_output: 64
    group: 1
    stride: 1
    weight_filler {
      type: "gaussian"
      std: 0.058925565
    }
    bias_filler {
      type: "constant"
      value: 0
    }
    pad_h: 1
    pad_w: 0
    kernel_h: 3
    kernel_w: 1
  }
}
layer {
  name: "dense_layer_concat_2"
  type: "Concat"
  bottom: "dense_layer_conv_2"
  bottom: "dense_layer_pool_1"
  top: "dense_layer_concat_2"
  concat_param {
    axis: 1
  }
}
layer {
  name: "dense_layer_bn_2"
  type: "BatchNorm"
  bottom: "dense_layer_concat_2"
  top: "dense_layer_bn_2"
  param {
    lr_mult: 0
    decay_mult: 0
  }
  param {
    lr_mult: 0
    decay_mult: 0
  }
  param {
    lr_mult: 0
    decay_mult: 0
  }
}
layer {
  name: "dense_layer_relu_2"
  type: "ReLU"
  bottom: "dense_layer_bn_2"
  top: "dense_layer_bn_2"
}
layer {
  name: "dense_layer_pool_2"
  type: "Pooling"
  bottom: "dense_layer_bn_2"
  top: "dense_layer_pool_2"
  pooling_param {
    pool: AVE
    kernel_h: 3
    kernel_w: 1
    stride_h: 2
    stride_w: 1
    pad_h: 1
    pad_w: 0
  }
}
layer {
  name: "dense_layer_conv_3"
  type: "Convolution"
  bottom: "dense_layer_pool_2"
  top: "dense_layer_conv_3"
  convolution_param {
    num_output: 64
    group: 1
    stride: 1
    weight_filler {
      type: "gaussian"
      std: 0.058925565
    }
    bias_filler {
      type: "constant"
      value: 0
    }
    pad_h: 1
    pad_w: 0
    kernel_h: 3
    kernel_w: 1
  }
}
layer {
  name: "dense_layer_concat_3"
  type: "Concat"
  bottom: "dense_layer_conv_3"
  bottom: "dense_layer_pool_2"
  top: "dense_layer_concat_3"
  concat_param {
    axis: 1
  }
}
layer {
  name: "dense_layer_bn_3"
  type: "BatchNorm"
  bottom: "dense_layer_concat_3"
  top: "dense_layer_bn_3"
  param {
    lr_mult: 0
    decay_mult: 0
  }
  param {
    lr_mult: 0
    decay_mult: 0
  }
  param {
    lr_mult: 0
    decay_mult: 0
  }
}
layer {
  name: "dense_layer_relu_3"
  type: "ReLU"
  bottom: "dense_layer_bn_3"
  top: "dense_layer_bn_3"
}
layer {
  name: "dense_layer_pool_3"
  type: "Pooling"
  bottom: "dense_layer_bn_3"
  top: "dense_layer_pool_3"
  pooling_param {
    pool: AVE
    kernel_h: 3
    kernel_w: 1
    stride_h: 2
    stride_w: 1
    pad_h: 1
    pad_w: 0
  }
}
layer {
  name: "dense_layer_conv_4"
  type: "Convolution"
  bottom: "dense_layer_pool_3"
  top: "dense_layer_conv_4"
  convolution_param {
    num_output: 64
    group: 1
    stride: 1
    weight_filler {
      type: "gaussian"
      std: 0.058925565
    }
    bias_filler {
      type: "constant"
      value: 0
    }
    pad_h: 1
    pad_w: 0
    kernel_h: 3
    kernel_w: 1
  }
}
layer {
  name: "dense_layer_concat_4"
  type: "Concat"
  bottom: "dense_layer_conv_4"
  bottom: "dense_layer_pool_3"
  top: "dense_layer_concat_4"
  concat_param {
    axis: 1
  }
}
layer {
  name: "dense_layer_bn_4"
  type: "BatchNorm"
  bottom: "dense_layer_concat_4"
  top: "dense_layer_bn_4"
  param {
    lr_mult: 0
    decay_mult: 0
  }
  param {
    lr_mult: 0
    decay_mult: 0
  }
  param {
    lr_mult: 0
    decay_mult: 0
  }
}
layer {
  name: "dense_layer_relu_4"
  type: "ReLU"
  bottom: "dense_layer_bn_4"
  top: "dense_layer_bn_4"
}
layer {
  name: "attention_layer_conv_0"
  type: "Convolution"
  bottom: "dense_layer_bn_4"
  top: "attention_layer_conv_0"
  convolution_param {
    num_output: 512
    group: 8
    stride: 1
    weight_filler {
      type: "gaussian"
      std: 0.058925565
    }
    bias_filler {
      type: "constant"
      value: 0
    }
    pad_h: 0
    pad_w: 0
    kernel_h: 1
    kernel_w: 1
  }
}
layer {
  name: "attention_layer_bn_0"
  type: "BatchNorm"
  bottom: "attention_layer_conv_0"
  top: "attention_layer_bn_0"
  param {
    lr_mult: 0
    decay_mult: 0
  }
  param {
    lr_mult: 0
    decay_mult: 0
  }
  param {
    lr_mult: 0
    decay_mult: 0
  }
}
layer {
  name: "attention_layer_relu_0"
  type: "ReLU"
  bottom: "attention_layer_bn_0"
  top: "attention_layer_bn_0"
}
layer {
  name: "attention_layer_conv_1"
  type: "Convolution"
  bottom: "attention_layer_bn_0"
  top: "attention_layer_conv_1"
  convolution_param {
    num_output: 512
    group: 8
    stride: 1
    weight_filler {
      type: "gaussian"
      std: 0.058925565
    }
    bias_filler {
      type: "constant"
      value: 0
    }
    pad_h: 0
    pad_w: 0
    kernel_h: 1
    kernel_w: 1
  }
}
layer {
  name: "attention_layer_bn_1"
  type: "BatchNorm"
  bottom: "attention_layer_conv_1"
  top: "attention_layer_bn_1"
  param {
    lr_mult: 0
    decay_mult: 0
  }
  param {
    lr_mult: 0
    decay_mult: 0
  }
  param {
    lr_mult: 0
    decay_mult: 0
  }
}
layer {
  name: "attention_layer_relu_1"
  type: "ReLU"
  bottom: "attention_layer_bn_1"
  top: "attention_layer_bn_1"
}
layer {
  name: "attention_layer_conv_2"
  type: "Convolution"
  bottom: "attention_layer_bn_1"
  top: "attention_layer_conv_2"
  convolution_param {
    num_output: 512
    group: 8
    stride: 1
    weight_filler {
      type: "gaussian"
      std: 0.058925565
    }
    bias_filler {
      type: "constant"
      value: 0
    }
    pad_h: 0
    pad_w: 0
    kernel_h: 1
    kernel_w: 1
  }
}
layer {
  name: "attention_layer_bn_2"
  type: "BatchNorm"
  bottom: "attention_layer_conv_2"
  top: "attention_layer_bn_2"
  param {
    lr_mult: 0
    decay_mult: 0
  }
  param {
    lr_mult: 0
    decay_mult: 0
  }
  param {
    lr_mult: 0
    decay_mult: 0
  }
}
layer {
  name: "attention_layer_relu_2"
  type: "ReLU"
  bottom: "attention_layer_bn_2"
  top: "attention_layer_bn_2"
}
layer {
  name: "attention_scale_slice"
  type: "Slice"
  bottom: "attention_layer_bn_2"
  top: "attention_scale_0"
  top: "attention_scale_1"
  top: "attention_scale_2"
  top: "attention_scale_3"
  top: "attention_scale_4"
  top: "attention_scale_5"
  top: "attention_scale_6"
  top: "attention_scale_7"
  slice_param {
    slice_point: 64
    slice_point: 128
    slice_point: 192
    slice_point: 256
    slice_point: 320
    slice_point: 384
    slice_point: 448
    axis: 1
  }
}
layer {
  name: "attention_permute_0"
  type: "Permute"
  bottom: "attention_scale_0"
  top: "attention_permute_0"
  permute_param {
    order: 0
    order: 3
    order: 2
    order: 1
  }
}
layer {
  name: "attention_reduction_0"
  type: "Reduction"
  bottom: "attention_permute_0"
  top: "attention_reduction_0"
  reduction_param {
    axis: 3
  }
}
layer {
  name: "attention_permute_1"
  type: "Permute"
  bottom: "attention_scale_1"
  top: "attention_permute_1"
  permute_param {
    order: 0
    order: 3
    order: 2
    order: 1
  }
}
layer {
  name: "attention_reduction_1"
  type: "Reduction"
  bottom: "attention_permute_1"
  top: "attention_reduction_1"
  reduction_param {
    axis: 3
  }
}
layer {
  name: "attention_permute_2"
  type: "Permute"
  bottom: "attention_scale_2"
  top: "attention_permute_2"
  permute_param {
    order: 0
    order: 3
    order: 2
    order: 1
  }
}
layer {
  name: "attention_reduction_2"
  type: "Reduction"
  bottom: "attention_permute_2"
  top: "attention_reduction_2"
  reduction_param {
    axis: 3
  }
}
layer {
  name: "attention_permute_3"
  type: "Permute"
  bottom: "attention_scale_3"
  top: "attention_permute_3"
  permute_param {
    order: 0
    order: 3
    order: 2
    order: 1
  }
}
layer {
  name: "attention_reduction_3"
  type: "Reduction"
  bottom: "attention_permute_3"
  top: "attention_reduction_3"
  reduction_param {
    axis: 3
  }
}
layer {
  name: "attention_permute_4"
  type: "Permute"
  bottom: "attention_scale_4"
  top: "attention_permute_4"
  permute_param {
    order: 0
    order: 3
    order: 2
    order: 1
  }
}
layer {
  name: "attention_reduction_4"
  type: "Reduction"
  bottom: "attention_permute_4"
  top: "attention_reduction_4"
  reduction_param {
    axis: 3
  }
}
layer {
  name: "attention_permute_5"
  type: "Permute"
  bottom: "attention_scale_5"
  top: "attention_permute_5"
  permute_param {
    order: 0
    order: 3
    order: 2
    order: 1
  }
}
layer {
  name: "attention_reduction_5"
  type: "Reduction"
  bottom: "attention_permute_5"
  top: "attention_reduction_5"
  reduction_param {
    axis: 3
  }
}
layer {
  name: "attention_permute_6"
  type: "Permute"
  bottom: "attention_scale_6"
  top: "attention_permute_6"
  permute_param {
    order: 0
    order: 3
    order: 2
    order: 1
  }
}
layer {
  name: "attention_reduction_6"
  type: "Reduction"
  bottom: "attention_permute_6"
  top: "attention_reduction_6"
  reduction_param {
    axis: 3
  }
}
layer {
  name: "attention_permute_7"
  type: "Permute"
  bottom: "attention_scale_7"
  top: "attention_permute_7"
  permute_param {
    order: 0
    order: 3
    order: 2
    order: 1
  }
}
layer {
  name: "attention_reduction_7"
  type: "Reduction"
  bottom: "attention_permute_7"
  top: "attention_reduction_7"
  reduction_param {
    axis: 3
  }
}
layer {
  name: "attention_scale_concat"
  type: "Concat"
  bottom: "attention_reduction_0"
  bottom: "attention_reduction_1"
  bottom: "attention_reduction_2"
  bottom: "attention_reduction_3"
  bottom: "attention_reduction_4"
  bottom: "attention_reduction_5"
  bottom: "attention_reduction_6"
  bottom: "attention_reduction_7"
  top: "attention_scale_concat"
  concat_param {
    axis: 1
  }
}
layer {
  name: "attention_height_slice"
  type: "Slice"
  bottom: "attention_scale_concat"
  top: "attention_height_0"
  top: "attention_height_1"
  top: "attention_height_2"
  top: "attention_height_3"
  top: "attention_height_4"
  top: "attention_height_5"
  top: "attention_height_6"
  top: "attention_height_7"
  slice_param {
    slice_point: 1
    slice_point: 2
    slice_point: 3
    slice_point: 4
    slice_point: 5
    slice_point: 6
    slice_point: 7
    axis: 2
  }
}
layer {
  name: "attention_height_fc1_0"
  type: "InnerProduct"
  bottom: "attention_height_0"
  top: "attention_height_fc1_0"
  param {
    lr_mult: 1
    decay_mult: 1
  }
  param {
    lr_mult: 2
    decay_mult: 0
  }
  inner_product_param {
    num_output: 8
    weight_filler {
      type: "msra"
      std: 0.01
    }
    bias_filler {
      type: "constant"
      value: 0
    }
  }
}
layer {
  name: "attention_height_fc2_0"
  type: "InnerProduct"
  bottom: "attention_height_fc1_0"
  top: "attention_height_fc2_0"
  param {
    lr_mult: 1
    decay_mult: 1
  }
  param {
    lr_mult: 2
    decay_mult: 0
  }
  inner_product_param {
    num_output: 8
    weight_filler {
      type: "msra"
      std: 0.01
    }
    bias_filler {
      type: "constant"
      value: 0
    }
  }
}
layer {
  name: "attention_height_reshape_0"
  type: "Reshape"
  bottom: "attention_height_fc2_0"
  top: "attention_height_reshape_0"
  reshape_param {
    shape {
      dim: 0
      dim: 0
      dim: 1
      dim: 1
    }
  }
}
layer {
  name: "attention_height_fc1_1"
  type: "InnerProduct"
  bottom: "attention_height_1"
  top: "attention_height_fc1_1"
  param {
    lr_mult: 1
    decay_mult: 1
  }
  param {
    lr_mult: 2
    decay_mult: 0
  }
  inner_product_param {
    num_output: 8
    weight_filler {
      type: "msra"
      std: 0.01
    }
    bias_filler {
      type: "constant"
      value: 0
    }
  }
}
layer {
  name: "attention_height_fc2_1"
  type: "InnerProduct"
  bottom: "attention_height_fc1_1"
  top: "attention_height_fc2_1"
  param {
    lr_mult: 1
    decay_mult: 1
  }
  param {
    lr_mult: 2
    decay_mult: 0
  }
  inner_product_param {
    num_output: 8
    weight_filler {
      type: "msra"
      std: 0.01
    }
    bias_filler {
      type: "constant"
      value: 0
    }
  }
}
layer {
  name: "attention_height_reshape_1"
  type: "Reshape"
  bottom: "attention_height_fc2_1"
  top: "attention_height_reshape_1"
  reshape_param {
    shape {
      dim: 0
      dim: 0
      dim: 1
      dim: 1
    }
  }
}
layer {
  name: "attention_height_fc1_2"
  type: "InnerProduct"
  bottom: "attention_height_2"
  top: "attention_height_fc1_2"
  param {
    lr_mult: 1
    decay_mult: 1
  }
  param {
    lr_mult: 2
    decay_mult: 0
  }
  inner_product_param {
    num_output: 8
    weight_filler {
      type: "msra"
      std: 0.01
    }
    bias_filler {
      type: "constant"
      value: 0
    }
  }
}
layer {
  name: "attention_height_fc2_2"
  type: "InnerProduct"
  bottom: "attention_height_fc1_2"
  top: "attention_height_fc2_2"
  param {
    lr_mult: 1
    decay_mult: 1
  }
  param {
    lr_mult: 2
    decay_mult: 0
  }
  inner_product_param {
    num_output: 8
    weight_filler {
      type: "msra"
      std: 0.01
    }
    bias_filler {
      type: "constant"
      value: 0
    }
  }
}
layer {
  name: "attention_height_reshape_2"
  type: "Reshape"
  bottom: "attention_height_fc2_2"
  top: "attention_height_reshape_2"
  reshape_param {
    shape {
      dim: 0
      dim: 0
      dim: 1
      dim: 1
    }
  }
}
layer {
  name: "attention_height_fc1_3"
  type: "InnerProduct"
  bottom: "attention_height_3"
  top: "attention_height_fc1_3"
  param {
    lr_mult: 1
    decay_mult: 1
  }
  param {
    lr_mult: 2
    decay_mult: 0
  }
  inner_product_param {
    num_output: 8
    weight_filler {
      type: "msra"
      std: 0.01
    }
    bias_filler {
      type: "constant"
      value: 0
    }
  }
}
layer {
  name: "attention_height_fc2_3"
  type: "InnerProduct"
  bottom: "attention_height_fc1_3"
  top: "attention_height_fc2_3"
  param {
    lr_mult: 1
    decay_mult: 1
  }
  param {
    lr_mult: 2
    decay_mult: 0
  }
  inner_product_param {
    num_output: 8
    weight_filler {
      type: "msra"
      std: 0.01
    }
    bias_filler {
      type: "constant"
      value: 0
    }
  }
}
layer {
  name: "attention_height_reshape_3"
  type: "Reshape"
  bottom: "attention_height_fc2_3"
  top: "attention_height_reshape_3"
  reshape_param {
    shape {
      dim: 0
      dim: 0
      dim: 1
      dim: 1
    }
  }
}
layer {
  name: "attention_height_fc1_4"
  type: "InnerProduct"
  bottom: "attention_height_4"
  top: "attention_height_fc1_4"
  param {
    lr_mult: 1
    decay_mult: 1
  }
  param {
    lr_mult: 2
    decay_mult: 0
  }
  inner_product_param {
    num_output: 8
    weight_filler {
      type: "msra"
      std: 0.01
    }
    bias_filler {
      type: "constant"
      value: 0
    }
  }
}
layer {
  name: "attention_height_fc2_4"
  type: "InnerProduct"
  bottom: "attention_height_fc1_4"
  top: "attention_height_fc2_4"
  param {
    lr_mult: 1
    decay_mult: 1
  }
  param {
    lr_mult: 2
    decay_mult: 0
  }
  inner_product_param {
    num_output: 8
    weight_filler {
      type: "msra"
      std: 0.01
    }
    bias_filler {
      type: "constant"
      value: 0
    }
  }
}
layer {
  name: "attention_height_reshape_4"
  type: "Reshape"
  bottom: "attention_height_fc2_4"
  top: "attention_height_reshape_4"
  reshape_param {
    shape {
      dim: 0
      dim: 0
      dim: 1
      dim: 1
    }
  }
}
layer {
  name: "attention_height_fc1_5"
  type: "InnerProduct"
  bottom: "attention_height_5"
  top: "attention_height_fc1_5"
  param {
    lr_mult: 1
    decay_mult: 1
  }
  param {
    lr_mult: 2
    decay_mult: 0
  }
  inner_product_param {
    num_output: 8
    weight_filler {
      type: "msra"
      std: 0.01
    }
    bias_filler {
      type: "constant"
      value: 0
    }
  }
}
layer {
  name: "attention_height_fc2_5"
  type: "InnerProduct"
  bottom: "attention_height_fc1_5"
  top: "attention_height_fc2_5"
  param {
    lr_mult: 1
    decay_mult: 1
  }
  param {
    lr_mult: 2
    decay_mult: 0
  }
  inner_product_param {
    num_output: 8
    weight_filler {
      type: "msra"
      std: 0.01
    }
    bias_filler {
      type: "constant"
      value: 0
    }
  }
}
layer {
  name: "attention_height_reshape_5"
  type: "Reshape"
  bottom: "attention_height_fc2_5"
  top: "attention_height_reshape_5"
  reshape_param {
    shape {
      dim: 0
      dim: 0
      dim: 1
      dim: 1
    }
  }
}
layer {
  name: "attention_height_fc1_6"
  type: "InnerProduct"
  bottom: "attention_height_6"
  top: "attention_height_fc1_6"
  param {
    lr_mult: 1
    decay_mult: 1
  }
  param {
    lr_mult: 2
    decay_mult: 0
  }
  inner_product_param {
    num_output: 8
    weight_filler {
      type: "msra"
      std: 0.01
    }
    bias_filler {
      type: "constant"
      value: 0
    }
  }
}
layer {
  name: "attention_height_fc2_6"
  type: "InnerProduct"
  bottom: "attention_height_fc1_6"
  top: "attention_height_fc2_6"
  param {
    lr_mult: 1
    decay_mult: 1
  }
  param {
    lr_mult: 2
    decay_mult: 0
  }
  inner_product_param {
    num_output: 8
    weight_filler {
      type: "msra"
      std: 0.01
    }
    bias_filler {
      type: "constant"
      value: 0
    }
  }
}
layer {
  name: "attention_height_reshape_6"
  type: "Reshape"
  bottom: "attention_height_fc2_6"
  top: "attention_height_reshape_6"
  reshape_param {
    shape {
      dim: 0
      dim: 0
      dim: 1
      dim: 1
    }
  }
}
layer {
  name: "attention_height_fc1_7"
  type: "InnerProduct"
  bottom: "attention_height_7"
  top: "attention_height_fc1_7"
  param {
    lr_mult: 1
    decay_mult: 1
  }
  param {
    lr_mult: 2
    decay_mult: 0
  }
  inner_product_param {
    num_output: 8
    weight_filler {
      type: "msra"
      std: 0.01
    }
    bias_filler {
      type: "constant"
      value: 0
    }
  }
}
layer {
  name: "attention_height_fc2_7"
  type: "InnerProduct"
  bottom: "attention_height_fc1_7"
  top: "attention_height_fc2_7"
  param {
    lr_mult: 1
    decay_mult: 1
  }
  param {
    lr_mult: 2
    decay_mult: 0
  }
  inner_product_param {
    num_output: 8
    weight_filler {
      type: "msra"
      std: 0.01
    }
    bias_filler {
      type: "constant"
      value: 0
    }
  }
}
layer {
  name: "attention_height_reshape_7"
  type: "Reshape"
  bottom: "attention_height_fc2_7"
  top: "attention_height_reshape_7"
  reshape_param {
    shape {
      dim: 0
      dim: 0
      dim: 1
      dim: 1
    }
  }
}
layer {
  name: "attention_height_concat"
  type: "Concat"
  bottom: "attention_height_reshape_0"
  bottom: "attention_height_reshape_1"
  bottom: "attention_height_reshape_2"
  bottom: "attention_height_reshape_3"
  bottom: "attention_height_reshape_4"
  bottom: "attention_height_reshape_5"
  bottom: "attention_height_reshape_6"
  bottom: "attention_height_reshape_7"
  top: "attention_height_concat"
  concat_param {
    axis: 2
  }
}
layer {
  name: "attention_weight"
  type: "Softmax"
  bottom: "attention_height_concat"
  top: "attention_weight"
}
layer {
  name: "attention_weight_slice"
  type: "Slice"
  bottom: "attention_weight"
  top: "attention_weight_slice_0"
  top: "attention_weight_slice_1"
  top: "attention_weight_slice_2"
  top: "attention_weight_slice_3"
  top: "attention_weight_slice_4"
  top: "attention_weight_slice_5"
  top: "attention_weight_slice_6"
  top: "attention_weight_slice_7"
  slice_param {
    slice_point: 1
    slice_point: 2
    slice_point: 3
    slice_point: 4
    slice_point: 5
    slice_point: 6
    slice_point: 7
    axis: 1
  }
}
layer {
  name: "attention_weight_tile_0"
  type: "Tile"
  bottom: "attention_weight_slice_0"
  top: "attention_weight_tile_0"
  tile_param {
    axis: 1
    tiles: 64
  }
}
layer {
  name: "attention_reweight_0"
  type: "Eltwise"
  bottom: "attention_scale_0"
  bottom: "attention_weight_tile_0"
  top: "attention_reweight_0"
  eltwise_param {
    operation: PROD
  }
}
layer {
  name: "attention_weight_tile_1"
  type: "Tile"
  bottom: "attention_weight_slice_1"
  top: "attention_weight_tile_1"
  tile_param {
    axis: 1
    tiles: 64
  }
}
layer {
  name: "attention_reweight_1"
  type: "Eltwise"
  bottom: "attention_scale_1"
  bottom: "attention_weight_tile_1"
  top: "attention_reweight_1"
  eltwise_param {
    operation: PROD
  }
}
layer {
  name: "attention_weight_tile_2"
  type: "Tile"
  bottom: "attention_weight_slice_2"
  top: "attention_weight_tile_2"
  tile_param {
    axis: 1
    tiles: 64
  }
}
layer {
  name: "attention_reweight_2"
  type: "Eltwise"
  bottom: "attention_scale_2"
  bottom: "attention_weight_tile_2"
  top: "attention_reweight_2"
  eltwise_param {
    operation: PROD
  }
}
layer {
  name: "attention_weight_tile_3"
  type: "Tile"
  bottom: "attention_weight_slice_3"
  top: "attention_weight_tile_3"
  tile_param {
    axis: 1
    tiles: 64
  }
}
layer {
  name: "attention_reweight_3"
  type: "Eltwise"
  bottom: "attention_scale_3"
  bottom: "attention_weight_tile_3"
  top: "attention_reweight_3"
  eltwise_param {
    operation: PROD
  }
}
layer {
  name: "attention_weight_tile_4"
  type: "Tile"
  bottom: "attention_weight_slice_4"
  top: "attention_weight_tile_4"
  tile_param {
    axis: 1
    tiles: 64
  }
}
layer {
  name: "attention_reweight_4"
  type: "Eltwise"
  bottom: "attention_scale_4"
  bottom: "attention_weight_tile_4"
  top: "attention_reweight_4"
  eltwise_param {
    operation: PROD
  }
}
layer {
  name: "attention_weight_tile_5"
  type: "Tile"
  bottom: "attention_weight_slice_5"
  top: "attention_weight_tile_5"
  tile_param {
    axis: 1
    tiles: 64
  }
}
layer {
  name: "attention_reweight_5"
  type: "Eltwise"
  bottom: "attention_scale_5"
  bottom: "attention_weight_tile_5"
  top: "attention_reweight_5"
  eltwise_param {
    operation: PROD
  }
}
layer {
  name: "attention_weight_tile_6"
  type: "Tile"
  bottom: "attention_weight_slice_6"
  top: "attention_weight_tile_6"
  tile_param {
    axis: 1
    tiles: 64
  }
}
layer {
  name: "attention_reweight_6"
  type: "Eltwise"
  bottom: "attention_scale_6"
  bottom: "attention_weight_tile_6"
  top: "attention_reweight_6"
  eltwise_param {
    operation: PROD
  }
}
layer {
  name: "attention_weight_tile_7"
  type: "Tile"
  bottom: "attention_weight_slice_7"
  top: "attention_weight_tile_7"
  tile_param {
    axis: 1
    tiles: 64
  }
}
layer {
  name: "attention_reweight_7"
  type: "Eltwise"
  bottom: "attention_scale_7"
  bottom: "attention_weight_tile_7"
  top: "attention_reweight_7"
  eltwise_param {
    operation: PROD
  }
}
layer {
  name: "attention_reweight_sum"
  type: "Eltwise"
  bottom: "attention_reweight_0"
  bottom: "attention_reweight_1"
  bottom: "attention_reweight_2"
  bottom: "attention_reweight_3"
  bottom: "attention_reweight_4"
  bottom: "attention_reweight_5"
  bottom: "attention_reweight_6"
  bottom: "attention_reweight_7"
  top: "attention_reweight_sum"
  eltwise_param {
    operation: SUM
  }
}
layer {
  name: "attention_reweight_flatten"
  type: "Flatten"
  bottom: "attention_reweight_sum"
  top: "attention_reweight_flatten"
}
layer {
  name: "attention_reweight_dropout"
  type: "Dropout"
  bottom: "attention_reweight_flatten"
  top: "attention_reweight_dropout"
  dropout_param {
    dropout_ratio: 0.7
  }
}
layer {
  name: "classification_fc1"
  type: "InnerProduct"
  bottom: "attention_reweight_dropout"
  top: "classification_fc1"
  param {
    lr_mult: 1
    decay_mult: 1
  }
  param {
    lr_mult: 2
    decay_mult: 0
  }
  inner_product_param {
    num_output: 64
    weight_filler {
      type: "msra"
      std: 0.01
    }
    bias_filler {
      type: "constant"
      value: 0
    }
  }
}
layer {
  name: "classification_dropout"
  type: "Dropout"
  bottom: "classification_fc1"
  top: "classification_dropout"
  dropout_param {
    dropout_ratio: 0.7
  }
}
layer {
  name: "classification_fc2"
  type: "InnerProduct"
  bottom: "classification_dropout"
  top: "classification_fc2"
  param {
    lr_mult: 1
    decay_mult: 1
  }
  param {
    lr_mult: 2
    decay_mult: 0
  }
  inner_product_param {
    num_output: 4
    weight_filler {
      type: "msra"
      std: 0.01
    }
    bias_filler {
      type: "constant"
      value: 0
    }
  }
}
layer {
  name: "classification_loss"
  type: "SoftmaxWithLoss"
  bottom: "classification_fc2"
  bottom: "label"
  top: "classification_loss"
}
layer {
  name: "classification_accuracy"
  type: "Accuracy"
  bottom: "classification_fc2"
  bottom: "label"
  top: "classification_accuracy"
}
layer {
  name: "attention_pool_scale0"
  type: "Pooling"
  bottom: "attention_scale_0"
  top: "attention_pool_scale0"
  pooling_param {
    global_pooling: true
  }
}
layer {
  name: "attention_flatten_scale0"
  type: "Flatten"
  bottom: "attention_pool_scale0"
  top: "attention_flatten_scale0"
}
layer {
  name: "attention_dropout_scale0"
  type: "Dropout"
  bottom: "attention_flatten_scale0"
  top: "attention_dropout_scale0"
  dropout_param {
    dropout_ratio: 0.7
  }
}
layer {
  name: "classification_fc1_scale0"
  type: "InnerProduct"
  bottom: "attention_dropout_scale0"
  top: "classification_fc1_scale0"
  param {
    lr_mult: 1
    decay_mult: 1
  }
  param {
    lr_mult: 2
    decay_mult: 0
  }
  inner_product_param {
    num_output: 64
    weight_filler {
      type: "msra"
      std: 0.01
    }
    bias_filler {
      type: "constant"
      value: 0
    }
  }
}
layer {
I0821 20:50:17.250828 20352 layer_factory.hpp:77] Creating layer data
I0821 20:50:17.250861 20352 net.cpp:106] Creating Layer data
I0821 20:50:17.250869 20352 net.cpp:411] data -> data
I0821 20:50:17.250885 20352 net.cpp:411] data -> label
I0821 20:50:17.256903 20352 text_data_layer.cpp:83] read label done (120000 samples)
I0821 20:50:17.256912 20352 text_data_layer.cpp:86] Reading content
I0821 20:50:17.282471 20352 text_data_layer.cpp:102] read content done: #120000 samples.
I0821 20:50:17.282812 20352 text_data_layer.cpp:108] Shuffling data
I0821 20:50:17.315119 20352 text_data_layer.cpp:117] output data size: 64,1,100,300
I0821 20:50:17.315186 20352 text_data_layer.cpp:125] Reading vector dict...
I0821 20:50:21.950788 20352 text_data_layer.cpp:132] vec_dict size: 56249
I0821 20:50:21.959837 20352 net.cpp:150] Setting up data
I0821 20:50:21.959867 20352 net.cpp:157] Top shape: 64 1 100 300 (1920000)
I0821 20:50:21.959873 20352 net.cpp:157] Top shape: 64 (64)
I0821 20:50:21.959875 20352 net.cpp:165] Memory required for data: 7680256
I0821 20:50:21.959883 20352 layer_factory.hpp:77] Creating layer label_data_1_split
I0821 20:50:21.959897 20352 net.cpp:106] Creating Layer label_data_1_split
I0821 20:50:21.959902 20352 net.cpp:454] label_data_1_split <- label
I0821 20:50:21.959910 20352 net.cpp:411] label_data_1_split -> label_data_1_split_0
I0821 20:50:21.959918 20352 net.cpp:411] label_data_1_split -> label_data_1_split_1
…
I0821 20:50:21.959970 20352 net.cpp:411] label_data_1_split -> label_data_1_split_12
I0821 20:50:21.959975 20352 net.cpp:411] label_data_1_split -> label_data_1_split_13
I0821 20:50:21.959980 20352 net.cpp:411] label_data_1_split -> label_data_1_split_14
I0821 20:50:21.959985 20352 net.cpp:411] label_data_1_split -> label_data_1_split_15
I0821 20:50:21.959990 20352 net.cpp:411] label_data_1_split -> label_data_1_split_16
I0821 20:50:21.959995 20352 net.cpp:411] label_data_1_split -> label_data_1_split_17
I0821 20:50:21.960166 20352 net.cpp:150] Setting up label_data_1_split
I0821 20:50:21.960172 20352 net.cpp:157] Top shape: 64 (64)
I0821 20:50:21.960176 20352 net.cpp:157] Top shape: 64 (64)
I0821 20:50:21.960180 20352 net.cpp:157] Top shape: 64 (64)
I0821 20:50:21.960182 20352 net.cpp:157] Top shape: 64 (64)
I0821 20:50:21.960186 20352 net.cpp:157] Top shape: 64 (64)
I0821 20:50:21.960187 20352 net.cpp:157] Top shape: 64 (64)
I0821 20:50:21.960191 20352 net.cpp:157] Top shape: 64 (64)
I0821 20:50:21.960193 20352 net.cpp:157] Top shape: 64 (64)
I0821 20:50:21.960196 20352 net.cpp:157] Top shape: 64 (64)
I0821 20:50:21.960199 20352 net.cpp:157] Top shape: 64 (64)
I0821 20:50:21.960202 20352 net.cpp:157] Top shape: 64 (64)
I0821 20:50:21.960206 20352 net.cpp:157] Top shape: 64 (64)
I0821 20:50:21.960208 20352 net.cpp:157] Top shape: 64 (64)
I0821 20:50:21.960211 20352 net.cpp:157] Top shape: 64 (64)
I0821 20:50:21.960214 20352 net.cpp:157] Top shape: 64 (64)
I0821 20:50:21.960217 20352 net.cpp:157] Top shape: 64 (64)
I0821 20:50:21.960219 20352 net.cpp:157] Top shape: 64 (64)
I0821 20:50:21.960222 20352 net.cpp:157] Top shape: 64 (64)
I0821 20:50:21.960224 20352 net.cpp:165] Memory required for data: 7684864
I0821 20:50:21.960227 20352 layer_factory.hpp:77] Creating layer trans_layer_conv_0
I0821 20:50:21.960242 20352 net.cpp:106] Creating Layer trans_layer_conv_0
I0821 20:50:21.960244 20352 net.cpp:454] trans_layer_conv_0 <- data
I0821 20:50:21.960249 20352 net.cpp:411] trans_layer_conv_0 -> trans_layer_conv_0
I0821 20:50:21.961685 20352 net.cpp:150] Setting up trans_layer_conv_0
I0821 20:50:21.961697 20352 net.cpp:157] Top shape: 64 64 100 1 (409600)
I0821 20:50:21.961701 20352 net.cpp:165] Memory required for data: 9323264
I0821 20:50:21.961710 20352 layer_factory.hpp:77] Creating layer trans_layer_conv_0_trans_layer_conv_0_0_split
I0821 20:50:21.961719 20352 net.cpp:106] Creating Layer trans_layer_conv_0_trans_layer_conv_0_0_split
I0821 20:50:21.961722 20352 net.cpp:454] trans_layer_conv_0_trans_layer_conv_0_0_split <- trans_layer_conv_0
I0821 20:50:21.961726 20352 net.cpp:411] trans_layer_conv_0_trans_layer_conv_0_0_split -> trans_layer_conv_0_trans_layer_conv_0_0_split_0
I0821 20:50:21.961731 20352 net.cpp:411] trans_layer_conv_0_trans_layer_conv_0_0_split -> trans_layer_conv_0_trans_layer_conv_0_0_split_1
I0821 20:50:21.961839 20352 net.cpp:150] Setting up trans_layer_conv_0_trans_layer_conv_0_0_split
I0821 20:50:21.961846 20352 net.cpp:157] Top shape: 64 64 100 1 (409600)
I0821 20:50:21.961849 20352 net.cpp:157] Top shape: 64 64 100 1 (409600)
I0821 20:50:21.961853 20352 net.cpp:165] Memory required for data: 12600064
I0821 20:50:21.961854 20352 layer_factory.hpp:77] Creating layer trans_layer_bn_0
I0821 20:50:21.961864 20352 net.cpp:106] Creating Layer trans_layer_bn_0
I0821 20:50:21.961868 20352 net.cpp:454] trans_layer_bn_0 <- trans_layer_conv_0_trans_layer_conv_0_0_split_0
I0821 20:50:21.961871 20352 net.cpp:411] trans_layer_bn_0 -> trans_layer_bn_0
I0821 20:50:21.962612 20352 net.cpp:150] Setting up trans_layer_bn_0
I0821 20:50:21.962627 20352 net.cpp:157] Top shape: 64 64 100 1 (409600)
I0821 20:50:21.962631 20352 net.cpp:165] Memory required for data: 14238464
I0821 20:50:21.962641 20352 layer_factory.hpp:77] Creating layer trans_layer_relu_0
I0821 20:50:21.962646 20352 net.cpp:106] Creating Layer trans_layer_relu_0
I0821 20:50:21.962649 20352 net.cpp:454] trans_layer_relu_0 <- trans_layer_bn_0
I0821 20:50:21.962653 20352 net.cpp:397] trans_layer_relu_0 -> trans_layer_bn_0 (in-place)
I0821 20:50:21.962661 20352 net.cpp:150] Setting up trans_layer_relu_0
I0821 20:50:21.962663 20352 net.cpp:157] Top shape: 64 64 100 1 (409600)
I0821 20:50:21.962666 20352 net.cpp:165] Memory required for data: 15876864
I0821 20:50:21.962668 20352 layer_factory.hpp:77] Creating layer trans_layer_conv_1
I0821 20:50:21.962674 20352 net.cpp:106] Creating Layer trans_layer_conv_1
I0821 20:50:21.962677 20352 net.cpp:454] trans_layer_conv_1 <- trans_layer_bn_0
I0821 20:50:21.962682 20352 net.cpp:411] trans_layer_conv_1 -> trans_layer_conv_1
I0821 20:50:21.963645 20352 net.cpp:150] Setting up trans_layer_conv_1
I0821 20:50:21.963660 20352 net.cpp:157] Top shape: 64 64 100 1 (409600)
I0821 20:50:21.963661 20352 net.cpp:165] Memory required for data: 17515264
I0821 20:50:21.963667 20352 layer_factory.hpp:77] Creating layer trans_layer_conv_1_trans_layer_conv_1_0_split
I0821 20:50:21.963675 20352 net.cpp:106] Creating Layer trans_layer_conv_1_trans_layer_conv_1_0_split
I0821 20:50:21.963677 20352 net.cpp:454] trans_layer_conv_1_trans_layer_conv_1_0_split <- trans_layer_conv_1
I0821 20:50:21.963682 20352 net.cpp:411] trans_layer_conv_1_trans_layer_conv_1_0_split -> trans_layer_conv_1_trans_layer_conv_1_0_split_0
I0821 20:50:21.963688 20352 net.cpp:411] trans_layer_conv_1_trans_layer_conv_1_0_split -> trans_layer_conv_1_trans_layer_conv_1_0_split_1
I0821 20:50:21.963711 20352 net.cpp:150] Setting up trans_layer_conv_1_trans_layer_conv_1_0_split
I0821 20:50:21.963716 20352 net.cpp:157] Top shape: 64 64 100 1 (409600)
I0821 20:50:21.963718 20352 net.cpp:157] Top shape: 64 64 100 1 (409600)
I0821 20:50:21.963721 20352 net.cpp:165] Memory required for data: 20792064
I0821 20:50:21.963723 20352 layer_factory.hpp:77] Creating layer trans_layer_bn_1
I0821 20:50:21.963729 20352 net.cpp:106] Creating Layer trans_layer_bn_1
I0821 20:50:21.963732 20352 net.cpp:454] trans_layer_bn_1 <- trans_layer_conv_1_trans_layer_conv_1_0_split_0
I0821 20:50:21.963737 20352 net.cpp:411] trans_layer_bn_1 -> trans_layer_bn_1
I0821 20:50:21.963856 20352 net.cpp:150] Setting up trans_layer_bn_1
I0821 20:50:21.963863 20352 net.cpp:157] Top shape: 64 64 100 1 (409600)
I0821 20:50:21.963866 20352 net.cpp:165] Memory required for data: 22430464
I0821 20:50:21.963873 20352 layer_factory.hpp:77] Creating layer trans_layer_relu_1
I0821 20:50:21.963878 20352 net.cpp:106] Creating Layer trans_layer_relu_1
I0821 20:50:21.963881 20352 net.cpp:454] trans_layer_relu_1 <- trans_layer_bn_1
I0821 20:50:21.963886 20352 net.cpp:397] trans_layer_relu_1 -> trans_layer_bn_1 (in-place)
I0821 20:50:21.963889 20352 net.cpp:150] Setting up trans_layer_relu_1
I0821 20:50:21.963892 20352 net.cpp:157] Top shape: 64 64 100 1 (409600)
I0821 20:50:21.963896 20352 net.cpp:165] Memory required for data: 24068864
I0821 20:50:21.963897 20352 layer_factory.hpp:77] Creating layer trans_layer_conv_2
I0821 20:50:21.963903 20352 net.cpp:106] Creating Layer trans_layer_conv_2
I0821 20:50:21.963907 20352 net.cpp:454] trans_layer_conv_2 <- trans_layer_bn_1
I0821 20:50:21.963912 20352 net.cpp:411] trans_layer_conv_2 -> trans_layer_conv_2
I0821 20:50:21.964146 20352 net.cpp:150] Setting up trans_layer_conv_2
I0821 20:50:21.964154 20352 net.cpp:157] Top shape: 64 64 100 1 (409600)
I0821 20:50:21.964156 20352 net.cpp:165] Memory required for data: 25707264
I0821 20:50:21.964160 20352 layer_factory.hpp:77] Creating layer trans_layer_conv_2_trans_layer_conv_2_0_split
I0821 20:50:21.964165 20352 net.cpp:106] Creating Layer trans_layer_conv_2_trans_layer_conv_2_0_split
I0821 20:50:21.964169 20352 net.cpp:454] trans_layer_conv_2_trans_layer_conv_2_0_split <- trans_layer_conv_2
I0821 20:50:21.964172 20352 net.cpp:411] trans_layer_conv_2_trans_layer_conv_2_0_split -> trans_layer_conv_2_trans_layer_conv_2_0_split_0
I0821 20:50:21.964176 20352 net.cpp:411] trans_layer_conv_2_trans_layer_conv_2_0_split -> trans_layer_conv_2_trans_layer_conv_2_0_split_1
I0821 20:50:21.964200 20352 net.cpp:150] Setting up trans_layer_conv_2_trans_layer_conv_2_0_split
I0821 20:50:21.964205 20352 net.cpp:157] Top shape: 64 64 100 1 (409600)
I0821 20:50:21.964210 20352 net.cpp:157] Top shape: 64 64 100 1 (409600)
I0821 20:50:21.964211 20352 net.cpp:165] Memory required for data: 28984064
I0821 20:50:21.964215 20352 layer_factory.hpp:77] Creating layer trans_layer_bn_2
I0821 20:50:21.964218 20352 net.cpp:106] Creating Layer trans_layer_bn_2
I0821 20:50:21.964221 20352 net.cpp:454] trans_layer_bn_2 <- trans_layer_conv_2_trans_layer_conv_2_0_split_0
I0821 20:50:21.964226 20352 net.cpp:411] trans_layer_bn_2 -> trans_layer_bn_2
I0821 20:50:21.964346 20352 net.cpp:150] Setting up trans_layer_bn_2
I0821 20:50:21.964352 20352 net.cpp:157] Top shape: 64 64 100 1 (409600)
I0821 20:50:21.964355 20352 net.cpp:165] Memory required for data: 30622464
I0821 20:50:21.964360 20352 layer_factory.hpp:77] Creating layer trans_layer_relu_2
I0821 20:50:21.964365 20352 net.cpp:106] Creating Layer trans_layer_relu_2
I0821 20:50:21.964367 20352 net.cpp:454] trans_layer_relu_2 <- trans_layer_bn_2
I0821 20:50:21.964371 20352 net.cpp:397] trans_layer_relu_2 -> trans_layer_bn_2 (in-place)
I0821 20:50:21.964376 20352 net.cpp:150] Setting up trans_layer_relu_2
I0821 20:50:21.964380 20352 net.cpp:157] Top shape: 64 64 100 1 (409600)
I0821 20:50:21.964382 20352 net.cpp:165] Memory required for data: 32260864
I0821 20:50:21.964385 20352 layer_factory.hpp:77] Creating layer dense_layer_conv_0
I0821 20:50:21.964390 20352 net.cpp:106] Creating Layer dense_layer_conv_0
I0821 20:50:21.964393 20352 net.cpp:454] dense_layer_conv_0 <- trans_layer_bn_2
I0821 20:50:21.964397 20352 net.cpp:411] dense_layer_conv_0 -> dense_layer_conv_0
I0821 20:50:21.965515 20352 net.cpp:150] Setting up dense_layer_conv_0
I0821 20:50:21.965528 20352 net.cpp:157] Top shape: 64 64 100 1 (409600)
I0821 20:50:21.965530 20352 net.cpp:165] Memory required for data: 33899264
I0821 20:50:21.965540 20352 layer_factory.hpp:77] Creating layer dense_layer_concat_0
I0821 20:50:21.965548 20352 net.cpp:106] Creating Layer dense_layer_concat_0
I0821 20:50:21.965550 20352 net.cpp:454] dense_layer_concat_0 <- dense_layer_conv_0
I0821 20:50:21.965554 20352 net.cpp:454] dense_layer_concat_0 <- trans_layer_conv_0_trans_layer_conv_0_0_split_1
I0821 20:50:21.965557 20352 net.cpp:454] dense_layer_concat_0 <- trans_layer_conv_1_trans_layer_conv_1_0_split_1
I0821 20:50:21.965561 20352 net.cpp:454] dense_layer_concat_0 <- trans_layer_conv_2_trans_layer_conv_2_0_split_1
I0821 20:50:21.965564 20352 net.cpp:411] dense_layer_concat_0 -> dense_layer_concat_0
I0821 20:50:21.965589 20352 net.cpp:150] Setting up dense_layer_concat_0
I0821 20:50:21.965597 20352 net.cpp:157] Top shape: 64 256 100 1 (1638400)
I0821 20:50:21.965600 20352 net.cpp:165] Memory required for data: 40452864
I0821 20:50:21.965602 20352 layer_factory.hpp:77] Creating layer dense_layer_bn_0
I0821 20:50:21.965608 20352 net.cpp:106] Creating Layer dense_layer_bn_0
I0821 20:50:21.965611 20352 net.cpp:454] dense_layer_bn_0 <- dense_layer_concat_0
I0821 20:50:21.965615 20352 net.cpp:411] dense_layer_bn_0 -> dense_layer_bn_0
I0821 20:50:21.965734 20352 net.cpp:150] Setting up dense_layer_bn_0
I0821 20:50:21.965740 20352 net.cpp:157] Top shape: 64 256 100 1 (1638400)
I0821 20:50:21.965742 20352 net.cpp:165] Memory required for data: 47006464
I0821 20:50:21.965749 20352 layer_factory.hpp:77] Creating layer dense_layer_relu_0
I0821 20:50:21.965752 20352 net.cpp:106] Creating Layer dense_layer_relu_0
I0821 20:50:21.965755 20352 net.cpp:454] dense_layer_relu_0 <- dense_layer_bn_0
I0821 20:50:21.965759 20352 net.cpp:397] dense_layer_relu_0 -> dense_layer_bn_0 (in-place)
I0821 20:50:21.965764 20352 net.cpp:150] Setting up dense_layer_relu_0
I0821 20:50:21.965767 20352 net.cpp:157] Top shape: 64 256 100 1 (1638400)
I0821 20:50:21.965770 20352 net.cpp:165] Memory required for data: 53560064
I0821 20:50:21.965772 20352 layer_factory.hpp:77] Creating layer dense_layer_pool_0
I0821 20:50:21.965777 20352 net.cpp:106] Creating Layer dense_layer_pool_0
I0821 20:50:21.965780 20352 net.cpp:454] dense_layer_pool_0 <- dense_layer_bn_0
I0821 20:50:21.965783 20352 net.cpp:411] dense_layer_pool_0 -> dense_layer_pool_0
I0821 20:50:21.965811 20352 net.cpp:150] Setting up dense_layer_pool_0
I0821 20:50:21.965817 20352 net.cpp:157] Top shape: 64 256 51 1 (835584)
I0821 20:50:21.965819 20352 net.cpp:165] Memory required for data: 56902400
I0821 20:50:21.965822 20352 layer_factory.hpp:77] Creating layer dense_layer_pool_0_dense_layer_pool_0_0_split
I0821 20:50:21.965826 20352 net.cpp:106] Creating Layer dense_layer_pool_0_dense_layer_pool_0_0_split
I0821 20:50:21.965829 20352 net.cpp:454] dense_layer_pool_0_dense_layer_pool_0_0_split <- dense_layer_pool_0
I0821 20:50:21.965833 20352 net.cpp:411] dense_layer_pool_0_dense_layer_pool_0_0_split -> dense_layer_pool_0_dense_layer_pool_0_0_split_0
I0821 20:50:21.965838 20352 net.cpp:411] dense_layer_pool_0_dense_layer_pool_0_0_split -> dense_layer_pool_0_dense_layer_pool_0_0_split_1
I0821 20:50:21.965858 20352 net.cpp:150] Setting up dense_layer_pool_0_dense_layer_pool_0_0_split
I0821 20:50:21.965864 20352 net.cpp:157] Top shape: 64 256 51 1 (835584)
I0821 20:50:21.965867 20352 net.cpp:157] Top shape: 64 256 51 1 (835584)
I0821 20:50:21.965869 20352 net.cpp:165] Memory required for data: 63587072
I0821 20:50:21.965873 20352 layer_factory.hpp:77] Creating layer dense_layer_conv_1
I0821 20:50:21.965878 20352 net.cpp:106] Creating Layer dense_layer_conv_1
I0821 20:50:21.965881 20352 net.cpp:454] dense_layer_conv_1 <- dense_layer_pool_0_dense_layer_pool_0_0_split_0
I0821 20:50:21.965885 20352 net.cpp:411] dense_layer_conv_1 -> dense_layer_conv_1
I0821 20:50:21.967216 20352 net.cpp:150] Setting up dense_layer_conv_1
I0821 20:50:21.967224 20352 net.cpp:157] Top shape: 64 64 51 1 (208896)
I0821 20:50:21.967226 20352 net.cpp:165] Memory required for data: 64422656
I0821 20:50:21.967231 20352 layer_factory.hpp:77] Creating layer dense_layer_concat_1
I0821 20:50:21.967238 20352 net.cpp:106] Creating Layer dense_layer_concat_1
I0821 20:50:21.967242 20352 net.cpp:454] dense_layer_concat_1 <- dense_layer_conv_1
I0821 20:50:21.967244 20352 net.cpp:454] dense_layer_concat_1 <- dense_layer_pool_0_dense_layer_pool_0_0_split_1
I0821 20:50:21.967248 20352 net.cpp:411] dense_layer_concat_1 -> dense_layer_concat_1
I0821 20:50:21.967263 20352 net.cpp:150] Setting up dense_layer_concat_1
I0821 20:50:21.967269 20352 net.cpp:157] Top shape: 64 320 51 1 (1044480)
I0821 20:50:21.967272 20352 net.cpp:165] Memory required for data: 68600576
I0821 20:50:21.967274 20352 layer_factory.hpp:77] Creating layer dense_layer_bn_1
I0821 20:50:21.967278 20352 net.cpp:106] Creating Layer dense_layer_bn_1
I0821 20:50:21.967281 20352 net.cpp:454] dense_layer_bn_1 <- dense_layer_concat_1
I0821 20:50:21.967285 20352 net.cpp:411] dense_layer_bn_1 -> dense_layer_bn_1
I0821 20:50:21.968096 20352 net.cpp:150] Setting up dense_layer_bn_1
I0821 20:50:21.968108 20352 net.cpp:157] Top shape: 64 320 51 1 (1044480)
I0821 20:50:21.968111 20352 net.cpp:165] Memory required for data: 72778496
I0821 20:50:21.968118 20352 layer_factory.hpp:77] Creating layer dense_layer_relu_1
I0821 20:50:21.968124 20352 net.cpp:106] Creating Layer dense_layer_relu_1
I0821 20:50:21.968127 20352 net.cpp:454] dense_layer_relu_1 <- dense_layer_bn_1
I0821 20:50:21.968132 20352 net.cpp:397] dense_layer_relu_1 -> dense_layer_bn_1 (in-place)
I0821 20:50:21.968137 20352 net.cpp:150] Setting up dense_layer_relu_1
I0821 20:50:21.968140 20352 net.cpp:157] Top shape: 64 320 51 1 (1044480)
I0821 20:50:21.968142 20352 net.cpp:165] Memory required for data: 76956416
I0821 20:50:21.968147 20352 layer_factory.hpp:77] Creating layer dense_layer_pool_1
I0821 20:50:21.968152 20352 net.cpp:106] Creating Layer dense_layer_pool_1
I0821 20:50:21.968155 20352 net.cpp:454] dense_layer_pool_1 <- dense_layer_bn_1
I0821 20:50:21.968160 20352 net.cpp:411] dense_layer_pool_1 -> dense_layer_pool_1
I0821 20:50:21.968181 20352 net.cpp:150] Setting up dense_layer_pool_1
I0821 20:50:21.968188 20352 net.cpp:157] Top shape: 64 320 26 1 (532480)
I0821 20:50:21.968189 20352 net.cpp:165] Memory required for data: 79086336
I0821 20:50:21.968192 20352 layer_factory.hpp:77] Creating layer dense_layer_pool_1_dense_layer_pool_1_0_split
I0821 20:50:21.968196 20352 net.cpp:106] Creating Layer dense_layer_pool_1_dense_layer_pool_1_0_split
I0821 20:50:21.968199 20352 net.cpp:454] dense_layer_pool_1_dense_layer_pool_1_0_split <- dense_layer_pool_1
I0821 20:50:21.968202 20352 net.cpp:411] dense_layer_pool_1_dense_layer_pool_1_0_split -> dense_layer_pool_1_dense_layer_pool_1_0_split_0
I0821 20:50:21.968207 20352 net.cpp:411] dense_layer_pool_1_dense_layer_pool_1_0_split -> dense_layer_pool_1_dense_layer_pool_1_0_split_1
I0821 20:50:21.968228 20352 net.cpp:150] Setting up dense_layer_pool_1_dense_layer_pool_1_0_split
I0821 20:50:21.968233 20352 net.cpp:157] Top shape: 64 320 26 1 (532480)
I0821 20:50:21.968236 20352 net.cpp:157] Top shape: 64 320 26 1 (532480)
I0821 20:50:21.968238 20352 net.cpp:165] Memory required for data: 83346176
I0821 20:50:21.968241 20352 layer_factory.hpp:77] Creating layer dense_layer_conv_2
I0821 20:50:21.968247 20352 net.cpp:106] Creating Layer dense_layer_conv_2
I0821 20:50:21.968250 20352 net.cpp:454] dense_layer_conv_2 <- dense_layer_pool_1_dense_layer_pool_1_0_split_0
I0821 20:50:21.968255 20352 net.cpp:411] dense_layer_conv_2 -> dense_layer_conv_2
I0821 20:50:21.969890 20352 net.cpp:150] Setting up dense_layer_conv_2
I0821 20:50:21.969898 20352 net.cpp:157] Top shape: 64 64 26 1 (106496)
I0821 20:50:21.969902 20352 net.cpp:165] Memory required for data: 83772160
I0821 20:50:21.969905 20352 layer_factory.hpp:77] Creating layer dense_layer_concat_2
I0821 20:50:21.969910 20352 net.cpp:106] Creating Layer dense_layer_concat_2
I0821 20:50:21.969913 20352 net.cpp:454] dense_layer_concat_2 <- dense_layer_conv_2
I0821 20:50:21.969918 20352 net.cpp:454] dense_layer_concat_2 <- dense_layer_pool_1_dense_layer_pool_1_0_split_1
I0821 20:50:21.969921 20352 net.cpp:411] dense_layer_concat_2 -> dense_layer_concat_2
I0821 20:50:21.969936 20352 net.cpp:150] Setting up dense_layer_concat_2
I0821 20:50:21.969943 20352 net.cpp:157] Top shape: 64 384 26 1 (638976)
I0821 20:50:21.969944 20352 net.cpp:165] Memory required for data: 86328064
I0821 20:50:21.969947 20352 layer_factory.hpp:77] Creating layer dense_layer_bn_2
I0821 20:50:21.969952 20352 net.cpp:106] Creating Layer dense_layer_bn_2
I0821 20:50:21.969955 20352 net.cpp:454] dense_layer_bn_2 <- dense_layer_concat_2
I0821 20:50:21.969959 20352 net.cpp:411] dense_layer_bn_2 -> dense_layer_bn_2
I0821 20:50:21.970080 20352 net.cpp:150] Setting up dense_layer_bn_2
I0821 20:50:21.970086 20352 net.cpp:157] Top shape: 64 384 26 1 (638976)
I0821 20:50:21.970089 20352 net.cpp:165] Memory required for data: 88883968
I0821 20:50:21.970094 20352 layer_factory.hpp:77] Creating layer dense_layer_relu_2
I0821 20:50:21.970101 20352 net.cpp:106] Creating Layer dense_layer_relu_2
I0821 20:50:21.970106 20352 net.cpp:454] dense_layer_relu_2 <- dense_layer_bn_2
I0821 20:50:21.970110 20352 net.cpp:397] dense_layer_relu_2 -> dense_layer_bn_2 (in-place)
I0821 20:50:21.970114 20352 net.cpp:150] Setting up dense_layer_relu_2
I0821 20:50:21.970118 20352 net.cpp:157] Top shape: 64 384 26 1 (638976)
I0821 20:50:21.970120 20352 net.cpp:165] Memory required for data: 91439872
I0821 20:50:21.970122 20352 layer_factory.hpp:77] Creating layer dense_layer_pool_2
I0821 20:50:21.970127 20352 net.cpp:106] Creating Layer dense_layer_pool_2
I0821 20:50:21.970129 20352 net.cpp:454] dense_layer_pool_2 <- dense_layer_bn_2
I0821 20:50:21.970134 20352 net.cpp:411] dense_layer_pool_2 -> dense_layer_pool_2
I0821 20:50:21.970149 20352 net.cpp:150] Setting up dense_layer_pool_2
I0821 20:50:21.970152 20352 net.cpp:157] Top shape: 64 384 14 1 (344064)
I0821 20:50:21.970155 20352 net.cpp:165] Memory required for data: 92816128
I0821 20:50:21.970156 20352 layer_factory.hpp:77] Creating layer dense_layer_pool_2_dense_layer_pool_2_0_split
I0821 20:50:21.970161 20352 net.cpp:106] Creating Layer dense_layer_pool_2_dense_layer_pool_2_0_split
I0821 20:50:21.970165 20352 net.cpp:454] dense_layer_pool_2_dense_layer_pool_2_0_split <- dense_layer_pool_2
I0821 20:50:21.970167 20352 net.cpp:411] dense_layer_pool_2_dense_layer_pool_2_0_split -> dense_layer_pool_2_dense_layer_pool_2_0_split_0
I0821 20:50:21.970171 20352 net.cpp:411] dense_layer_pool_2_dense_layer_pool_2_0_split -> dense_layer_pool_2_dense_layer_pool_2_0_split_1
I0821 20:50:21.970191 20352 net.cpp:150] Setting up dense_layer_pool_2_dense_layer_pool_2_0_split
I0821 20:50:21.970196 20352 net.cpp:157] Top shape: 64 384 14 1 (344064)
I0821 20:50:21.970199 20352 net.cpp:157] Top shape: 64 384 14 1 (344064)
I0821 20:50:21.970202 20352 net.cpp:165] Memory required for data: 95568640
I0821 20:50:21.970204 20352 layer_factory.hpp:77] Creating layer dense_layer_conv_3
I0821 20:50:21.970212 20352 net.cpp:106] Creating Layer dense_layer_conv_3
I0821 20:50:21.970216 20352 net.cpp:454] dense_layer_conv_3 <- dense_layer_pool_2_dense_layer_pool_2_0_split_0
I0821 20:50:21.970221 20352 net.cpp:411] dense_layer_conv_3 -> dense_layer_conv_3
I0821 20:50:21.972810 20352 net.cpp:150] Setting up dense_layer_conv_3
I0821 20:50:21.972822 20352 net.cpp:157] Top shape: 64 64 14 1 (57344)
I0821 20:50:21.972826 20352 net.cpp:165] Memory required for data: 95798016
I0821 20:50:21.972833 20352 layer_factory.hpp:77] Creating layer dense_layer_concat_3
I0821 20:50:21.972838 20352 net.cpp:106] Creating Layer dense_layer_concat_3
I0821 20:50:21.972842 20352 net.cpp:454] dense_layer_concat_3 <- dense_layer_conv_3
I0821 20:50:21.972846 20352 net.cpp:454] dense_layer_concat_3 <- dense_layer_pool_2_dense_layer_pool_2_0_split_1
I0821 20:50:21.972851 20352 net.cpp:411] dense_layer_concat_3 -> dense_layer_concat_3
I0821 20:50:21.972868 20352 net.cpp:150] Setting up dense_layer_concat_3
I0821 20:50:21.972874 20352 net.cpp:157] Top shape: 64 448 14 1 (401408)
I0821 20:50:21.972877 20352 net.cpp:165] Memory required for data: 97403648
I0821 20:50:21.972879 20352 layer_factory.hpp:77] Creating layer dense_layer_bn_3
I0821 20:50:21.972884 20352 net.cpp:106] Creating Layer dense_layer_bn_3
I0821 20:50:21.972887 20352 net.cpp:454] dense_layer_bn_3 <- dense_layer_concat_3
I0821 20:50:21.972892 20352 net.cpp:411] dense_layer_bn_3 -> dense_layer_bn_3
I0821 20:50:21.973016 20352 net.cpp:150] Setting up dense_layer_bn_3
I0821 20:50:21.973023 20352 net.cpp:157] Top shape: 64 448 14 1 (401408)
I0821 20:50:21.973026 20352 net.cpp:165] Memory required for data: 99009280
I0821 20:50:21.973035 20352 layer_factory.hpp:77] Creating layer dense_layer_relu_3
I0821 20:50:21.973042 20352 net.cpp:106] Creating Layer dense_layer_relu_3
I0821 20:50:21.973044 20352 net.cpp:454] dense_layer_relu_3 <- dense_layer_bn_3
I0821 20:50:21.973048 20352 net.cpp:397] dense_layer_relu_3 -> dense_layer_bn_3 (in-place)
I0821 20:50:21.973052 20352 net.cpp:150] Setting up dense_layer_relu_3
I0821 20:50:21.973055 20352 net.cpp:157] Top shape: 64 448 14 1 (401408)
I0821 20:50:21.973057 20352 net.cpp:165] Memory required for data: 100614912
I0821 20:50:21.973060 20352 layer_factory.hpp:77] Creating layer dense_layer_pool_3
I0821 20:50:21.973065 20352 net.cpp:106] Creating Layer dense_layer_pool_3
I0821 20:50:21.973067 20352 net.cpp:454] dense_layer_pool_3 <- dense_layer_bn_3
I0821 20:50:21.973071 20352 net.cpp:411] dense_layer_pool_3 -> dense_layer_pool_3
I0821 20:50:21.973086 20352 net.cpp:150] Setting up dense_layer_pool_3
I0821 20:50:21.973093 20352 net.cpp:157] Top shape: 64 448 8 1 (229376)
I0821 20:50:21.973095 20352 net.cpp:165] Memory required for data: 101532416
I0821 20:50:21.973098 20352 layer_factory.hpp:77] Creating layer dense_layer_pool_3_dense_layer_pool_3_0_split
I0821 20:50:21.973103 20352 net.cpp:106] Creating Layer dense_layer_pool_3_dense_layer_pool_3_0_split
I0821 20:50:21.973105 20352 net.cpp:454] dense_layer_pool_3_dense_layer_pool_3_0_split <- dense_layer_pool_3
I0821 20:50:21.973109 20352 net.cpp:411] dense_layer_pool_3_dense_layer_pool_3_0_split -> dense_layer_pool_3_dense_layer_pool_3_0_split_0
I0821 20:50:21.973114 20352 net.cpp:411] dense_layer_pool_3_dense_layer_pool_3_0_split -> dense_layer_pool_3_dense_layer_pool_3_0_split_1
I0821 20:50:21.973134 20352 net.cpp:150] Setting up dense_layer_pool_3_dense_layer_pool_3_0_split
I0821 20:50:21.973140 20352 net.cpp:157] Top shape: 64 448 8 1 (229376)
I0821 20:50:21.973143 20352 net.cpp:157] Top shape: 64 448 8 1 (229376)
I0821 20:50:21.973145 20352 net.cpp:165] Memory required for data: 103367424
I0821 20:50:21.973148 20352 layer_factory.hpp:77] Creating layer dense_layer_conv_4
I0821 20:50:21.973155 20352 net.cpp:106] Creating Layer dense_layer_conv_4
I0821 20:50:21.973157 20352 net.cpp:454] dense_layer_conv_4 <- dense_layer_pool_3_dense_layer_pool_3_0_split_0
I0821 20:50:21.973161 20352 net.cpp:411] dense_layer_conv_4 -> dense_layer_conv_4
I0821 20:50:21.975374 20352 net.cpp:150] Setting up dense_layer_conv_4
I0821 20:50:21.975383 20352 net.cpp:157] Top shape: 64 64 8 1 (32768)
I0821 20:50:21.975385 20352 net.cpp:165] Memory required for data: 103498496
I0821 20:50:21.975389 20352 layer_factory.hpp:77] Creating layer dense_layer_concat_4
I0821 20:50:21.975394 20352 net.cpp:106] Creating Layer dense_layer_concat_4
I0821 20:50:21.975397 20352 net.cpp:454] dense_layer_concat_4 <- dense_layer_conv_4
I0821 20:50:21.975401 20352 net.cpp:454] dense_layer_concat_4 <- dense_layer_pool_3_dense_layer_pool_3_0_split_1
I0821 20:50:21.975405 20352 net.cpp:411] dense_layer_concat_4 -> dense_layer_concat_4
I0821 20:50:21.975420 20352 net.cpp:150] Setting up dense_layer_concat_4
I0821 20:50:21.975426 20352 net.cpp:157] Top shape: 64 512 8 1 (262144)
I0821 20:50:21.975428 20352 net.cpp:165] Memory required for data: 104547072
I0821 20:50:21.975431 20352 layer_factory.hpp:77] Creating layer dense_layer_bn_4
I0821 20:50:21.975437 20352 net.cpp:106] Creating Layer dense_layer_bn_4
I0821 20:50:21.975442 20352 net.cpp:454] dense_layer_bn_4 <- dense_layer_concat_4
I0821 20:50:21.975446 20352 net.cpp:411] dense_layer_bn_4 -> dense_layer_bn_4
I0821 20:50:21.975569 20352 net.cpp:150] Setting up dense_layer_bn_4
I0821 20:50:21.975576 20352 net.cpp:157] Top shape: 64 512 8 1 (262144)
I0821 20:50:21.975579 20352 net.cpp:165] Memory required for data: 105595648
I0821 20:50:21.975584 20352 layer_factory.hpp:77] Creating layer dense_layer_relu_4
I0821 20:50:21.975589 20352 net.cpp:106] Creating Layer dense_layer_relu_4
I0821 20:50:21.975591 20352 net.cpp:454] dense_layer_relu_4 <- dense_layer_bn_4
I0821 20:50:21.975595 20352 net.cpp:397] dense_layer_relu_4 -> dense_layer_bn_4 (in-place)
I0821 20:50:21.975600 20352 net.cpp:150] Setting up dense_layer_relu_4
I0821 20:50:21.975603 20352 net.cpp:157] Top shape: 64 512 8 1 (262144)
I0821 20:50:21.975605 20352 net.cpp:165] Memory required for data: 106644224
I0821 20:50:21.975607 20352 layer_factory.hpp:77] Creating layer attention_layer_conv_0
I0821 20:50:21.975613 20352 net.cpp:106] Creating Layer attention_layer_conv_0
I0821 20:50:21.975616 20352 net.cpp:454] attention_layer_conv_0 <- dense_layer_bn_4
I0821 20:50:21.975620 20352 net.cpp:411] attention_layer_conv_0 -> attention_layer_conv_0
I0821 20:50:21.976557 20352 net.cpp:150] Setting up attention_layer_conv_0
I0821 20:50:21.976563 20352 net.cpp:157] Top shape: 64 512 8 1 (262144)
I0821 20:50:21.976565 20352 net.cpp:165] Memory required for data: 107692800
I0821 20:50:21.976569 20352 layer_factory.hpp:77] Creating layer attention_layer_bn_0
I0821 20:50:21.976575 20352 net.cpp:106] Creating Layer attention_layer_bn_0
I0821 20:50:21.976577 20352 net.cpp:454] attention_layer_bn_0 <- attention_layer_conv_0
I0821 20:50:21.976581 20352 net.cpp:411] attention_layer_bn_0 -> attention_layer_bn_0
I0821 20:50:21.976699 20352 net.cpp:150] Setting up attention_layer_bn_0
I0821 20:50:21.976706 20352 net.cpp:157] Top shape: 64 512 8 1 (262144)
I0821 20:50:21.976708 20352 net.cpp:165] Memory required for data: 108741376
I0821 20:50:21.976713 20352 layer_factory.hpp:77] Creating layer attention_layer_relu_0
I0821 20:50:21.976718 20352 net.cpp:106] Creating Layer attention_layer_relu_0
I0821 20:50:21.976721 20352 net.cpp:454] attention_layer_relu_0 <- attention_layer_bn_0
I0821 20:50:21.976724 20352 net.cpp:397] attention_layer_relu_0 -> attention_layer_bn_0 (in-place)
I0821 20:50:21.976728 20352 net.cpp:150] Setting up attention_layer_relu_0
I0821 20:50:21.976732 20352 net.cpp:157] Top shape: 64 512 8 1 (262144)
I0821 20:50:21.976733 20352 net.cpp:165] Memory required for data: 109789952
I0821 20:50:21.976737 20352 layer_factory.hpp:77] Creating layer attention_layer_conv_1
I0821 20:50:21.976742 20352 net.cpp:106] Creating Layer attention_layer_conv_1
I0821 20:50:21.976744 20352 net.cpp:454] attention_layer_conv_1 <- attention_layer_bn_0
I0821 20:50:21.976748 20352 net.cpp:411] attention_layer_conv_1 -> attention_layer_conv_1
I0821 20:50:21.977687 20352 net.cpp:150] Setting up attention_layer_conv_1
I0821 20:50:21.977694 20352 net.cpp:157] Top shape: 64 512 8 1 (262144)
I0821 20:50:21.977697 20352 net.cpp:165] Memory required for data: 110838528
I0821 20:50:21.977701 20352 layer_factory.hpp:77] Creating layer attention_layer_bn_1
I0821 20:50:21.977706 20352 net.cpp:106] Creating Layer attention_layer_bn_1
I0821 20:50:21.977710 20352 net.cpp:454] attention_layer_bn_1 <- attention_layer_conv_1
I0821 20:50:21.977713 20352 net.cpp:411] attention_layer_bn_1 -> attention_layer_bn_1
I0821 20:50:21.977831 20352 net.cpp:150] Setting up attention_layer_bn_1
I0821 20:50:21.977838 20352 net.cpp:157] Top shape: 64 512 8 1 (262144)
I0821 20:50:21.977840 20352 net.cpp:165] Memory required for data: 111887104
I0821 20:50:21.977849 20352 layer_factory.hpp:77] Creating layer attention_layer_relu_1
I0821 20:50:21.977852 20352 net.cpp:106] Creating Layer attention_layer_relu_1
I0821 20:50:21.977855 20352 net.cpp:454] attention_layer_relu_1 <- attention_layer_bn_1
I0821 20:50:21.977859 20352 net.cpp:397] attention_layer_relu_1 -> attention_layer_bn_1 (in-place)
I0821 20:50:21.977864 20352 net.cpp:150] Setting up attention_layer_relu_1
I0821 20:50:21.977866 20352 net.cpp:157] Top shape: 64 512 8 1 (262144)
I0821 20:50:21.977869 20352 net.cpp:165] Memory required for data: 112935680
I0821 20:50:21.977871 20352 layer_factory.hpp:77] Creating layer attention_layer_conv_2
I0821 20:50:21.977877 20352 net.cpp:106] Creating Layer attention_layer_conv_2
I0821 20:50:21.977880 20352 net.cpp:454] attention_layer_conv_2 <- attention_layer_bn_1
I0821 20:50:21.977883 20352 net.cpp:411] attention_layer_conv_2 -> attention_layer_conv_2
I0821 20:50:21.978817 20352 net.cpp:150] Setting up attention_layer_conv_2
I0821 20:50:21.978824 20352 net.cpp:157] Top shape: 64 512 8 1 (262144)
I0821 20:50:21.978826 20352 net.cpp:165] Memory required for data: 113984256
I0821 20:50:21.978832 20352 layer_factory.hpp:77] Creating layer attention_layer_bn_2
I0821 20:50:21.978835 20352 net.cpp:106] Creating Layer attention_layer_bn_2
I0821 20:50:21.978838 20352 net.cpp:454] attention_layer_bn_2 <- attention_layer_conv_2
I0821 20:50:21.978842 20352 net.cpp:411] attention_layer_bn_2 -> attention_layer_bn_2
I0821 20:50:21.978966 20352 net.cpp:150] Setting up attention_layer_bn_2
I0821 20:50:21.978973 20352 net.cpp:157] Top shape: 64 512 8 1 (262144)
I0821 20:50:21.978976 20352 net.cpp:165] Memory required for data: 115032832
I0821 20:50:21.978981 20352 layer_factory.hpp:77] Creating layer attention_layer_relu_2
I0821 20:50:21.978986 20352 net.cpp:106] Creating Layer attention_layer_relu_2
I0821 20:50:21.978988 20352 net.cpp:454] attention_layer_relu_2 <- attention_layer_bn_2
I0821 20:50:21.978992 20352 net.cpp:397] attention_layer_relu_2 -> attention_layer_bn_2 (in-place)
I0821 20:50:21.978996 20352 net.cpp:150] Setting up attention_layer_relu_2
I0821 20:50:21.978999 20352 net.cpp:157] Top shape: 64 512 8 1 (262144)
I0821 20:50:21.979002 20352 net.cpp:165] Memory required for data: 116081408
I0821 20:50:21.979004 20352 layer_factory.hpp:77] Creating layer attention_scale_slice
I0821 20:50:21.979015 20352 net.cpp:106] Creating Layer attention_scale_slice
I0821 20:50:21.979018 20352 net.cpp:454] attention_scale_slice <- attention_layer_bn_2
I0821 20:50:21.979022 20352 net.cpp:411] attention_scale_slice -> attention_scale_0
I0821 20:50:21.979029 20352 net.cpp:411] attention_scale_slice -> attention_scale_1
I0821 20:50:21.979034 20352 net.cpp:411] attention_scale_slice -> attention_scale_2
I0821 20:50:21.979039 20352 net.cpp:411] attention_scale_slice -> attention_scale_3
I0821 20:50:21.979043 20352 net.cpp:411] attention_scale_slice -> attention_scale_4
I0821 20:50:21.979048 20352 net.cpp:411] attention_scale_slice -> attention_scale_5
I0821 20:50:21.979051 20352 net.cpp:411] attention_scale_slice -> attention_scale_6
I0821 20:50:21.979055 20352 net.cpp:411] attention_scale_slice -> attention_scale_7
I0821 20:50:21.979127 20352 net.cpp:150] Setting up attention_scale_slice
I0821 20:50:21.979133 20352 net.cpp:157] Top shape: 64 64 8 1 (32768)
I0821 20:50:21.979136 20352 net.cpp:157] Top shape: 64 64 8 1 (32768)
I0821 20:50:21.979140 20352 net.cpp:157] Top shape: 64 64 8 1 (32768)
I0821 20:50:21.979141 20352 net.cpp:157] Top shape: 64 64 8 1 (32768)
I0821 20:50:21.979144 20352 net.cpp:157] Top shape: 64 64 8 1 (32768)
I0821 20:50:21.979147 20352 net.cpp:157] Top shape: 64 64 8 1 (32768)
I0821 20:50:21.979151 20352 net.cpp:157] Top shape: 64 64 8 1 (32768)
I0821 20:50:21.979153 20352 net.cpp:157] Top shape: 64 64 8 1 (32768)
I0821 20:50:21.979156 20352 net.cpp:165] Memory required for data: 117129984
I0821 20:50:21.979158 20352 layer_factory.hpp:77] Creating layer attention_scale_0_attention_scale_slice_0_split
I0821 20:50:21.979162 20352 net.cpp:106] Creating Layer attention_scale_0_attention_scale_slice_0_split
I0821 20:50:21.979166 20352 net.cpp:454] attention_scale_0_attention_scale_slice_0_split <- attention_scale_0
I0821 20:50:21.979169 20352 net.cpp:411] attention_scale_0_attention_scale_slice_0_split -> attention_scale_0_attention_scale_slice_0_split_0
I0821 20:50:21.979173 20352 net.cpp:411] attention_scale_0_attention_scale_slice_0_split -> attention_scale_0_attention_scale_slice_0_split_1
I0821 20:50:21.979177 20352 net.cpp:411] attention_scale_0_attention_scale_slice_0_split -> attention_scale_0_attention_scale_slice_0_split_2
I0821 20:50:21.979207 20352 net.cpp:150] Setting up attention_scale_0_attention_scale_slice_0_split
I0821 20:50:21.979213 20352 net.cpp:157] Top shape: 64 64 8 1 (32768)
I0821 20:50:21.979216 20352 net.cpp:157] Top shape: 64 64 8 1 (32768)
I0821 20:50:21.979219 20352 net.cpp:157] Top shape: 64 64 8 1 (32768)
I0821 20:50:21.979223 20352 net.cpp:165] Memory required for data: 117523200
I0821 20:50:21.979224 20352 layer_factory.hpp:77] Creating layer attention_scale_1_attention_scale_slice_1_split
I0821 20:50:21.979228 20352 net.cpp:106] Creating Layer attention_scale_1_attention_scale_slice_1_split
I0821 20:50:21.979231 20352 net.cpp:454] attention_scale_1_attention_scale_slice_1_split <- attention_scale_1
I0821 20:50:21.979235 20352 net.cpp:411] attention_scale_1_attention_scale_slice_1_split -> attention_scale_1_attention_scale_slice_1_split_0
I0821 20:50:21.979239 20352 net.cpp:411] attention_scale_1_attention_scale_slice_1_split -> attention_scale_1_attention_scale_slice_1_split_1
I0821 20:50:21.979243 20352 net.cpp:411] attention_scale_1_attention_scale_slice_1_split -> attention_scale_1_attention_scale_slice_1_split_2
I0821 20:50:21.979269 20352 net.cpp:150] Setting up attention_scale_1_attention_scale_slice_1_split
I0821 20:50:21.979274 20352 net.cpp:157] Top shape: 64 64 8 1 (32768)
I0821 20:50:21.979277 20352 net.cpp:157] Top shape: 64 64 8 1 (32768)
I0821 20:50:21.979280 20352 net.cpp:157] Top shape: 64 64 8 1 (32768)
I0821 20:50:21.979282 20352 net.cpp:165] Memory required for data: 117916416
I0821 20:50:21.979285 20352 layer_factory.hpp:77] Creating layer attention_scale_2_attention_scale_slice_2_split
I0821 20:50:21.979288 20352 net.cpp:106] Creating Layer attention_scale_2_attention_scale_slice_2_split
I0821 20:50:21.979291 20352 net.cpp:454] attention_scale_2_attention_scale_slice_2_split <- attention_scale_2
I0821 20:50:21.979295 20352 net.cpp:411] attention_scale_2_attention_scale_slice_2_split -> attention_scale_2_attention_scale_slice_2_split_0
I0821 20:50:21.979298 20352 net.cpp:411] attention_scale_2_attention_scale_slice_2_split -> attention_scale_2_attention_scale_slice_2_split_1
I0821 20:50:21.979302 20352 net.cpp:411] attention_scale_2_attention_scale_slice_2_split -> attention_scale_2_attention_scale_slice_2_split_2
I0821 20:50:21.979331 20352 net.cpp:150] Setting up attention_scale_2_attention_scale_slice_2_split
I0821 20:50:21.979336 20352 net.cpp:157] Top shape: 64 64 8 1 (32768)
I0821 20:50:21.979338 20352 net.cpp:157] Top shape: 64 64 8 1 (32768)
I0821 20:50:21.979341 20352 net.cpp:157] Top shape: 64 64 8 1 (32768)
I0821 20:50:21.979343 20352 net.cpp:165] Memory required for data: 118309632
I0821 20:50:21.979346 20352 layer_factory.hpp:77] Creating layer attention_scale_3_attention_scale_slice_3_split
I0821 20:50:21.979349 20352 net.cpp:106] Creating Layer attention_scale_3_attention_scale_slice_3_split
I0821 20:50:21.979352 20352 net.cpp:454] attention_scale_3_attention_scale_slice_3_split <- attention_scale_3
I0821 20:50:21.979357 20352 net.cpp:411] attention_scale_3_attention_scale_slice_3_split -> attention_scale_3_attention_scale_slice_3_split_0
I0821 20:50:21.979359 20352 net.cpp:411] attention_scale_3_attention_scale_slice_3_split -> attention_scale_3_attention_scale_slice_3_split_1
I0821 20:50:21.979363 20352 net.cpp:411] attention_scale_3_attention_scale_slice_3_split -> attention_scale_3_attention_scale_slice_3_split_2
I0821 20:50:21.979388 20352 net.cpp:150] Setting up attention_scale_3_attention_scale_slice_3_split
I0821 20:50:21.979393 20352 net.cpp:157] Top shape: 64 64 8 1 (32768)
I0821 20:50:21.979395 20352 net.cpp:157] Top shape: 64 64 8 1 (32768)
I0821 20:50:21.979398 20352 net.cpp:157] Top shape: 64 64 8 1 (32768)
I0821 20:50:21.979400 20352 net.cpp:165] Memory required for data: 118702848
I0821 20:50:21.979403 20352 layer_factory.hpp:77] Creating layer attention_scale_4_attention_scale_slice_4_split
I0821 20:50:21.979406 20352 net.cpp:106] Creating Layer attention_scale_4_attention_scale_slice_4_split
I0821 20:50:21.979408 20352 net.cpp:454] attention_scale_4_attention_scale_slice_4_split <- attention_scale_4
I0821 20:50:21.979413 20352 net.cpp:411] attention_scale_4_attention_scale_slice_4_split -> attention_scale_4_attention_scale_slice_4_split_0
I0821 20:50:21.979416 20352 net.cpp:411] attention_scale_4_attention_scale_slice_4_split -> attention_scale_4_attention_scale_slice_4_split_1
I0821 20:50:21.979420 20352 net.cpp:411] attention_scale_4_attention_scale_slice_4_split -> attention_scale_4_attention_scale_slice_4_split_2
I0821 20:50:21.979449 20352 net.cpp:150] Setting up attention_scale_4_attention_scale_slice_4_split
I0821 20:50:21.979451 20352 net.cpp:157] Top shape: 64 64 8 1 (32768)
I0821 20:50:21.979454 20352 net.cpp:157] Top shape: 64 64 8 1 (32768)
I0821 20:50:21.979457 20352 net.cpp:157] Top shape: 64 64 8 1 (32768)
I0821 20:50:21.979460 20352 net.cpp:165] Memory required for data: 119096064
I0821 20:50:21.979462 20352 layer_factory.hpp:77] Creating layer attention_scale_5_attention_scale_slice_5_split
I0821 20:50:21.979465 20352 net.cpp:106] Creating Layer attention_scale_5_attention_scale_slice_5_split
I0821 20:50:21.979468 20352 net.cpp:454] attention_scale_5_attention_scale_slice_5_split <- attention_scale_5
I0821 20:50:21.979471 20352 net.cpp:411] attention_scale_5_attention_scale_slice_5_split -> attention_scale_5_attention_scale_slice_5_split_0
I0821 20:50:21.979475 20352 net.cpp:411] attention_scale_5_attention_scale_slice_5_split -> attention_scale_5_attention_scale_slice_5_split_1
I0821 20:50:21.979480 20352 net.cpp:411] attention_scale_5_attention_scale_slice_5_split -> attention_scale_5_attention_scale_slice_5_split_2
I0821 20:50:21.979504 20352 net.cpp:150] Setting up attention_scale_5_attention_scale_slice_5_split
I0821 20:50:21.979508 20352 net.cpp:157] Top shape: 64 64 8 1 (32768)
I0821 20:50:21.979511 20352 net.cpp:157] Top shape: 64 64 8 1 (32768)
I0821 20:50:21.979513 20352 net.cpp:157] Top shape: 64 64 8 1 (32768)
I0821 20:50:21.979516 20352 net.cpp:165] Memory required for data: 119489280
I0821 20:50:21.979518 20352 layer_factory.hpp:77] Creating layer attention_scale_6_attention_scale_slice_6_split
I0821 20:50:21.979521 20352 net.cpp:106] Creating Layer attention_scale_6_attention_scale_slice_6_split
I0821 20:50:21.979524 20352 net.cpp:454] attention_scale_6_attention_scale_slice_6_split <- attention_scale_6
I0821 20:50:21.979527 20352 net.cpp:411] attention_scale_6_attention_scale_slice_6_split -> attention_scale_6_attention_scale_slice_6_split_0
I0821 20:50:21.979532 20352 net.cpp:411] attention_scale_6_attention_scale_slice_6_split -> attention_scale_6_attention_scale_slice_6_split_1
I0821 20:50:21.979535 20352 net.cpp:411] attention_scale_6_attention_scale_slice_6_split -> attention_scale_6_attention_scale_slice_6_split_2
I0821 20:50:21.979563 20352 net.cpp:150] Setting up attention_scale_6_attention_scale_slice_6_split
I0821 20:50:21.979566 20352 net.cpp:157] Top shape: 64 64 8 1 (32768)
I0821 20:50:21.979569 20352 net.cpp:157] Top shape: 64 64 8 1 (32768)
I0821 20:50:21.979573 20352 net.cpp:157] Top shape: 64 64 8 1 (32768)
I0821 20:50:21.979574 20352 net.cpp:165] Memory required for data: 119882496
I0821 20:50:21.979578 20352 layer_factory.hpp:77] Creating layer attention_scale_7_attention_scale_slice_7_split
I0821 20:50:21.979580 20352 net.cpp:106] Creating Layer attention_scale_7_attention_scale_slice_7_split
I0821 20:50:21.979583 20352 net.cpp:454] attention_scale_7_attention_scale_slice_7_split <- attention_scale_7
I0821 20:50:21.979588 20352 net.cpp:411] attention_scale_7_attention_scale_slice_7_split -> attention_scale_7_attention_scale_slice_7_split_0
I0821 20:50:21.979591 20352 net.cpp:411] attention_scale_7_attention_scale_slice_7_split -> attention_scale_7_attention_scale_slice_7_split_1
I0821 20:50:21.979594 20352 net.cpp:411] attention_scale_7_attention_scale_slice_7_split -> attention_scale_7_attention_scale_slice_7_split_2
I0821 20:50:21.979620 20352 net.cpp:150] Setting up attention_scale_7_attention_scale_slice_7_split
I0821 20:50:21.979624 20352 net.cpp:157] Top shape: 64 64 8 1 (32768)
I0821 20:50:21.979626 20352 net.cpp:157] Top shape: 64 64 8 1 (32768)
I0821 20:50:21.979629 20352 net.cpp:157] Top shape: 64 64 8 1 (32768)
I0821 20:50:21.979631 20352 net.cpp:165] Memory required for data: 120275712
I0821 20:50:21.979635 20352 layer_factory.hpp:77] Creating layer attention_permute_0
I0821 20:50:21.979638 20352 net.cpp:106] Creating Layer attention_permute_0
I0821 20:50:21.979641 20352 net.cpp:454] attention_permute_0 <- attention_scale_0_attention_scale_slice_0_split_0
I0821 20:50:21.979645 20352 net.cpp:411] attention_permute_0 -> attention_permute_0
I0821 20:50:21.979706 20352 net.cpp:150] Setting up attention_permute_0
I0821 20:50:21.979712 20352 net.cpp:157] Top shape: 64 1 8 64 (32768)
I0821 20:50:21.979714 20352 net.cpp:165] Memory required for data: 120406784
I0821 20:50:21.979717 20352 layer_factory.hpp:77] Creating layer attention_reduction_0
I0821 20:50:21.979722 20352 net.cpp:106] Creating Layer attention_reduction_0
I0821 20:50:21.979724 20352 net.cpp:454] attention_reduction_0 <- attention_permute_0
I0821 20:50:21.979728 20352 net.cpp:411] attention_reduction_0 -> attention_reduction_0
I0821 20:50:21.979760 20352 net.cpp:150] Setting up attention_reduction_0
I0821 20:50:21.979766 20352 net.cpp:157] Top shape: 64 1 8 (512)
I0821 20:50:21.979769 20352 net.cpp:165] Memory required for data: 120408832
I0821 20:50:21.979771 20352 layer_factory.hpp:77] Creating layer attention_permute_1
I0821 20:50:21.979775 20352 net.cpp:106] Creating Layer attention_permute_1
I0821 20:50:21.979779 20352 net.cpp:454] attention_permute_1 <- attention_scale_1_attention_scale_slice_1_split_0
I0821 20:50:21.979782 20352 net.cpp:411] attention_permute_1 -> attention_permute_1
I0821 20:50:21.979840 20352 net.cpp:150] Setting up attention_permute_1
I0821 20:50:21.979845 20352 net.cpp:157] Top shape: 64 1 8 64 (32768)
I0821 20:50:21.979847 20352 net.cpp:165] Memory required for data: 120539904
I0821 20:50:21.979849 20352 layer_factory.hpp:77] Creating layer attention_reduction_1
I0821 20:50:21.979853 20352 net.cpp:106] Creating Layer attention_reduction_1
I0821 20:50:21.979856 20352 net.cpp:454] attention_reduction_1 <- attention_permute_1
I0821 20:50:21.979861 20352 net.cpp:411] attention_reduction_1 -> attention_reduction_1
I0821 20:50:21.979889 20352 net.cpp:150] Setting up attention_reduction_1
I0821 20:50:21.979893 20352 net.cpp:157] Top shape: 64 1 8 (512)
I0821 20:50:21.979897 20352 net.cpp:165] Memory required for data: 120541952
I0821 20:50:21.979898 20352 layer_factory.hpp:77] Creating layer attention_permute_2
I0821 20:50:21.979907 20352 net.cpp:106] Creating Layer attention_permute_2
I0821 20:50:21.979909 20352 net.cpp:454] attention_permute_2 <- attention_scale_2_attention_scale_slice_2_split_0
I0821 20:50:21.979917 20352 net.cpp:411] attention_permute_2 -> attention_permute_2
I0821 20:50:21.979970 20352 net.cpp:150] Setting up attention_permute_2
I0821 20:50:21.979976 20352 net.cpp:157] Top shape: 64 1 8 64 (32768)
I0821 20:50:21.979979 20352 net.cpp:165] Memory required for data: 120673024
I0821 20:50:21.979981 20352 layer_factory.hpp:77] Creating layer attention_reduction_2
I0821 20:50:21.979985 20352 net.cpp:106] Creating Layer attention_reduction_2
I0821 20:50:21.979988 20352 net.cpp:454] attention_reduction_2 <- attention_permute_2
I0821 20:50:21.979992 20352 net.cpp:411] attention_reduction_2 -> attention_reduction_2
I0821 20:50:21.980021 20352 net.cpp:150] Setting up attention_reduction_2
I0821 20:50:21.980029 20352 net.cpp:157] Top shape: 64 1 8 (512)
I0821 20:50:21.980032 20352 net.cpp:165] Memory required for data: 120675072
I0821 20:50:21.980034 20352 layer_factory.hpp:77] Creating layer attention_permute_3
I0821 20:50:21.980039 20352 net.cpp:106] Creating Layer attention_permute_3
I0821 20:50:21.980042 20352 net.cpp:454] attention_permute_3 <- attention_scale_3_attention_scale_slice_3_split_0
I0821 20:50:21.980046 20352 net.cpp:411] attention_permute_3 -> attention_permute_3
I0821 20:50:21.980101 20352 net.cpp:150] Setting up attention_permute_3
I0821 20:50:21.980106 20352 net.cpp:157] Top shape: 64 1 8 64 (32768)
I0821 20:50:21.980109 20352 net.cpp:165] Memory required for data: 120806144
I0821 20:50:21.980111 20352 layer_factory.hpp:77] Creating layer attention_reduction_3
I0821 20:50:21.980115 20352 net.cpp:106] Creating Layer attention_reduction_3
I0821 20:50:21.980118 20352 net.cpp:454] attention_reduction_3 <- attention_permute_3
I0821 20:50:21.980123 20352 net.cpp:411] attention_reduction_3 -> attention_reduction_3
I0821 20:50:21.980154 20352 net.cpp:150] Setting up attention_reduction_3
I0821 20:50:21.980159 20352 net.cpp:157] Top shape: 64 1 8 (512)
I0821 20:50:21.980162 20352 net.cpp:165] Memory required for data: 120808192
I0821 20:50:21.980165 20352 layer_factory.hpp:77] Creating layer attention_permute_4
I0821 20:50:21.980168 20352 net.cpp:106] Creating Layer attention_permute_4
I0821 20:50:21.980171 20352 net.cpp:454] attention_permute_4 <- attention_scale_4_attention_scale_slice_4_split_0
I0821 20:50:21.980175 20352 net.cpp:411] attention_permute_4 -> attention_permute_4
I0821 20:50:21.980231 20352 net.cpp:150] Setting up attention_permute_4
I0821 20:50:21.980235 20352 net.cpp:157] Top shape: 64 1 8 64 (32768)
I0821 20:50:21.980238 20352 net.cpp:165] Memory required for data: 120939264
I0821 20:50:21.980240 20352 layer_factory.hpp:77] Creating layer attention_reduction_4
I0821 20:50:21.980244 20352 net.cpp:106] Creating Layer attention_reduction_4
I0821 20:50:21.980247 20352 net.cpp:454] attention_reduction_4 <- attention_permute_4
I0821 20:50:21.980252 20352 net.cpp:411] attention_reduction_4 -> attention_reduction_4
I0821 20:50:21.980280 20352 net.cpp:150] Setting up attention_reduction_4
I0821 20:50:21.980285 20352 net.cpp:157] Top shape: 64 1 8 (512)
I0821 20:50:21.980288 20352 net.cpp:165] Memory required for data: 120941312
I0821 20:50:21.980290 20352 layer_factory.hpp:77] Creating layer attention_permute_5
I0821 20:50:21.980294 20352 net.cpp:106] Creating Layer attention_permute_5
I0821 20:50:21.980298 20352 net.cpp:454] attention_permute_5 <- attention_scale_5_attention_scale_slice_5_split_0
I0821 20:50:21.980300 20352 net.cpp:411] attention_permute_5 -> attention_permute_5
I0821 20:50:21.980355 20352 net.cpp:150] Setting up attention_permute_5
I0821 20:50:21.980360 20352 net.cpp:157] Top shape: 64 1 8 64 (32768)
I0821 20:50:21.980363 20352 net.cpp:165] Memory required for data: 121072384
I0821 20:50:21.980365 20352 layer_factory.hpp:77] Creating layer attention_reduction_5
I0821 20:50:21.980370 20352 net.cpp:106] Creating Layer attention_reduction_5
I0821 20:50:21.980372 20352 net.cpp:454] attention_reduction_5 <- attention_permute_5
I0821 20:50:21.980376 20352 net.cpp:411] attention_reduction_5 -> attention_reduction_5
I0821 20:50:21.980404 20352 net.cpp:150] Setting up attention_reduction_5
I0821 20:50:21.980410 20352 net.cpp:157] Top shape: 64 1 8 (512)
I0821 20:50:21.980412 20352 net.cpp:165] Memory required for data: 121074432
I0821 20:50:21.980415 20352 layer_factory.hpp:77] Creating layer attention_permute_6
I0821 20:50:21.980418 20352 net.cpp:106] Creating Layer attention_permute_6
I0821 20:50:21.980422 20352 net.cpp:454] attention_permute_6 <- attention_scale_6_attention_scale_slice_6_split_0
I0821 20:50:21.980425 20352 net.cpp:411] attention_permute_6 -> attention_permute_6
I0821 20:50:21.980479 20352 net.cpp:150] Setting up attention_permute_6
I0821 20:50:21.980484 20352 net.cpp:157] Top shape: 64 1 8 64 (32768)
I0821 20:50:21.980487 20352 net.cpp:165] Memory required for data: 121205504
I0821 20:50:21.980489 20352 layer_factory.hpp:77] Creating layer attention_reduction_6
I0821 20:50:21.980494 20352 net.cpp:106] Creating Layer attention_reduction_6
I0821 20:50:21.980496 20352 net.cpp:454] attention_reduction_6 <- attention_permute_6
I0821 20:50:21.980500 20352 net.cpp:411] attention_reduction_6 -> attention_reduction_6
I0821 20:50:21.980530 20352 net.cpp:150] Setting up attention_reduction_6
I0821 20:50:21.980535 20352 net.cpp:157] Top shape: 64 1 8 (512)
I0821 20:50:21.980537 20352 net.cpp:165] Memory required for data: 121207552
I0821 20:50:21.980540 20352 layer_factory.hpp:77] Creating layer attention_permute_7
I0821 20:50:21.980543 20352 net.cpp:106] Creating Layer attention_permute_7
I0821 20:50:21.980546 20352 net.cpp:454] attention_permute_7 <- attention_scale_7_attention_scale_slice_7_split_0
I0821 20:50:21.980551 20352 net.cpp:411] attention_permute_7 -> attention_permute_7
I0821 20:50:21.980605 20352 net.cpp:150] Setting up attention_permute_7
I0821 20:50:21.980610 20352 net.cpp:157] Top shape: 64 1 8 64 (32768)
I0821 20:50:21.980613 20352 net.cpp:165] Memory required for data: 121338624
I0821 20:50:21.980615 20352 layer_factory.hpp:77] Creating layer attention_reduction_7
I0821 20:50:21.980619 20352 net.cpp:106] Creating Layer attention_reduction_7
I0821 20:50:21.980621 20352 net.cpp:454] attention_reduction_7 <- attention_permute_7
I0821 20:50:21.980625 20352 net.cpp:411] attention_reduction_7 -> attention_reduction_7
I0821 20:50:21.980654 20352 net.cpp:150] Setting up attention_reduction_7
I0821 20:50:21.980659 20352 net.cpp:157] Top shape: 64 1 8 (512)
I0821 20:50:21.980661 20352 net.cpp:165] Memory required for data: 121340672
I0821 20:50:21.980664 20352 layer_factory.hpp:77] Creating layer attention_scale_concat
I0821 20:50:21.980669 20352 net.cpp:106] Creating Layer attention_scale_concat
I0821 20:50:21.980671 20352 net.cpp:454] attention_scale_concat <- attention_reduction_0
I0821 20:50:21.980675 20352 net.cpp:454] attention_scale_concat <- attention_reduction_1
I0821 20:50:21.980679 20352 net.cpp:454] attention_scale_concat <- attention_reduction_2
I0821 20:50:21.980681 20352 net.cpp:454] attention_scale_concat <- attention_reduction_3
I0821 20:50:21.980684 20352 net.cpp:454] attention_scale_concat <- attention_reduction_4
I0821 20:50:21.980686 20352 net.cpp:454] attention_scale_concat <- attention_reduction_5
I0821 20:50:21.980690 20352 net.cpp:454] attention_scale_concat <- attention_reduction_6
I0821 20:50:21.980691 20352 net.cpp:454] attention_scale_concat <- attention_reduction_7
I0821 20:50:21.980695 20352 net.cpp:411] attention_scale_concat -> attention_scale_concat
I0821 20:50:21.980710 20352 net.cpp:150] Setting up attention_scale_concat
I0821 20:50:21.980713 20352 net.cpp:157] Top shape: 64 8 8 (4096)
I0821 20:50:21.980715 20352 net.cpp:165] Memory required for data: 121357056
I0821 20:50:21.980718 20352 layer_factory.hpp:77] Creating layer attention_height_slice
I0821 20:50:21.980723 20352 net.cpp:106] Creating Layer attention_height_slice
I0821 20:50:21.980726 20352 net.cpp:454] attention_height_slice <- attention_scale_concat
I0821 20:50:21.980731 20352 net.cpp:411] attention_height_slice -> attention_height_0
I0821 20:50:21.980734 20352 net.cpp:411] attention_height_slice -> attention_height_1
I0821 20:50:21.980739 20352 net.cpp:411] attention_height_slice -> attention_height_2
I0821 20:50:21.980743 20352 net.cpp:411] attention_height_slice -> attention_height_3
I0821 20:50:21.980747 20352 net.cpp:411] attention_height_slice -> attention_height_4
I0821 20:50:21.980751 20352 net.cpp:411] attention_height_slice -> attention_height_5
I0821 20:50:21.980756 20352 net.cpp:411] attention_height_slice -> attention_height_6
I0821 20:50:21.980759 20352 net.cpp:411] attention_height_slice -> attention_height_7
I0821 20:50:21.980829 20352 net.cpp:150] Setting up attention_height_slice
I0821 20:50:21.980832 20352 net.cpp:157] Top shape: 64 8 1 (512)
I0821 20:50:21.980835 20352 net.cpp:157] Top shape: 64 8 1 (512)
I0821 20:50:21.980837 20352 net.cpp:157] Top shape: 64 8 1 (512)
I0821 20:50:21.980840 20352 net.cpp:157] Top shape: 64 8 1 (512)
I0821 20:50:21.980844 20352 net.cpp:157] Top shape: 64 8 1 (512)
I0821 20:50:21.980846 20352 net.cpp:157] Top shape: 64 8 1 (512)
I0821 20:50:21.980849 20352 net.cpp:157] Top shape: 64 8 1 (512)
I0821 20:50:21.980851 20352 net.cpp:157] Top shape: 64 8 1 (512)
I0821 20:50:21.980854 20352 net.cpp:165] Memory required for data: 121373440
I0821 20:50:21.980856 20352 layer_factory.hpp:77] Creating layer attention_height_fc1_0
I0821 20:50:21.980861 20352 net.cpp:106] Creating Layer attention_height_fc1_0
I0821 20:50:21.980865 20352 net.cpp:454] attention_height_fc1_0 <- attention_height_0
I0821 20:50:21.980870 20352 net.cpp:411] attention_height_fc1_0 -> attention_height_fc1_0
I0821 20:50:21.981703 20352 net.cpp:150] Setting up attention_height_fc1_0
I0821 20:50:21.981732 20352 net.cpp:157] Top shape: 64 8 (512)
I0821 20:50:21.981740 20352 net.cpp:165] Memory required for data: 121375488
I0821 20:50:21.981760 20352 layer_factory.hpp:77] Creating layer attention_height_fc2_0
I0821 20:50:21.981766 20352 net.cpp:106] Creating Layer attention_height_fc2_0
I0821 20:50:21.981770 20352 net.cpp:454] attention_height_fc2_0 <- attention_height_fc1_0
I0821 20:50:21.981775 20352 net.cpp:411] attention_height_fc2_0 -> attention_height_fc2_0
I0821 20:50:21.981843 20352 net.cpp:150] Setting up attention_height_fc2_0
I0821 20:50:21.981848 20352 net.cpp:157] Top shape: 64 8 (512)
I0821 20:50:21.981851 20352 net.cpp:165] Memory required for data: 121377536
I0821 20:50:21.981855 20352 layer_factory.hpp:77] Creating layer attention_height_reshape_0
I0821 20:50:21.981865 20352 net.cpp:106] Creating Layer attention_height_reshape_0
I0821 20:50:21.981868 20352 net.cpp:454] attention_height_reshape_0 <- attention_height_fc2_0
I0821 20:50:21.981873 20352 net.cpp:411] attention_height_reshape_0 -> attention_height_reshape_0
I0821 20:50:21.981894 20352 net.cpp:150] Setting up attention_height_reshape_0
I0821 20:50:21.981899 20352 net.cpp:157] Top shape: 64 8 1 1 (512)
I0821 20:50:21.981900 20352 net.cpp:165] Memory required for data: 121379584
I0821 20:50:21.981902 20352 layer_factory.hpp:77] Creating layer attention_height_fc1_1
I0821 20:50:21.981907 20352 net.cpp:106] Creating Layer attention_height_fc1_1
I0821 20:50:21.981910 20352 net.cpp:454] attention_height_fc1_1 <- attention_height_1
I0821 20:50:21.981914 20352 net.cpp:411] attention_height_fc1_1 -> attention_height_fc1_1
I0821 20:50:21.981979 20352 net.cpp:150] Setting up attention_height_fc1_1
I0821 20:50:21.981984 20352 net.cpp:157] Top shape: 64 8 (512)
I0821 20:50:21.981986 20352 net.cpp:165] Memory required for data: 121381632
I0821 20:50:21.981990 20352 layer_factory.hpp:77] Creating layer attention_height_fc2_1
I0821 20:50:21.981995 20352 net.cpp:106] Creating Layer attention_height_fc2_1
I0821 20:50:21.981997 20352 net.cpp:454] attention_height_fc2_1 <- attention_height_fc1_1
I0821 20:50:21.982002 20352 net.cpp:411] attention_height_fc2_1 -> attention_height_fc2_1
I0821 20:50:21.982062 20352 net.cpp:150] Setting up attention_height_fc2_1
I0821 20:50:21.982066 20352 net.cpp:157] Top shape: 64 8 (512)
I0821 20:50:21.982069 20352 net.cpp:165] Memory required for data: 121383680
I0821 20:50:21.982072 20352 layer_factory.hpp:77] Creating layer attention_height_reshape_1
I0821 20:50:21.982079 20352 net.cpp:106] Creating Layer attention_height_reshape_1
I0821 20:50:21.982082 20352 net.cpp:454] attention_height_reshape_1 <- attention_height_fc2_1
I0821 20:50:21.982086 20352 net.cpp:411] attention_height_reshape_1 -> attention_height_reshape_1
I0821 20:50:21.982101 20352 net.cpp:150] Setting up attention_height_reshape_1
I0821 20:50:21.982105 20352 net.cpp:157] Top shape: 64 8 1 1 (512)
I0821 20:50:21.982107 20352 net.cpp:165] Memory required for data: 121385728
I0821 20:50:21.982110 20352 layer_factory.hpp:77] Creating layer attention_height_fc1_2
I0821 20:50:21.982117 20352 net.cpp:106] Creating Layer attention_height_fc1_2
I0821 20:50:21.982120 20352 net.cpp:454] attention_height_fc1_2 <- attention_height_2
I0821 20:50:21.982125 20352 net.cpp:411] attention_height_fc1_2 -> attention_height_fc1_2
I0821 20:50:21.982197 20352 net.cpp:150] Setting up attention_height_fc1_2
I0821 20:50:21.982201 20352 net.cpp:157] Top shape: 64 8 (512)
I0821 20:50:21.982204 20352 net.cpp:165] Memory required for data: 121387776
I0821 20:50:21.982214 20352 layer_factory.hpp:77] Creating layer attention_height_fc2_2
I0821 20:50:21.982220 20352 net.cpp:106] Creating Layer attention_height_fc2_2
I0821 20:50:21.982223 20352 net.cpp:454] attention_height_fc2_2 <- attention_height_fc1_2
I0821 20:50:21.982228 20352 net.cpp:411] attention_height_fc2_2 -> attention_height_fc2_2
I0821 20:50:21.982290 20352 net.cpp:150] Setting up attention_height_fc2_2
I0821 20:50:21.982295 20352 net.cpp:157] Top shape: 64 8 (512)
I0821 20:50:21.982297 20352 net.cpp:165] Memory required for data: 121389824
I0821 20:50:21.982300 20352 layer_factory.hpp:77] Creating layer attention_height_reshape_2
I0821 20:50:21.982306 20352 net.cpp:106] Creating Layer attention_height_reshape_2
I0821 20:50:21.982308 20352 net.cpp:454] attention_height_reshape_2 <- attention_height_fc2_2
I0821 20:50:21.982312 20352 net.cpp:411] attention_height_reshape_2 -> attention_height_reshape_2
I0821 20:50:21.982329 20352 net.cpp:150] Setting up attention_height_reshape_2
I0821 20:50:21.982333 20352 net.cpp:157] Top shape: 64 8 1 1 (512)
I0821 20:50:21.982336 20352 net.cpp:165] Memory required for data: 121391872
I0821 20:50:21.982338 20352 layer_factory.hpp:77] Creating layer attention_height_fc1_3
I0821 20:50:21.982343 20352 net.cpp:106] Creating Layer attention_height_fc1_3
I0821 20:50:21.982345 20352 net.cpp:454] attention_height_fc1_3 <- attention_height_3
I0821 20:50:21.982350 20352 net.cpp:411] attention_height_fc1_3 -> attention_height_fc1_3
I0821 20:50:21.982414 20352 net.cpp:150] Setting up attention_height_fc1_3
I0821 20:50:21.982417 20352 net.cpp:157] Top shape: 64 8 (512)
I0821 20:50:21.982419 20352 net.cpp:165] Memory required for data: 121393920
I0821 20:50:21.982424 20352 layer_factory.hpp:77] Creating layer attention_height_fc2_3
I0821 20:50:21.982429 20352 net.cpp:106] Creating Layer attention_height_fc2_3
I0821 20:50:21.982431 20352 net.cpp:454] attention_height_fc2_3 <- attention_height_fc1_3
I0821 20:50:21.982437 20352 net.cpp:411] attention_height_fc2_3 -> attention_height_fc2_3
I0821 20:50:21.982498 20352 net.cpp:150] Setting up attention_height_fc2_3
I0821 20:50:21.982503 20352 net.cpp:157] Top shape: 64 8 (512)
I0821 20:50:21.982506 20352 net.cpp:165] Memory required for data: 121395968
I0821 20:50:21.982509 20352 layer_factory.hpp:77] Creating layer attention_height_reshape_3
I0821 20:50:21.982513 20352 net.cpp:106] Creating Layer attention_height_reshape_3
I0821 20:50:21.982517 20352 net.cpp:454] attention_height_reshape_3 <- attention_height_fc2_3
I0821 20:50:21.982520 20352 net.cpp:411] attention_height_reshape_3 -> attention_height_reshape_3
I0821 20:50:21.982534 20352 net.cpp:150] Setting up attention_height_reshape_3
I0821 20:50:21.982537 20352 net.cpp:157] Top shape: 64 8 1 1 (512)
I0821 20:50:21.982540 20352 net.cpp:165] Memory required for data: 121398016
I0821 20:50:21.982542 20352 layer_factory.hpp:77] Creating layer attention_height_fc1_4
I0821 20:50:21.982547 20352 net.cpp:106] Creating Layer attention_height_fc1_4
I0821 20:50:21.982551 20352 net.cpp:454] attention_height_fc1_4 <- attention_height_4
I0821 20:50:21.982556 20352 net.cpp:411] attention_height_fc1_4 -> attention_height_fc1_4
I0821 20:50:21.982617 20352 net.cpp:150] Setting up attention_height_fc1_4
I0821 20:50:21.982621 20352 net.cpp:157] Top shape: 64 8 (512)
I0821 20:50:21.982623 20352 net.cpp:165] Memory required for data: 121400064
I0821 20:50:21.982627 20352 layer_factory.hpp:77] Creating layer attention_height_fc2_4
I0821 20:50:21.982631 20352 net.cpp:106] Creating Layer attention_height_fc2_4
I0821 20:50:21.982635 20352 net.cpp:454] attention_height_fc2_4 <- attention_height_fc1_4
I0821 20:50:21.982640 20352 net.cpp:411] attention_height_fc2_4 -> attention_height_fc2_4
I0821 20:50:21.982702 20352 net.cpp:150] Setting up attention_height_fc2_4
I0821 20:50:21.982705 20352 net.cpp:157] Top shape: 64 8 (512)
I0821 20:50:21.982707 20352 net.cpp:165] Memory required for data: 121402112
I0821 20:50:21.982712 20352 layer_factory.hpp:77] Creating layer attention_height_reshape_4
I0821 20:50:21.982715 20352 net.cpp:106] Creating Layer attention_height_reshape_4
I0821 20:50:21.982718 20352 net.cpp:454] attention_height_reshape_4 <- attention_height_fc2_4
I0821 20:50:21.982722 20352 net.cpp:411] attention_height_reshape_4 -> attention_height_reshape_4
I0821 20:50:21.982735 20352 net.cpp:150] Setting up attention_height_reshape_4
I0821 20:50:21.982739 20352 net.cpp:157] Top shape: 64 8 1 1 (512)
I0821 20:50:21.982741 20352 net.cpp:165] Memory required for data: 121404160
I0821 20:50:21.982744 20352 layer_factory.hpp:77] Creating layer attention_height_fc1_5
I0821 20:50:21.982749 20352 net.cpp:106] Creating Layer attention_height_fc1_5
I0821 20:50:21.982751 20352 net.cpp:454] attention_height_fc1_5 <- attention_height_5
I0821 20:50:21.982755 20352 net.cpp:411] attention_height_fc1_5 -> attention_height_fc1_5
I0821 20:50:21.982820 20352 net.cpp:150] Setting up attention_height_fc1_5
I0821 20:50:21.982825 20352 net.cpp:157] Top shape: 64 8 (512)
I0821 20:50:21.982827 20352 net.cpp:165] Memory required for data: 121406208
I0821 20:50:21.982831 20352 layer_factory.hpp:77] Creating layer attention_height_fc2_5
I0821 20:50:21.982836 20352 net.cpp:106] Creating Layer attention_height_fc2_5
I0821 20:50:21.982838 20352 net.cpp:454] attention_height_fc2_5 <- attention_height_fc1_5
I0821 20:50:21.982842 20352 net.cpp:411] attention_height_fc2_5 -> attention_height_fc2_5
I0821 20:50:21.982903 20352 net.cpp:150] Setting up attention_height_fc2_5
I0821 20:50:21.982906 20352 net.cpp:157] Top shape: 64 8 (512)
I0821 20:50:21.982909 20352 net.cpp:165] Memory required for data: 121408256
I0821 20:50:21.982913 20352 layer_factory.hpp:77] Creating layer attention_height_reshape_5
I0821 20:50:21.982919 20352 net.cpp:106] Creating Layer attention_height_reshape_5
I0821 20:50:21.982921 20352 net.cpp:454] attention_height_reshape_5 <- attention_height_fc2_5
I0821 20:50:21.982925 20352 net.cpp:411] attention_height_reshape_5 -> attention_height_reshape_5
I0821 20:50:21.982939 20352 net.cpp:150] Setting up attention_height_reshape_5
I0821 20:50:21.982944 20352 net.cpp:157] Top shape: 64 8 1 1 (512)
I0821 20:50:21.982946 20352 net.cpp:165] Memory required for data: 121410304
I0821 20:50:21.982949 20352 layer_factory.hpp:77] Creating layer attention_height_fc1_6
I0821 20:50:21.982954 20352 net.cpp:106] Creating Layer attention_height_fc1_6
I0821 20:50:21.982955 20352 net.cpp:454] attention_height_fc1_6 <- attention_height_6
I0821 20:50:21.982960 20352 net.cpp:411] attention_height_fc1_6 -> attention_height_fc1_6
I0821 20:50:21.983021 20352 net.cpp:150] Setting up attention_height_fc1_6
I0821 20:50:21.983024 20352 net.cpp:157] Top shape: 64 8 (512)
I0821 20:50:21.983026 20352 net.cpp:165] Memory required for data: 121412352
I0821 20:50:21.983031 20352 layer_factory.hpp:77] Creating layer attention_height_fc2_6
I0821 20:50:21.983034 20352 net.cpp:106] Creating Layer attention_height_fc2_6
I0821 20:50:21.983039 20352 net.cpp:454] attention_height_fc2_6 <- attention_height_fc1_6
I0821 20:50:21.983044 20352 net.cpp:411] attention_height_fc2_6 -> attention_height_fc2_6
I0821 20:50:21.983104 20352 net.cpp:150] Setting up attention_height_fc2_6
I0821 20:50:21.983108 20352 net.cpp:157] Top shape: 64 8 (512)
I0821 20:50:21.983110 20352 net.cpp:165] Memory required for data: 121414400
I0821 20:50:21.983114 20352 layer_factory.hpp:77] Creating layer attention_height_reshape_6
I0821 20:50:21.983119 20352 net.cpp:106] Creating Layer attention_height_reshape_6
I0821 20:50:21.983120 20352 net.cpp:454] attention_height_reshape_6 <- attention_height_fc2_6
I0821 20:50:21.983124 20352 net.cpp:411] attention_height_reshape_6 -> attention_height_reshape_6
I0821 20:50:21.983139 20352 net.cpp:150] Setting up attention_height_reshape_6
I0821 20:50:21.983141 20352 net.cpp:157] Top shape: 64 8 1 1 (512)
I0821 20:50:21.983144 20352 net.cpp:165] Memory required for data: 121416448
I0821 20:50:21.983146 20352 layer_factory.hpp:77] Creating layer attention_height_fc1_7
I0821 20:50:21.983150 20352 net.cpp:106] Creating Layer attention_height_fc1_7
I0821 20:50:21.983153 20352 net.cpp:454] attention_height_fc1_7 <- attention_height_7
I0821 20:50:21.983157 20352 net.cpp:411] attention_height_fc1_7 -> attention_height_fc1_7
I0821 20:50:21.983219 20352 net.cpp:150] Setting up attention_height_fc1_7
I0821 20:50:21.983223 20352 net.cpp:157] Top shape: 64 8 (512)
I0821 20:50:21.983225 20352 net.cpp:165] Memory required for data: 121418496
I0821 20:50:21.983229 20352 layer_factory.hpp:77] Creating layer attention_height_fc2_7
I0821 20:50:21.983233 20352 net.cpp:106] Creating Layer attention_height_fc2_7
I0821 20:50:21.983237 20352 net.cpp:454] attention_height_fc2_7 <- attention_height_fc1_7
I0821 20:50:21.983240 20352 net.cpp:411] attention_height_fc2_7 -> attention_height_fc2_7
I0821 20:50:21.983302 20352 net.cpp:150] Setting up attention_height_fc2_7
I0821 20:50:21.983306 20352 net.cpp:157] Top shape: 64 8 (512)
I0821 20:50:21.983309 20352 net.cpp:165] Memory required for data: 121420544
I0821 20:50:21.983312 20352 layer_factory.hpp:77] Creating layer attention_height_reshape_7
I0821 20:50:21.983316 20352 net.cpp:106] Creating Layer attention_height_reshape_7
I0821 20:50:21.983319 20352 net.cpp:454] attention_height_reshape_7 <- attention_height_fc2_7
I0821 20:50:21.983323 20352 net.cpp:411] attention_height_reshape_7 -> attention_height_reshape_7
I0821 20:50:21.983336 20352 net.cpp:150] Setting up attention_height_reshape_7
I0821 20:50:21.983340 20352 net.cpp:157] Top shape: 64 8 1 1 (512)
I0821 20:50:21.983342 20352 net.cpp:165] Memory required for data: 121422592
I0821 20:50:21.983345 20352 layer_factory.hpp:77] Creating layer attention_height_concat
I0821 20:50:21.983350 20352 net.cpp:106] Creating Layer attention_height_concat
I0821 20:50:21.983353 20352 net.cpp:454] attention_height_concat <- attention_height_reshape_0
I0821 20:50:21.983356 20352 net.cpp:454] attention_height_concat <- attention_height_reshape_1
I0821 20:50:21.983359 20352 net.cpp:454] attention_height_concat <- attention_height_reshape_2
I0821 20:50:21.983362 20352 net.cpp:454] attention_height_concat <- attention_height_reshape_3
I0821 20:50:21.983366 20352 net.cpp:454] attention_height_concat <- attention_height_reshape_4
I0821 20:50:21.983368 20352 net.cpp:454] attention_height_concat <- attention_height_reshape_5
I0821 20:50:21.983371 20352 net.cpp:454] attention_height_concat <- attention_height_reshape_6
I0821 20:50:21.983373 20352 net.cpp:454] attention_height_concat <- attention_height_reshape_7
I0821 20:50:21.983377 20352 net.cpp:411] attention_height_concat -> attention_height_concat
I0821 20:50:21.983392 20352 net.cpp:150] Setting up attention_height_concat
I0821 20:50:21.983395 20352 net.cpp:157] Top shape: 64 8 8 1 (4096)
I0821 20:50:21.983400 20352 net.cpp:165] Memory required for data: 121438976
I0821 20:50:21.983402 20352 layer_factory.hpp:77] Creating layer attention_weight
I0821 20:50:21.983407 20352 net.cpp:106] Creating Layer attention_weight
I0821 20:50:21.983410 20352 net.cpp:454] attention_weight <- attention_height_concat
I0821 20:50:21.983413 20352 net.cpp:411] attention_weight -> attention_weight
I0821 20:50:21.983450 20352 net.cpp:150] Setting up attention_weight
I0821 20:50:21.983454 20352 net.cpp:157] Top shape: 64 8 8 1 (4096)
I0821 20:50:21.983456 20352 net.cpp:165] Memory required for data: 121455360
I0821 20:50:21.983458 20352 layer_factory.hpp:77] Creating layer attention_weight_slice
I0821 20:50:21.983464 20352 net.cpp:106] Creating Layer attention_weight_slice
I0821 20:50:21.983466 20352 net.cpp:454] attention_weight_slice <- attention_weight
I0821 20:50:21.983471 20352 net.cpp:411] attention_weight_slice -> attention_weight_slice_0
I0821 20:50:21.983476 20352 net.cpp:411] attention_weight_slice -> attention_weight_slice_1
I0821 20:50:21.983480 20352 net.cpp:411] attention_weight_slice -> attention_weight_slice_2
I0821 20:50:21.983485 20352 net.cpp:411] attention_weight_slice -> attention_weight_slice_3
I0821 20:50:21.983489 20352 net.cpp:411] attention_weight_slice -> attention_weight_slice_4
I0821 20:50:21.983494 20352 net.cpp:411] attention_weight_slice -> attention_weight_slice_5
I0821 20:50:21.983497 20352 net.cpp:411] attention_weight_slice -> attention_weight_slice_6
I0821 20:50:21.983501 20352 net.cpp:411] attention_weight_slice -> attention_weight_slice_7
I0821 20:50:21.983566 20352 net.cpp:150] Setting up attention_weight_slice
I0821 20:50:21.983570 20352 net.cpp:157] Top shape: 64 1 8 1 (512)
I0821 20:50:21.983573 20352 net.cpp:157] Top shape: 64 1 8 1 (512)
I0821 20:50:21.983577 20352 net.cpp:157] Top shape: 64 1 8 1 (512)
I0821 20:50:21.983579 20352 net.cpp:157] Top shape: 64 1 8 1 (512)
I0821 20:50:21.983582 20352 net.cpp:157] Top shape: 64 1 8 1 (512)
I0821 20:50:21.983584 20352 net.cpp:157] Top shape: 64 1 8 1 (512)
I0821 20:50:21.983587 20352 net.cpp:157] Top shape: 64 1 8 1 (512)
I0821 20:50:21.983589 20352 net.cpp:157] Top shape: 64 1 8 1 (512)
I0821 20:50:21.983592 20352 net.cpp:165] Memory required for data: 121471744
I0821 20:50:21.983594 20352 layer_factory.hpp:77] Creating layer attention_weight_tile_0
I0821 20:50:21.983599 20352 net.cpp:106] Creating Layer attention_weight_tile_0
I0821 20:50:21.983602 20352 net.cpp:454] attention_weight_tile_0 <- attention_weight_slice_0
I0821 20:50:21.983605 20352 net.cpp:411] attention_weight_tile_0 -> attention_weight_tile_0
I0821 20:50:21.983620 20352 net.cpp:150] Setting up attention_weight_tile_0
I0821 20:50:21.983624 20352 net.cpp:157] Top shape: 64 64 8 1 (32768)
I0821 20:50:21.983628 20352 net.cpp:165] Memory required for data: 121602816
I0821 20:50:21.983629 20352 layer_factory.hpp:77] Creating layer attention_reweight_0
I0821 20:50:21.983634 20352 net.cpp:106] Creating Layer attention_reweight_0
I0821 20:50:21.983638 20352 net.cpp:454] attention_reweight_0 <- attention_scale_0_attention_scale_slice_0_split_1
I0821 20:50:21.983641 20352 net.cpp:454] attention_reweight_0 <- attention_weight_tile_0
I0821 20:50:21.983644 20352 net.cpp:411] attention_reweight_0 -> attention_reweight_0
I0821 20:50:21.983662 20352 net.cpp:150] Setting up attention_reweight_0
I0821 20:50:21.983666 20352 net.cpp:157] Top shape: 64 64 8 1 (32768)
I0821 20:50:21.983669 20352 net.cpp:165] Memory required for data: 121733888
I0821 20:50:21.983671 20352 layer_factory.hpp:77] Creating layer attention_weight_tile_1
I0821 20:50:21.983675 20352 net.cpp:106] Creating Layer attention_weight_tile_1
I0821 20:50:21.983677 20352 net.cpp:454] attention_weight_tile_1 <- attention_weight_slice_1
I0821 20:50:21.983681 20352 net.cpp:411] attention_weight_tile_1 -> attention_weight_tile_1
I0821 20:50:21.983695 20352 net.cpp:150] Setting up attention_weight_tile_1
I0821 20:50:21.983697 20352 net.cpp:157] Top shape: 64 64 8 1 (32768)
I0821 20:50:21.983700 20352 net.cpp:165] Memory required for data: 121864960
I0821 20:50:21.983702 20352 layer_factory.hpp:77] Creating layer attention_reweight_1
I0821 20:50:21.983706 20352 net.cpp:106] Creating Layer attention_reweight_1
I0821 20:50:21.983708 20352 net.cpp:454] attention_reweight_1 <- attention_scale_1_attention_scale_slice_1_split_1
I0821 20:50:21.983712 20352 net.cpp:454] attention_reweight_1 <- attention_weight_tile_1
I0821 20:50:21.983716 20352 net.cpp:411] attention_reweight_1 -> attention_reweight_1
I0821 20:50:21.983728 20352 net.cpp:150] Setting up attention_reweight_1
I0821 20:50:21.983731 20352 net.cpp:157] Top shape: 64 64 8 1 (32768)
I0821 20:50:21.983734 20352 net.cpp:165] Memory required for data: 121996032
I0821 20:50:21.983736 20352 layer_factory.hpp:77] Creating layer attention_weight_tile_2
I0821 20:50:21.983741 20352 net.cpp:106] Creating Layer attention_weight_tile_2
I0821 20:50:21.983743 20352 net.cpp:454] attention_weight_tile_2 <- attention_weight_slice_2
I0821 20:50:21.983747 20352 net.cpp:411] attention_weight_tile_2 -> attention_weight_tile_2
I0821 20:50:21.983758 20352 net.cpp:150] Setting up attention_weight_tile_2
I0821 20:50:21.983762 20352 net.cpp:157] Top shape: 64 64 8 1 (32768)
I0821 20:50:21.983764 20352 net.cpp:165] Memory required for data: 122127104
I0821 20:50:21.983769 20352 layer_factory.hpp:77] Creating layer attention_reweight_2
I0821 20:50:21.983773 20352 net.cpp:106] Creating Layer attention_reweight_2
I0821 20:50:21.983777 20352 net.cpp:454] attention_reweight_2 <- attention_scale_2_attention_scale_slice_2_split_1
I0821 20:50:21.983779 20352 net.cpp:454] attention_reweight_2 <- attention_weight_tile_2
I0821 20:50:21.983783 20352 net.cpp:411] attention_reweight_2 -> attention_reweight_2
I0821 20:50:21.983798 20352 net.cpp:150] Setting up attention_reweight_2
I0821 20:50:21.983800 20352 net.cpp:157] Top shape: 64 64 8 1 (32768)
I0821 20:50:21.983803 20352 net.cpp:165] Memory required for data: 122258176
I0821 20:50:21.983805 20352 layer_factory.hpp:77] Creating layer attention_weight_tile_3
I0821 20:50:21.983809 20352 net.cpp:106] Creating Layer attention_weight_tile_3
I0821 20:50:21.983811 20352 net.cpp:454] attention_weight_tile_3 <- attention_weight_slice_3
I0821 20:50:21.983815 20352 net.cpp:411] attention_weight_tile_3 -> attention_weight_tile_3
I0821 20:50:21.983827 20352 net.cpp:150] Setting up attention_weight_tile_3
I0821 20:50:21.983831 20352 net.cpp:157] Top shape: 64 64 8 1 (32768)
I0821 20:50:21.983834 20352 net.cpp:165] Memory required for data: 122389248
I0821 20:50:21.983835 20352 layer_factory.hpp:77] Creating layer attention_reweight_3
I0821 20:50:21.983839 20352 net.cpp:106] Creating Layer attention_reweight_3
I0821 20:50:21.983842 20352 net.cpp:454] attention_reweight_3 <- attention_scale_3_attention_scale_slice_3_split_1
I0821 20:50:21.983845 20352 net.cpp:454] attention_reweight_3 <- attention_weight_tile_3
I0821 20:50:21.983849 20352 net.cpp:411] attention_reweight_3 -> attention_reweight_3
I0821 20:50:21.983860 20352 net.cpp:150] Setting up attention_reweight_3
I0821 20:50:21.983865 20352 net.cpp:157] Top shape: 64 64 8 1 (32768)
I0821 20:50:21.983866 20352 net.cpp:165] Memory required for data: 122520320
I0821 20:50:21.983870 20352 layer_factory.hpp:77] Creating layer attention_weight_tile_4
I0821 20:50:21.983872 20352 net.cpp:106] Creating Layer attention_weight_tile_4
I0821 20:50:21.983875 20352 net.cpp:454] attention_weight_tile_4 <- attention_weight_slice_4
I0821 20:50:21.983880 20352 net.cpp:411] attention_weight_tile_4 -> attention_weight_tile_4
I0821 20:50:21.983894 20352 net.cpp:150] Setting up attention_weight_tile_4
I0821 20:50:21.983898 20352 net.cpp:157] Top shape: 64 64 8 1 (32768)
I0821 20:50:21.983901 20352 net.cpp:165] Memory required for data: 122651392
I0821 20:50:21.983903 20352 layer_factory.hpp:77] Creating layer attention_reweight_4
I0821 20:50:21.983907 20352 net.cpp:106] Creating Layer attention_reweight_4
I0821 20:50:21.983909 20352 net.cpp:454] attention_reweight_4 <- attention_scale_4_attention_scale_slice_4_split_1
I0821 20:50:21.983912 20352 net.cpp:454] attention_reweight_4 <- attention_weight_tile_4
I0821 20:50:21.983916 20352 net.cpp:411] attention_reweight_4 -> attention_reweight_4
I0821 20:50:21.983929 20352 net.cpp:150] Setting up attention_reweight_4
I0821 20:50:21.983932 20352 net.cpp:157] Top shape: 64 64 8 1 (32768)
I0821 20:50:21.983934 20352 net.cpp:165] Memory required for data: 122782464
I0821 20:50:21.983937 20352 layer_factory.hpp:77] Creating layer attention_weight_tile_5
I0821 20:50:21.983940 20352 net.cpp:106] Creating Layer attention_weight_tile_5
I0821 20:50:21.983943 20352 net.cpp:454] attention_weight_tile_5 <- attention_weight_slice_5
I0821 20:50:21.983947 20352 net.cpp:411] attention_weight_tile_5 -> attention_weight_tile_5
I0821 20:50:21.983958 20352 net.cpp:150] Setting up attention_weight_tile_5
I0821 20:50:21.983963 20352 net.cpp:157] Top shape: 64 64 8 1 (32768)
I0821 20:50:21.983964 20352 net.cpp:165] Memory required for data: 122913536
I0821 20:50:21.983968 20352 layer_factory.hpp:77] Creating layer attention_reweight_5
I0821 20:50:21.983970 20352 net.cpp:106] Creating Layer attention_reweight_5
I0821 20:50:21.983973 20352 net.cpp:454] attention_reweight_5 <- attention_scale_5_attention_scale_slice_5_split_1
I0821 20:50:21.983976 20352 net.cpp:454] attention_reweight_5 <- attention_weight_tile_5
I0821 20:50:21.983979 20352 net.cpp:411] attention_reweight_5 -> attention_reweight_5
I0821 20:50:21.983992 20352 net.cpp:150] Setting up attention_reweight_5
I0821 20:50:21.983995 20352 net.cpp:157] Top shape: 64 64 8 1 (32768)
I0821 20:50:21.983997 20352 net.cpp:165] Memory required for data: 123044608
I0821 20:50:21.984000 20352 layer_factory.hpp:77] Creating layer attention_weight_tile_6
I0821 20:50:21.984004 20352 net.cpp:106] Creating Layer attention_weight_tile_6
I0821 20:50:21.984006 20352 net.cpp:454] attention_weight_tile_6 <- attention_weight_slice_6
I0821 20:50:21.984012 20352 net.cpp:411] attention_weight_tile_6 -> attention_weight_tile_6
I0821 20:50:21.984025 20352 net.cpp:150] Setting up attention_weight_tile_6
I0821 20:50:21.984028 20352 net.cpp:157] Top shape: 64 64 8 1 (32768)
I0821 20:50:21.984030 20352 net.cpp:165] Memory required for data: 123175680
I0821 20:50:21.984032 20352 layer_factory.hpp:77] Creating layer attention_reweight_6
I0821 20:50:21.984036 20352 net.cpp:106] Creating Layer attention_reweight_6
I0821 20:50:21.984040 20352 net.cpp:454] attention_reweight_6 <- attention_scale_6_attention_scale_slice_6_split_1
I0821 20:50:21.984043 20352 net.cpp:454] attention_reweight_6 <- attention_weight_tile_6
I0821 20:50:21.984046 20352 net.cpp:411] attention_reweight_6 -> attention_reweight_6
I0821 20:50:21.984060 20352 net.cpp:150] Setting up attention_reweight_6
I0821 20:50:21.984062 20352 net.cpp:157] Top shape: 64 64 8 1 (32768)
I0821 20:50:21.984064 20352 net.cpp:165] Memory required for data: 123306752
I0821 20:50:21.984067 20352 layer_factory.hpp:77] Creating layer attention_weight_tile_7
I0821 20:50:21.984071 20352 net.cpp:106] Creating Layer attention_weight_tile_7
I0821 20:50:21.984073 20352 net.cpp:454] attention_weight_tile_7 <- attention_weight_slice_7
I0821 20:50:21.984076 20352 net.cpp:411] attention_weight_tile_7 -> attention_weight_tile_7
I0821 20:50:21.984088 20352 net.cpp:150] Setting up attention_weight_tile_7
I0821 20:50:21.984092 20352 net.cpp:157] Top shape: 64 64 8 1 (32768)
I0821 20:50:21.984094 20352 net.cpp:165] Memory required for data: 123437824
I0821 20:50:21.984097 20352 layer_factory.hpp:77] Creating layer attention_reweight_7
I0821 20:50:21.984100 20352 net.cpp:106] Creating Layer attention_reweight_7
I0821 20:50:21.984103 20352 net.cpp:454] attention_reweight_7 <- attention_scale_7_attention_scale_slice_7_split_1
I0821 20:50:21.984107 20352 net.cpp:454] attention_reweight_7 <- attention_weight_tile_7
I0821 20:50:21.984110 20352 net.cpp:411] attention_reweight_7 -> attention_reweight_7
I0821 20:50:21.984123 20352 net.cpp:150] Setting up attention_reweight_7
I0821 20:50:21.984127 20352 net.cpp:157] Top shape: 64 64 8 1 (32768)
I0821 20:50:21.984128 20352 net.cpp:165] Memory required for data: 123568896
I0821 20:50:21.984133 20352 layer_factory.hpp:77] Creating layer attention_reweight_sum
I0821 20:50:21.984138 20352 net.cpp:106] Creating Layer attention_reweight_sum
I0821 20:50:21.984141 20352 net.cpp:454] attention_reweight_sum <- attention_reweight_0
I0821 20:50:21.984144 20352 net.cpp:454] attention_reweight_sum <- attention_reweight_1
I0821 20:50:21.984148 20352 net.cpp:454] attention_reweight_sum <- attention_reweight_2
I0821 20:50:21.984150 20352 net.cpp:454] attention_reweight_sum <- attention_reweight_3
I0821 20:50:21.984153 20352 net.cpp:454] attention_reweight_sum <- attention_reweight_4
I0821 20:50:21.984155 20352 net.cpp:454] attention_reweight_sum <- attention_reweight_5
I0821 20:50:21.984158 20352 net.cpp:454] attention_reweight_sum <- attention_reweight_6
I0821 20:50:21.984160 20352 net.cpp:454] attention_reweight_sum <- attention_reweight_7
I0821 20:50:21.984164 20352 net.cpp:411] attention_reweight_sum -> attention_reweight_sum
I0821 20:50:21.984177 20352 net.cpp:150] Setting up attention_reweight_sum
I0821 20:50:21.984181 20352 net.cpp:157] Top shape: 64 64 8 1 (32768)
I0821 20:50:21.984184 20352 net.cpp:165] Memory required for data: 123699968
I0821 20:50:21.984185 20352 layer_factory.hpp:77] Creating layer attention_reweight_flatten
I0821 20:50:21.984189 20352 net.cpp:106] Creating Layer attention_reweight_flatten
I0821 20:50:21.984192 20352 net.cpp:454] attention_reweight_flatten <- attention_reweight_sum
I0821 20:50:21.984195 20352 net.cpp:411] attention_reweight_flatten -> attention_reweight_flatten
I0821 20:50:21.984208 20352 net.cpp:150] Setting up attention_reweight_flatten
I0821 20:50:21.984212 20352 net.cpp:157] Top shape: 64 512 (32768)
I0821 20:50:21.984215 20352 net.cpp:165] Memory required for data: 123831040
I0821 20:50:21.984216 20352 layer_factory.hpp:77] Creating layer attention_reweight_dropout
I0821 20:50:21.984221 20352 net.cpp:106] Creating Layer attention_reweight_dropout
I0821 20:50:21.984223 20352 net.cpp:454] attention_reweight_dropout <- attention_reweight_flatten
I0821 20:50:21.984227 20352 net.cpp:411] attention_reweight_dropout -> attention_reweight_dropout
I0821 20:50:21.984254 20352 net.cpp:150] Setting up attention_reweight_dropout
I0821 20:50:21.984257 20352 net.cpp:157] Top shape: 64 512 (32768)
I0821 20:50:21.984261 20352 net.cpp:165] Memory required for data: 123962112
I0821 20:50:21.984262 20352 layer_factory.hpp:77] Creating layer classification_fc1
I0821 20:50:21.984267 20352 net.cpp:106] Creating Layer classification_fc1
I0821 20:50:21.984271 20352 net.cpp:454] classification_fc1 <- attention_reweight_dropout
I0821 20:50:21.984274 20352 net.cpp:411] classification_fc1 -> classification_fc1
I0821 20:50:21.985132 20352 net.cpp:150] Setting up classification_fc1
I0821 20:50:21.985137 20352 net.cpp:157] Top shape: 64 64 (4096)
I0821 20:50:21.985139 20352 net.cpp:165] Memory required for data: 123978496
I0821 20:50:21.985143 20352 layer_factory.hpp:77] Creating layer classification_dropout
I0821 20:50:21.985147 20352 net.cpp:106] Creating Layer classification_dropout
I0821 20:50:21.985150 20352 net.cpp:454] classification_dropout <- classification_fc1
I0821 20:50:21.985154 20352 net.cpp:411] classification_dropout -> classification_dropout
I0821 20:50:21.985183 20352 net.cpp:150] Setting up classification_dropout
I0821 20:50:21.985188 20352 net.cpp:157] Top shape: 64 64 (4096)
I0821 20:50:21.985190 20352 net.cpp:165] Memory required for data: 123994880
I0821 20:50:21.985193 20352 layer_factory.hpp:77] Creating layer classification_fc2
I0821 20:50:21.985198 20352 net.cpp:106] Creating Layer classification_fc2
I0821 20:50:21.985200 20352 net.cpp:454] classification_fc2 <- classification_dropout
I0821 20:50:21.985204 20352 net.cpp:411] classification_fc2 -> classification_fc2
I0821 20:50:21.985273 20352 net.cpp:150] Setting up classification_fc2
I0821 20:50:21.985277 20352 net.cpp:157] Top shape: 64 4 (256)
I0821 20:50:21.985280 20352 net.cpp:165] Memory required for data: 123995904
I0821 20:50:21.985285 20352 layer_factory.hpp:77] Creating layer classification_fc2_classification_fc2_0_split
I0821 20:50:21.985288 20352 net.cpp:106] Creating Layer classification_fc2_classification_fc2_0_split
I0821 20:50:21.985291 20352 net.cpp:454] classification_fc2_classification_fc2_0_split <- classification_fc2
I0821 20:50:21.985294 20352 net.cpp:411] classification_fc2_classification_fc2_0_split -> classification_fc2_classification_fc2_0_split_0
I0821 20:50:21.985299 20352 net.cpp:411] classification_fc2_classification_fc2_0_split -> classification_fc2_classification_fc2_0_split_1
I0821 20:50:21.985321 20352 net.cpp:150] Setting up classification_fc2_classification_fc2_0_split
I0821 20:50:21.985323 20352 net.cpp:157] Top shape: 64 4 (256)
I0821 20:50:21.985327 20352 net.cpp:157] Top shape: 64 4 (256)
I0821 20:50:21.985328 20352 net.cpp:165] Memory required for data: 123997952
I0821 20:50:21.985332 20352 layer_factory.hpp:77] Creating layer classification_loss
I0821 20:50:21.985342 20352 net.cpp:106] Creating Layer classification_loss
I0821 20:50:21.985344 20352 net.cpp:454] classification_loss <- classification_fc2_classification_fc2_0_split_0
I0821 20:50:21.985348 20352 net.cpp:454] classification_loss <- label_data_1_split_0
…
I0821 20:50:21.985457 20352 net.cpp:157] Top shape: (1)
I0821 20:50:21.985460 20352 net.cpp:165] Memory required for data: 123997960
I0821 20:50:21.985462 20352 layer_factory.hpp:77] Creating layer attention_pool_scale0
I0821 20:50:21.985466 20352 net.cpp:106] Creating Layer attention_pool_scale0
I0821 20:50:21.985471 20352 net.cpp:454] attention_pool_scale0 <- attention_scale_0_attention_scale_slice_0_split_2
I0821 20:50:21.985476 20352 net.cpp:411] attention_pool_scale0 -> attention_pool_scale0
I0821 20:50:21.985502 20352 net.cpp:150] Setting up attention_pool_scale0
I0821 20:50:21.985507 20352 net.cpp:157] Top shape: 64 64 1 1 (4096)
I0821 20:50:21.985508 20352 net.cpp:165] Memory required for data: 124014344
I0821 20:50:21.985510 20352 layer_factory.hpp:77] Creating layer attention_flatten_scale0
I0821 20:50:21.985514 20352 net.cpp:106] Creating Layer attention_flatten_scale0
I0821 20:50:21.985517 20352 net.cpp:454] attention_flatten_scale0 <- attention_pool_scale0
I0821 20:50:21.985520 20352 net.cpp:411] attention_flatten_scale0 -> attention_flatten_scale0
I0821 20:50:21.985533 20352 net.cpp:150] Setting up attention_flatten_scale0
I0821 20:50:21.985538 20352 net.cpp:157] Top shape: 64 64 (4096)
I0821 20:50:21.985539 20352 net.cpp:165] Memory required for data: 124030728
I0821 20:50:21.985543 20352 layer_factory.hpp:77] Creating layer attention_dropout_scale0
I0821 20:50:21.985546 20352 net.cpp:106] Creating Layer attention_dropout_scale0
I0821 20:50:21.985548 20352 net.cpp:454] attention_dropout_scale0 <- attention_flatten_scale0
I0821 20:50:21.985558 20352 net.cpp:411] attention_dropout_scale0 -> attention_dropout_scale0
I0821 20:50:21.985577 20352 net.cpp:150] Setting up attention_dropout_scale0
I0821 20:50:21.985581 20352 net.cpp:157] Top shape: 64 64 (4096)
I0821 20:50:21.985584 20352 net.cpp:165] Memory required for data: 124047112
I0821 20:50:21.985585 20352 layer_factory.hpp:77] Creating layer classification_fc1_scale0
I0821 20:50:21.985590 20352 net.cpp:106] Creating Layer classification_fc1_scale0
I0821 20:50:21.985594 20352 net.cpp:454] classification_fc1_scale0 <- attention_dropout_scale0
I0821 20:50:21.985597 20352 net.cpp:411] classification_fc1_scale0 -> classification_fc1_scale0
I0821 20:50:21.985764 20352 net.cpp:150] Setting up classification_fc1_scale0
I0821 20:50:21.985767 20352 net.cpp:157] Top shape: 64 64 (4096)
I0821 20:50:21.985770 20352 net.cpp:165] Memory required for data: 124063496
I0821 20:50:21.985774 20352 layer_factory.hpp:77] Creating layer classification_dropout_scale0
I0821 20:50:21.985779 20352 net.cpp:106] Creating Layer classification_dropout_scale0
I0821 20:50:21.985781 20352 net.cpp:454] classification_dropout_scale0 <- classification_fc1_scale0
I0821 20:50:21.985785 20352 net.cpp:411] classification_dropout_scale0 -> classification_dropout_scale0
I0821 20:50:21.985806 20352 net.cpp:150] Setting up classification_dropout_scale0
I0821 20:50:21.985810 20352 net.cpp:157] Top shape: 64 64 (4096)
I0821 20:50:21.985812 20352 net.cpp:165] Memory required for data: 124079880
I0821 20:50:21.985815 20352 layer_factory.hpp:77] Creating layer clasification_fc2_scale0
I0821 20:50:21.985819 20352 net.cpp:106] Creating Layer clasification_fc2_scale0
I0821 20:50:21.985822 20352 net.cpp:454] clasification_fc2_scale0 <- classification_dropout_scale0
I0821 20:50:21.985826 20352 net.cpp:411] clasification_fc2_scale0 -> classification_fc2_scale0
I0821 20:50:21.985893 20352 net.cpp:150] Setting up clasification_fc2_scale0
I0821 20:50:21.985896 20352 net.cpp:157] Top shape: 64 4 (256)
I0821 20:50:21.985898 20352 net.cpp:165] Memory required for data: 124080904
I0821 20:50:21.985903 20352 layer_factory.hpp:77] Creating layer classification_fc2_scale0_clasification_fc2_scale0_0_split
I0821 20:50:21.985906 20352 net.cpp:106] Creating Layer classification_fc2_scale0_clasification_fc2_scale0_0_split
I0821 20:50:21.985909 20352 net.cpp:454] classification_fc2_scale0_clasification_fc2_scale0_0_split <- classification_fc2_scale0
I0821 20:50:21.985913 20352 net.cpp:411] classification_fc2_scale0_clasification_fc2_scale0_0_split -> classification_fc2_scale0_clasification_fc2_scale0_0_split_0
I0821 20:50:21.985918 20352 net.cpp:411] classification_fc2_scale0_clasification_fc2_scale0_0_split -> classification_fc2_scale0_clasification_fc2_scale0_0_split_1
I0821 20:50:21.985939 20352 net.cpp:150] Setting up classification_fc2_scale0_clasification_fc2_scale0_0_split
I0821 20:50:21.985942 20352 net.cpp:157] Top shape: 64 4 (256)
I0821 20:50:21.985945 20352 net.cpp:157] Top shape: 64 4 (256)
I0821 20:50:21.985947 20352 net.cpp:165] Memory required for data: 124082952
I0821 20:50:21.985952 20352 layer_factory.hpp:77] Creating layer classification_loss_scale0
I0821 20:50:21.985956 20352 net.cpp:106] Creating Layer classification_loss_scale0
I0821 20:50:21.985960 20352 net.cpp:454] classification_loss_scale0 <- classification_fc2_scale0_clasification_fc2_scale0_0_split_0
I0821 20:50:21.985963 20352 net.cpp:454] classification_loss_scale0 <- label_data_1_split_2
…
I0821 20:50:22.003793 20352 net.cpp:49] Initializing net from parameters: 
name: "DenseAttentionNet"
state {
  phase: TEST
}
layer {
  name: "data"
  type: "TextData"
  top: "data"
  top: "label"
  include {
    phase: TEST
  }
  text_data_param {
    label_source: "/ssd/ijcai18/data/agnews/test_label.txt"
    data_source: "/ssd/ijcai18/data/agnews/test_data.txt"
    dict_source: "/ssd/ijcai18/data/agnews/local_dic_index.txt"
    batch_size: 80
    channel: 1
    num_words: 100
    crop_height: 100
    crop_width: 300
    shuffle: false
  }
}
layer {
  name: "trans_layer_conv_0"
  type: "Convolution"
  bottom: "data"
  top: "trans_layer_conv_0"
  convolution_param {
    num_output: 64
    group: 1
    stride: 1
    weight_filler {
      type: "gaussian"
      std: 0.058925565
    }
    bias_filler {
      type: "constant"
      value: 0
    }
    pad_h: 0
    pad_w: 0
    kernel_h: 1
    kernel_w: 300
  }
}
layer {
  name: "trans_layer_bn_0"
  type: "BatchNorm"
  bottom: "trans_layer_conv_0"
  top: "trans_layer_bn_0"
  param {
    lr_mult: 0
    decay_mult: 0
  }
  param {
    lr_mult: 0
    decay_mult: 0
  }
  param {
    lr_mult: 0
    decay_mult: 0
  }
}
layer {
  name: "trans_layer_relu_0"
  type: "ReLU"
  bottom: "trans_layer_bn_0"
  top: "trans_layer_bn_0"
}
layer {
  name: "trans_layer_conv_1"
  type: "Convolution"
  bottom: "trans_layer_bn_0"
  top: "trans_layer_conv_1"
  convolution_param {
    num_output: 64
    group: 1
    stride: 1
    weight_filler {
      type: "gaussian"
      std: 0.058925565
    }
    bias_filler {
      type: "constant"
      value: 0
    }
    pad_h: 0
    pad_w: 0
    kernel_h: 1
    kernel_w: 1
  }
}
layer {
  name: "trans_layer_bn_1"
  type: "BatchNorm"
  bottom: "trans_layer_conv_1"
  top: "trans_layer_bn_1"
  param {
    lr_mult: 0
    decay_mult: 0
  }
  param {
    lr_mult: 0
    decay_mult: 0
  }
  param {
    lr_mult: 0
    decay_mult: 0
  }
}
layer {
  name: "trans_layer_relu_1"
  type: "ReLU"
  bottom: "trans_layer_bn_1"
  top: "trans_layer_bn_1"
}
layer {
  name: "trans_layer_conv_2"
  type: "Convolution"
  bottom: "trans_layer_bn_1"
  top: "trans_layer_conv_2"
  convolution_param {
    num_output: 64
    group: 1
    stride: 1
    weight_filler {
      type: "gaussian"
      std: 0.058925565
    }
    bias_filler {
      type: "constant"
      value: 0
    }
    pad_h: 0
    pad_w: 0
    kernel_h: 1
    kernel_w: 1
  }
}
layer {
  name: "trans_layer_bn_2"
  type: "BatchNorm"
  bottom: "trans_layer_conv_2"
  top: "trans_layer_bn_2"
  param {
    lr_mult: 0
    decay_mult: 0
  }
  param {
    lr_mult: 0
    decay_mult: 0
  }
  param {
    lr_mult: 0
    decay_mult: 0
  }
}
layer {
  name: "trans_layer_relu_2"
  type: "ReLU"
  bottom: "trans_layer_bn_2"
  top: "trans_layer_bn_2"
}
layer {
  name: "dense_layer_conv_0"
  type: "Convolution"
  bottom: "trans_layer_bn_2"
  top: "dense_layer_conv_0"
  convolution_param {
    num_output: 64
    group: 1
    stride: 1
    weight_filler {
      type: "gaussian"
      std: 0.058925565
    }
    bias_filler {
      type: "constant"
      value: 0
    }
    pad_h: 1
    pad_w: 0
    kernel_h: 3
    kernel_w: 1
  }
}
layer {
  name: "dense_layer_concat_0"
  type: "Concat"
  bottom: "dense_layer_conv_0"
  bottom: "trans_layer_conv_0"
  bottom: "trans_layer_conv_1"
  bottom: "trans_layer_conv_2"
  top: "dense_layer_concat_0"
  concat_param {
    axis: 1
  }
}
layer {
  name: "dense_layer_bn_0"
  type: "BatchNorm"
  bottom: "dense_layer_concat_0"
  top: "dense_layer_bn_0"
  param {
    lr_mult: 0
    decay_mult: 0
  }
  param {
    lr_mult: 0
    decay_mult: 0
  }
  param {
    lr_mult: 0
    decay_mult: 0
  }
}
layer {
  name: "dense_layer_relu_0"
  type: "ReLU"
  bottom: "dense_layer_bn_0"
  top: "dense_layer_bn_0"
}
layer {
  name: "dense_layer_pool_0"
  type: "Pooling"
  bottom: "dense_layer_bn_0"
  top: "dense_layer_pool_0"
  pooling_param {
    pool: AVE
    kernel_h: 3
    kernel_w: 1
    stride_h: 2
    stride_w: 1
    pad_h: 1
    pad_w: 0
  }
}
layer {
  name: "dense_layer_conv_1"
  type: "Convolution"
  bottom: "dense_layer_pool_0"
  top: "dense_layer_conv_1"
  convolution_param {
    num_output: 64
    group: 1
    stride: 1
    weight_filler {
      type: "gaussian"
      std: 0.058925565
    }
    bias_filler {
      type: "constant"
      value: 0
    }
    pad_h: 1
    pad_w: 0
    kernel_h: 3
    kernel_w: 1
  }
}
layer {
  name: "dense_layer_concat_1"
  type: "Concat"
  bottom: "dense_layer_conv_1"
  bottom: "dense_layer_pool_0"
  top: "dense_layer_concat_1"
  concat_param {
    axis: 1
  }
}
layer {
  name: "dense_layer_bn_1"
  type: "BatchNorm"
  bottom: "dense_layer_concat_1"
  top: "dense_layer_bn_1"
  param {
    lr_mult: 0
    decay_mult: 0
  }
  param {
    lr_mult: 0
    decay_mult: 0
  }
  param {
    lr_mult: 0
    decay_mult: 0
  }
}
layer {
  name: "dense_layer_relu_1"
  type: "ReLU"
  bottom: "dense_layer_bn_1"
  top: "dense_layer_bn_1"
}
layer {
  name: "dense_layer_pool_1"
  type: "Pooling"
  bottom: "dense_layer_bn_1"
  top: "dense_layer_pool_1"
  pooling_param {
    pool: AVE
    kernel_h: 3
    kernel_w: 1
    stride_h: 2
    stride_w: 1
    pad_h: 1
    pad_w: 0
  }
}
layer {
  name: "dense_layer_conv_2"
  type: "Convolution"
  bottom: "dense_layer_pool_1"
  top: "dense_layer_conv_2"
  convolution_param {
    num_output: 64
    group: 1
    stride: 1
    weight_filler {
      type: "gaussian"
      std: 0.058925565
    }
    bias_filler {
      type: "constant"
      value: 0
    }
    pad_h: 1
    pad_w: 0
    kernel_h: 3
    kernel_w: 1
  }
}
layer {
  name: "dense_layer_concat_2"
  type: "Concat"
  bottom: "dense_layer_conv_2"
  bottom: "dense_layer_pool_1"
  top: "dense_layer_concat_2"
  concat_param {
    axis: 1
  }
}
layer {
  name: "dense_layer_bn_2"
  type: "BatchNorm"
  bottom: "dense_layer_concat_2"
  top: "dense_layer_bn_2"
  param {
    lr_mult: 0
    decay_mult: 0
  }
  param {
    lr_mult: 0
    decay_mult: 0
  }
  param {
    lr_mult: 0
    decay_mult: 0
  }
}
layer {
  name: "dense_layer_relu_2"
  type: "ReLU"
  bottom: "dense_layer_bn_2"
  top: "dense_layer_bn_2"
}
layer {
  name: "dense_layer_pool_2"
  type: "Pooling"
  bottom: "dense_layer_bn_2"
  top: "dense_layer_pool_2"
  pooling_param {
    pool: AVE
    kernel_h: 3
    kernel_w: 1
    stride_h: 2
    stride_w: 1
    pad_h: 1
    pad_w: 0
  }
}
layer {
  name: "dense_layer_conv_3"
  type: "Convolution"
  bottom: "dense_layer_pool_2"
  top: "dense_layer_conv_3"
  convolution_param {
    num_output: 64
    group: 1
    stride: 1
    weight_filler {
      type: "gaussian"
      std: 0.058925565
    }
    bias_filler {
      type: "constant"
      value: 0
    }
    pad_h: 1
    pad_w: 0
    kernel_h: 3
    kernel_w: 1
  }
}
layer {
  name: "dense_layer_concat_3"
  type: "Concat"
  bottom: "dense_layer_conv_3"
  bottom: "dense_layer_pool_2"
  top: "dense_layer_concat_3"
  concat_param {
    axis: 1
  }
}
layer {
  name: "dense_layer_bn_3"
  type: "BatchNorm"
  bottom: "dense_layer_concat_3"
  top: "dense_layer_bn_3"
  param {
    lr_mult: 0
    decay_mult: 0
  }
  param {
    lr_mult: 0
    decay_mult: 0
  }
  param {
    lr_mult: 0
    decay_mult: 0
  }
}
layer {
  name: "dense_layer_relu_3"
  type: "ReLU"
  bottom: "dense_layer_bn_3"
  top: "dense_layer_bn_3"
}
layer {
  name: "dense_layer_pool_3"
  type: "Pooling"
  bottom: "dense_layer_bn_3"
  top: "dense_layer_pool_3"
  pooling_param {
    pool: AVE
    kernel_h: 3
    kernel_w: 1
    stride_h: 2
    stride_w: 1
    pad_h: 1
    pad_w: 0
  }
}
layer {
  name: "dense_layer_conv_4"
  type: "Convolution"
  bottom: "dense_layer_pool_3"
  top: "dense_layer_conv_4"
  convolution_param {
    num_output: 64
    group: 1
    stride: 1
    weight_filler {
      type: "gaussian"
      std: 0.058925565
    }
    bias_filler {
      type: "constant"
      value: 0
    }
    pad_h: 1
    pad_w: 0
    kernel_h: 3
    kernel_w: 1
  }
}
layer {
  name: "dense_layer_concat_4"
  type: "Concat"
  bottom: "dense_layer_conv_4"
  bottom: "dense_layer_pool_3"
  top: "dense_layer_concat_4"
  concat_param {
    axis: 1
  }
}
layer {
  name: "dense_layer_bn_4"
  type: "BatchNorm"
  bottom: "dense_layer_concat_4"
  top: "dense_layer_bn_4"
  param {
    lr_mult: 0
    decay_mult: 0
  }
  param {
    lr_mult: 0
    decay_mult: 0
  }
  param {
    lr_mult: 0
    decay_mult: 0
  }
}
layer {
  name: "dense_layer_relu_4"
  type: "ReLU"
  bottom: "dense_layer_bn_4"
  top: "dense_layer_bn_4"
}
layer {
  name: "attention_layer_conv_0"
  type: "Convolution"
  bottom: "dense_layer_bn_4"
  top: "attention_layer_conv_0"
  convolution_param {
    num_output: 512
    group: 8
    stride: 1
    weight_filler {
      type: "gaussian"
      std: 0.058925565
    }
    bias_filler {
      type: "constant"
      value: 0
    }
    pad_h: 0
    pad_w: 0
    kernel_h: 1
    kernel_w: 1
  }
}
layer {
  name: "attention_layer_bn_0"
  type: "BatchNorm"
  bottom: "attention_layer_conv_0"
  top: "attention_layer_bn_0"
  param {
    lr_mult: 0
    decay_mult: 0
  }
  param {
    lr_mult: 0
    decay_mult: 0
  }
  param {
    lr_mult: 0
    decay_mult: 0
  }
}
layer {
  name: "attention_layer_relu_0"
  type: "ReLU"
  bottom: "attention_layer_bn_0"
  top: "attention_layer_bn_0"
}
layer {
  name: "attention_layer_conv_1"
  type: "Convolution"
  bottom: "attention_layer_bn_0"
  top: "attention_layer_conv_1"
  convolution_param {
    num_output: 512
    group: 8
    stride: 1
    weight_filler {
      type: "gaussian"
      std: 0.058925565
    }
    bias_filler {
      type: "constant"
      value: 0
    }
    pad_h: 0
    pad_w: 0
    kernel_h: 1
    kernel_w: 1
  }
}
layer {
  name: "attention_layer_bn_1"
  type: "BatchNorm"
  bottom: "attention_layer_conv_1"
  top: "attention_layer_bn_1"
  param {
    lr_mult: 0
    decay_mult: 0
  }
  param {
    lr_mult: 0
    decay_mult: 0
  }
  param {
    lr_mult: 0
    decay_mult: 0
  }
}
layer {
  name: "attention_layer_relu_1"
  type: "ReLU"
  bottom: "attention_layer_bn_1"
  top: "attention_layer_bn_1"
}
layer {
  name: "attention_layer_conv_2"
  type: "Convolution"
  bottom: "attention_layer_bn_1"
  top: "attention_layer_conv_2"
  convolution_param {
    num_output: 512
    group: 8
    stride: 1
    weight_filler {
      type: "gaussian"
      std: 0.058925565
    }
    bias_filler {
      type: "constant"
      value: 0
    }
    pad_h: 0
    pad_w: 0
    kernel_h: 1
    kernel_w: 1
  }
}
layer {
  name: "attention_layer_bn_2"
  type: "BatchNorm"
  bottom: "attention_layer_conv_2"
  top: "attention_layer_bn_2"
  param {
    lr_mult: 0
    decay_mult: 0
  }
  param {
    lr_mult: 0
    decay_mult: 0
  }
  param {
    lr_mult: 0
    decay_mult: 0
  }
}
layer {
  name: "attention_layer_relu_2"
  type: "ReLU"
  bottom: "attention_layer_bn_2"
  top: "attention_layer_bn_2"
}
layer {
  name: "attention_scale_slice"
  type: "Slice"
  bottom: "attention_layer_bn_2"
  top: "attention_scale_0"
  top: "attention_scale_1"
  top: "attention_scale_2"
  top: "attention_scale_3"
  top: "attention_scale_4"
  top: "attention_scale_5"
  top: "attention_scale_6"
  top: "attention_scale_7"
  slice_param {
    slice_point: 64
    slice_point: 128
    slice_point: 192
    slice_point: 256
    slice_point: 320
    slice_point: 384
    slice_point: 448
    axis: 1
  }
}
layer {
  name: "attention_permute_0"
  type: "Permute"
  bottom: "attention_scale_0"
  top: "attention_permute_0"
  permute_param {
    order: 0
    order: 3
    order: 2
    order: 1
  }
}
layer {
  name: "attention_reduction_0"
  type: "Reduction"
  bottom: "attention_permute_0"
  top: "attention_reduction_0"
  reduction_param {
    axis: 3
  }
}
layer {
  name: "attention_permute_1"
  type: "Permute"
  bottom: "attention_scale_1"
  top: "attention_permute_1"
  permute_param {
    order: 0
    order: 3
    order: 2
    order: 1
  }
}
layer {
  name: "attention_reduction_1"
  type: "Reduction"
  bottom: "attention_permute_1"
  top: "attention_reduction_1"
  reduction_param {
    axis: 3
  }
}
layer {
  name: "attention_permute_2"
  type: "Permute"
  bottom: "attention_scale_2"
  top: "attention_permute_2"
  permute_param {
    order: 0
    order: 3
    order: 2
    order: 1
  }
}
layer {
  name: "attention_reduction_2"
  type: "Reduction"
  bottom: "attention_permute_2"
  top: "attention_reduction_2"
  reduction_param {
    axis: 3
  }
}
layer {
  name: "attention_permute_3"
  type: "Permute"
  bottom: "attention_scale_3"
  top: "attention_permute_3"
  permute_param {
    order: 0
    order: 3
    order: 2
    order: 1
  }
}
layer {
  name: "attention_reduction_3"
  type: "Reduction"
  bottom: "attention_permute_3"
  top: "attention_reduction_3"
  reduction_param {
    axis: 3
  }
}
layer {
  name: "attention_permute_4"
  type: "Permute"
  bottom: "attention_scale_4"
  top: "attention_permute_4"
  permute_param {
    order: 0
    order: 3
    order: 2
    order: 1
  }
}
layer {
  name: "attention_reduction_4"
  type: "Reduction"
  bottom: "attention_permute_4"
  top: "attention_reduction_4"
  reduction_param {
    axis: 3
  }
}
layer {
  name: "attention_permute_5"
  type: "Permute"
  bottom: "attention_scale_5"
  top: "attention_permute_5"
  permute_param {
    order: 0
    order: 3
    order: 2
    order: 1
  }
}
layer {
  name: "attention_reduction_5"
  type: "Reduction"
  bottom: "attention_permute_5"
  top: "attention_reduction_5"
  reduction_param {
    axis: 3
  }
}
layer {
  name: "attention_permute_6"
  type: "Permute"
  bottom: "attention_scale_6"
  top: "attention_permute_6"
  permute_param {
    order: 0
    order: 3
    order: 2
    order: 1
  }
}
layer {
  name: "attention_reduction_6"
  type: "Reduction"
  bottom: "attention_permute_6"
  top: "attention_reduction_6"
  reduction_param {
    axis: 3
  }
}
layer {
  name: "attention_permute_7"
  type: "Permute"
  bottom: "attention_scale_7"
  top: "attention_permute_7"
  permute_param {
    order: 0
    order: 3
    order: 2
    order: 1
  }
}
layer {
  name: "attention_reduction_7"
  type: "Reduction"
  bottom: "attention_permute_7"
  top: "attention_reduction_7"
  reduction_param {
    axis: 3
  }
}
layer {
  name: "attention_scale_concat"
  type: "Concat"
  bottom: "attention_reduction_0"
  bottom: "attention_reduction_1"
  bottom: "attention_reduction_2"
  bottom: "attention_reduction_3"
  bottom: "attention_reduction_4"
  bottom: "attention_reduction_5"
  bottom: "attention_reduction_6"
  bottom: "attention_reduction_7"
  top: "attention_scale_concat"
  concat_param {
    axis: 1
  }
}
layer {
  name: "attention_height_slice"
  type: "Slice"
  bottom: "attention_scale_concat"
  top: "attention_height_0"
  top: "attention_height_1"
  top: "attention_height_2"
  top: "attention_height_3"
  top: "attention_height_4"
  top: "attention_height_5"
  top: "attention_height_6"
  top: "attention_height_7"
  slice_param {
    slice_point: 1
    slice_point: 2
    slice_point: 3
    slice_point: 4
    slice_point: 5
    slice_point: 6
    slice_point: 7
    axis: 2
  }
}
layer {
  name: "attention_height_fc1_0"
  type: "InnerProduct"
  bottom: "attention_height_0"
  top: "attention_height_fc1_0"
  param {
    lr_mult: 1
    decay_mult: 1
  }
  param {
    lr_mult: 2
    decay_mult: 0
  }
  inner_product_param {
    num_output: 8
    weight_filler {
      type: "msra"
      std: 0.01
    }
    bias_filler {
      type: "constant"
      value: 0
    }
  }
}
layer {
  name: "attention_height_fc2_0"
  type: "InnerProduct"
  bottom: "attention_height_fc1_0"
  top: "attention_height_fc2_0"
  param {
    lr_mult: 1
    decay_mult: 1
  }
  param {
    lr_mult: 2
    decay_mult: 0
  }
  inner_product_param {
    num_output: 8
    weight_filler {
      type: "msra"
      std: 0.01
    }
    bias_filler {
      type: "constant"
      value: 0
    }
  }
}
layer {
  name: "attention_height_reshape_0"
  type: "Reshape"
  bottom: "attention_height_fc2_0"
  top: "attention_height_reshape_0"
  reshape_param {
    shape {
      dim: 0
      dim: 0
      dim: 1
      dim: 1
    }
  }
}
layer {
  name: "attention_height_fc1_1"
  type: "InnerProduct"
  bottom: "attention_height_1"
  top: "attention_height_fc1_1"
  param {
    lr_mult: 1
    decay_mult: 1
  }
  param {
    lr_mult: 2
    decay_mult: 0
  }
  inner_product_param {
    num_output: 8
    weight_filler {
      type: "msra"
      std: 0.01
    }
    bias_filler {
      type: "constant"
      value: 0
    }
  }
}
layer {
  name: "attention_height_fc2_1"
  type: "InnerProduct"
  bottom: "attention_height_fc1_1"
  top: "attention_height_fc2_1"
  param {
    lr_mult: 1
    decay_mult: 1
  }
  param {
    lr_mult: 2
    decay_mult: 0
  }
  inner_product_param {
    num_output: 8
    weight_filler {
      type: "msra"
      std: 0.01
    }
    bias_filler {
      type: "constant"
      value: 0
    }
  }
}
layer {
  name: "attention_height_reshape_1"
  type: "Reshape"
  bottom: "attention_height_fc2_1"
  top: "attention_height_reshape_1"
  reshape_param {
    shape {
      dim: 0
      dim: 0
      dim: 1
      dim: 1
    }
  }
}
layer {
  name: "attention_height_fc1_2"
  type: "InnerProduct"
  bottom: "attention_height_2"
  top: "attention_height_fc1_2"
  param {
    lr_mult: 1
    decay_mult: 1
  }
  param {
    lr_mult: 2
    decay_mult: 0
  }
  inner_product_param {
    num_output: 8
    weight_filler {
      type: "msra"
      std: 0.01
    }
    bias_filler {
      type: "constant"
      value: 0
    }
  }
}
layer {
  name: "attention_height_fc2_2"
  type: "InnerProduct"
  bottom: "attention_height_fc1_2"
  top: "attention_height_fc2_2"
  param {
    lr_mult: 1
    decay_mult: 1
  }
  param {
    lr_mult: 2
    decay_mult: 0
  }
  inner_product_param {
    num_output: 8
    weight_filler {
      type: "msra"
      std: 0.01
    }
    bias_filler {
      type: "constant"
      value: 0
    }
  }
}
layer {
  name: "attention_height_reshape_2"
  type: "Reshape"
  bottom: "attention_height_fc2_2"
  top: "attention_height_reshape_2"
  reshape_param {
    shape {
      dim: 0
      dim: 0
      dim: 1
      dim: 1
    }
  }
}
layer {
  name: "attention_height_fc1_3"
  type: "InnerProduct"
  bottom: "attention_height_3"
  top: "attention_height_fc1_3"
  param {
    lr_mult: 1
    decay_mult: 1
  }
  param {
    lr_mult: 2
    decay_mult: 0
  }
  inner_product_param {
    num_output: 8
    weight_filler {
      type: "msra"
      std: 0.01
    }
    bias_filler {
      type: "constant"
      value: 0
    }
  }
}
layer {
  name: "attention_height_fc2_3"
  type: "InnerProduct"
  bottom: "attention_height_fc1_3"
  top: "attention_height_fc2_3"
  param {
    lr_mult: 1
    decay_mult: 1
  }
  param {
    lr_mult: 2
    decay_mult: 0
  }
  inner_product_param {
    num_output: 8
    weight_filler {
      type: "msra"
      std: 0.01
    }
    bias_filler {
      type: "constant"
      value: 0
    }
  }
}
layer {
  name: "attention_height_reshape_3"
  type: "Reshape"
  bottom: "attention_height_fc2_3"
  top: "attention_height_reshape_3"
  reshape_param {
    shape {
      dim: 0
      dim: 0
      dim: 1
      dim: 1
    }
  }
}
layer {
  name: "attention_height_fc1_4"
  type: "InnerProduct"
  bottom: "attention_height_4"
  top: "attention_height_fc1_4"
  param {
    lr_mult: 1
    decay_mult: 1
  }
  param {
    lr_mult: 2
    decay_mult: 0
  }
  inner_product_param {
    num_output: 8
    weight_filler {
      type: "msra"
      std: 0.01
    }
    bias_filler {
      type: "constant"
      value: 0
    }
  }
}
layer {
  name: "attention_height_fc2_4"
  type: "InnerProduct"
  bottom: "attention_height_fc1_4"
  top: "attention_height_fc2_4"
  param {
    lr_mult: 1
    decay_mult: 1
  }
  param {
    lr_mult: 2
    decay_mult: 0
  }
  inner_product_param {
    num_output: 8
    weight_filler {
      type: "msra"
      std: 0.01
    }
    bias_filler {
      type: "constant"
      value: 0
    }
  }
}
layer {
  name: "attention_height_reshape_4"
  type: "Reshape"
  bottom: "attention_height_fc2_4"
  top: "attention_height_reshape_4"
  reshape_param {
    shape {
      dim: 0
      dim: 0
      dim: 1
      dim: 1
    }
  }
}
layer {
  name: "attention_height_fc1_5"
  type: "InnerProduct"
  bottom: "attention_height_5"
  top: "attention_height_fc1_5"
  param {
    lr_mult: 1
    decay_mult: 1
  }
  param {
    lr_mult: 2
    decay_mult: 0
  }
  inner_product_param {
    num_output: 8
    weight_filler {
      type: "msra"
      std: 0.01
    }
    bias_filler {
      type: "constant"
      value: 0
    }
  }
}
layer {
  name: "attention_height_fc2_5"
  type: "InnerProduct"
  bottom: "attention_height_fc1_5"
  top: "attention_height_fc2_5"
  param {
    lr_mult: 1
    decay_mult: 1
  }
  param {
    lr_mult: 2
    decay_mult: 0
  }
  inner_product_param {
    num_output: 8
    weight_filler {
      type: "msra"
      std: 0.01
    }
    bias_filler {
      type: "constant"
      value: 0
    }
  }
}
layer {
  name: "attention_height_reshape_5"
  type: "Reshape"
  bottom: "attention_height_fc2_5"
  top: "attention_height_reshape_5"
  reshape_param {
    shape {
      dim: 0
      dim: 0
      dim: 1
      dim: 1
    }
  }
}
layer {
  name: "attention_height_fc1_6"
  type: "InnerProduct"
  bottom: "attention_height_6"
  top: "attention_height_fc1_6"
  param {
    lr_mult: 1
    decay_mult: 1
  }
  param {
    lr_mult: 2
    decay_mult: 0
  }
  inner_product_param {
    num_output: 8
    weight_filler {
      type: "msra"
      std: 0.01
    }
    bias_filler {
      type: "constant"
      value: 0
    }
  }
}
layer {
  name: "attention_height_fc2_6"
  type: "InnerProduct"
  bottom: "attention_height_fc1_6"
  top: "attention_height_fc2_6"
  param {
    lr_mult: 1
    decay_mult: 1
  }
  param {
    lr_mult: 2
    decay_mult: 0
  }
  inner_product_param {
    num_output: 8
    weight_filler {
      type: "msra"
      std: 0.01
    }
    bias_filler {
      type: "constant"
      value: 0
    }
  }
}
layer {
  name: "attention_height_reshape_6"
  type: "Reshape"
  bottom: "attention_height_fc2_6"
  top: "attention_height_reshape_6"
  reshape_param {
    shape {
      dim: 0
      dim: 0
      dim: 1
      dim: 1
    }
  }
}
layer {
  name: "attention_height_fc1_7"
  type: "InnerProduct"
  bottom: "attention_height_7"
  top: "attention_height_fc1_7"
  param {
    lr_mult: 1
    decay_mult: 1
  }
  param {
    lr_mult: 2
    decay_mult: 0
  }
  inner_product_param {
    num_output: 8
    weight_filler {
      type: "msra"
      std: 0.01
    }
    bias_filler {
      type: "constant"
      value: 0
    }
  }
}
layer {
  name: "attention_height_fc2_7"
  type: "InnerProduct"
  bottom: "attention_height_fc1_7"
  top: "attention_height_fc2_7"
  param {
    lr_mult: 1
    decay_mult: 1
  }
  param {
    lr_mult: 2
    decay_mult: 0
  }
  inner_product_param {
    num_output: 8
    weight_filler {
      type: "msra"
      std: 0.01
    }
    bias_filler {
      type: "constant"
      value: 0
    }
  }
}
layer {
  name: "attention_height_reshape_7"
  type: "Reshape"
  bottom: "attention_height_fc2_7"
  top: "attention_height_reshape_7"
  reshape_param {
    shape {
      dim: 0
      dim: 0
      dim: 1
      dim: 1
    }
  }
}
layer {
  name: "attention_height_concat"
  type: "Concat"
  bottom: "attention_height_reshape_0"
  bottom: "attention_height_reshape_1"
  bottom: "attention_height_reshape_2"
  bottom: "attention_height_reshape_3"
  bottom: "attention_height_reshape_4"
  bottom: "attention_height_reshape_5"
  bottom: "attention_height_reshape_6"
  bottom: "attention_height_reshape_7"
  top: "attention_height_concat"
  concat_param {
    axis: 2
  }
}
layer {
  name: "attention_weight"
  type: "Softmax"
  bottom: "attention_height_concat"
  top: "attention_weight"
}
layer {
  name: "attention_weight_slice"
  type: "Slice"
  bottom: "attention_weight"
  top: "attention_weight_slice_0"
  top: "attention_weight_slice_1"
  top: "attention_weight_slice_2"
  top: "attention_weight_slice_3"
  top: "attention_weight_slice_4"
  top: "attention_weight_slice_5"
  top: "attention_weight_slice_6"
  top: "attention_weight_slice_7"
  slice_param {
    slice_point: 1
    slice_point: 2
    slice_point: 3
    slice_point: 4
    slice_point: 5
    slice_point: 6
    slice_point: 7
    axis: 1
  }
}
layer {
  name: "attention_weight_tile_0"
  type: "Tile"
  bottom: "attention_weight_slice_0"
  top: "attention_weight_tile_0"
  tile_param {
    axis: 1
    tiles: 64
  }
}
layer {
  name: "attention_reweight_0"
  type: "Eltwise"
  bottom: "attention_scale_0"
  bottom: "attention_weight_tile_0"
  top: "attention_reweight_0"
  eltwise_param {
    operation: PROD
  }
}
layer {
  name: "attention_weight_tile_1"
  type: "Tile"
  bottom: "attention_weight_slice_1"
  top: "attention_weight_tile_1"
  tile_param {
    axis: 1
    tiles: 64
  }
}
layer {
  name: "attention_reweight_1"
  type: "Eltwise"
  bottom: "attention_scale_1"
  bottom: "attention_weight_tile_1"
  top: "attention_reweight_1"
  eltwise_param {
    operation: PROD
  }
}
layer {
  name: "attention_weight_tile_2"
  type: "Tile"
  bottom: "attention_weight_slice_2"
  top: "attention_weight_tile_2"
  tile_param {
    axis: 1
    tiles: 64
  }
}
layer {
  name: "attention_reweight_2"
  type: "Eltwise"
  bottom: "attention_scale_2"
  bottom: "attention_weight_tile_2"
  top: "attention_reweight_2"
  eltwise_param {
    operation: PROD
  }
}
layer {
  name: "attention_weight_tile_3"
  type: "Tile"
  bottom: "attention_weight_slice_3"
  top: "attention_weight_tile_3"
  tile_param {
    axis: 1
    tiles: 64
  }
}
layer {
  name: "attention_reweight_3"
  type: "Eltwise"
  bottom: "attention_scale_3"
  bottom: "attention_weight_tile_3"
  top: "attention_reweight_3"
  eltwise_param {
    operation: PROD
  }
}
layer {
  name: "attention_weight_tile_4"
  type: "Tile"
  bottom: "attention_weight_slice_4"
  top: "attention_weight_tile_4"
  tile_param {
    axis: 1
    tiles: 64
  }
}
layer {
  name: "attention_reweight_4"
  type: "Eltwise"
  bottom: "attention_scale_4"
  bottom: "attention_weight_tile_4"
  top: "attention_reweight_4"
  eltwise_param {
    operation: PROD
  }
}
layer {
  name: "attention_weight_tile_5"
  type: "Tile"
  bottom: "attention_weight_slice_5"
…
I0821 20:50:26.575312 20352 net.cpp:411] attention_scale_7_attention_scale_slice_7_split -> attention_scale_7_attention_scale_slice_7_split_0
I0821 20:50:26.575316 20352 net.cpp:411] attention_scale_7_attention_scale_slice_7_split -> attention_scale_7_attention_scale_slice_7_split_1
I0821 20:50:26.575320 20352 net.cpp:411] attention_scale_7_attention_scale_slice_7_split -> attention_scale_7_attention_scale_slice_7_split_2
I0821 20:50:26.575346 20352 net.cpp:150] Setting up attention_scale_7_attention_scale_slice_7_split
I0821 20:50:26.575350 20352 net.cpp:157] Top shape: 80 64 8 1 (40960)
I0821 20:50:26.575352 20352 net.cpp:157] Top shape: 80 64 8 1 (40960)
I0821 20:50:26.575356 20352 net.cpp:157] Top shape: 80 64 8 1 (40960)
I0821 20:50:26.575358 20352 net.cpp:165] Memory required for data: 150344640
I0821 20:50:26.575361 20352 layer_factory.hpp:77] Creating layer attention_permute_0
I0821 20:50:26.575366 20352 net.cpp:106] Creating Layer attention_permute_0
I0821 20:50:26.575368 20352 net.cpp:454] attention_permute_0 <- attention_scale_0_attention_scale_slice_0_split_0
I0821 20:50:26.575372 20352 net.cpp:411] attention_permute_0 -> attention_permute_0
I0821 20:50:26.575430 20352 net.cpp:150] Setting up attention_permute_0
I0821 20:50:26.575434 20352 net.cpp:157] Top shape: 80 1 8 64 (40960)
I0821 20:50:26.575436 20352 net.cpp:165] Memory required for data: 150508480
I0821 20:50:26.575438 20352 layer_factory.hpp:77] Creating layer attention_reduction_0
I0821 20:50:26.575443 20352 net.cpp:106] Creating Layer attention_reduction_0
I0821 20:50:26.575446 20352 net.cpp:454] attention_reduction_0 <- attention_permute_0
I0821 20:50:26.575450 20352 net.cpp:411] attention_reduction_0 -> attention_reduction_0
I0821 20:50:26.575484 20352 net.cpp:150] Setting up attention_reduction_0
I0821 20:50:26.575487 20352 net.cpp:157] Top shape: 80 1 8 (640)
I0821 20:50:26.575490 20352 net.cpp:165] Memory required for data: 150511040
I0821 20:50:26.575493 20352 layer_factory.hpp:77] Creating layer attention_permute_1
I0821 20:50:26.575497 20352 net.cpp:106] Creating Layer attention_permute_1
I0821 20:50:26.575500 20352 net.cpp:454] attention_permute_1 <- attention_scale_1_attention_scale_slice_1_split_0
I0821 20:50:26.575505 20352 net.cpp:411] attention_permute_1 -> attention_permute_1
I0821 20:50:26.575561 20352 net.cpp:150] Setting up attention_permute_1
I0821 20:50:26.575564 20352 net.cpp:157] Top shape: 80 1 8 64 (40960)
I0821 20:50:26.575567 20352 net.cpp:165] Memory required for data: 150674880
I0821 20:50:26.575569 20352 layer_factory.hpp:77] Creating layer attention_reduction_1
I0821 20:50:26.575572 20352 net.cpp:106] Creating Layer attention_reduction_1
I0821 20:50:26.575575 20352 net.cpp:454] attention_reduction_1 <- attention_permute_1
I0821 20:50:26.575579 20352 net.cpp:411] attention_reduction_1 -> attention_reduction_1
I0821 20:50:26.575609 20352 net.cpp:150] Setting up attention_reduction_1
I0821 20:50:26.575613 20352 net.cpp:157] Top shape: 80 1 8 (640)
I0821 20:50:26.575615 20352 net.cpp:165] Memory required for data: 150677440
I0821 20:50:26.575618 20352 layer_factory.hpp:77] Creating layer attention_permute_2
I0821 20:50:26.575626 20352 net.cpp:106] Creating Layer attention_permute_2
I0821 20:50:26.575629 20352 net.cpp:454] attention_permute_2 <- attention_scale_2_attention_scale_slice_2_split_0
I0821 20:50:26.575634 20352 net.cpp:411] attention_permute_2 -> attention_permute_2
I0821 20:50:26.575690 20352 net.cpp:150] Setting up attention_permute_2
I0821 20:50:26.575695 20352 net.cpp:157] Top shape: 80 1 8 64 (40960)
I0821 20:50:26.575697 20352 net.cpp:165] Memory required for data: 150841280
I0821 20:50:26.575700 20352 layer_factory.hpp:77] Creating layer attention_reduction_2
I0821 20:50:26.575704 20352 net.cpp:106] Creating Layer attention_reduction_2
I0821 20:50:26.575706 20352 net.cpp:454] attention_reduction_2 <- attention_permute_2
I0821 20:50:26.575711 20352 net.cpp:411] attention_reduction_2 -> attention_reduction_2
I0821 20:50:26.575739 20352 net.cpp:150] Setting up attention_reduction_2
I0821 20:50:26.575743 20352 net.cpp:157] Top shape: 80 1 8 (640)
I0821 20:50:26.575747 20352 net.cpp:165] Memory required for data: 150843840
I0821 20:50:26.575748 20352 layer_factory.hpp:77] Creating layer attention_permute_3
I0821 20:50:26.575752 20352 net.cpp:106] Creating Layer attention_permute_3
I0821 20:50:26.575755 20352 net.cpp:454] attention_permute_3 <- attention_scale_3_attention_scale_slice_3_split_0
I0821 20:50:26.575759 20352 net.cpp:411] attention_permute_3 -> attention_permute_3
I0821 20:50:26.575814 20352 net.cpp:150] Setting up attention_permute_3
I0821 20:50:26.575820 20352 net.cpp:157] Top shape: 80 1 8 64 (40960)
I0821 20:50:26.575822 20352 net.cpp:165] Memory required for data: 151007680
I0821 20:50:26.575825 20352 layer_factory.hpp:77] Creating layer attention_reduction_3
I0821 20:50:26.575829 20352 net.cpp:106] Creating Layer attention_reduction_3
I0821 20:50:26.575832 20352 net.cpp:454] attention_reduction_3 <- attention_permute_3
I0821 20:50:26.575835 20352 net.cpp:411] attention_reduction_3 -> attention_reduction_3
I0821 20:50:26.575866 20352 net.cpp:150] Setting up attention_reduction_3
I0821 20:50:26.575872 20352 net.cpp:157] Top shape: 80 1 8 (640)
I0821 20:50:26.575875 20352 net.cpp:165] Memory required for data: 151010240
I0821 20:50:26.575876 20352 layer_factory.hpp:77] Creating layer attention_permute_4
I0821 20:50:26.575881 20352 net.cpp:106] Creating Layer attention_permute_4
I0821 20:50:26.575883 20352 net.cpp:454] attention_permute_4 <- attention_scale_4_attention_scale_slice_4_split_0
I0821 20:50:26.575888 20352 net.cpp:411] attention_permute_4 -> attention_permute_4
I0821 20:50:26.575944 20352 net.cpp:150] Setting up attention_permute_4
I0821 20:50:26.575950 20352 net.cpp:157] Top shape: 80 1 8 64 (40960)
I0821 20:50:26.575953 20352 net.cpp:165] Memory required for data: 151174080
I0821 20:50:26.575955 20352 layer_factory.hpp:77] Creating layer attention_reduction_4
I0821 20:50:26.575959 20352 net.cpp:106] Creating Layer attention_reduction_4
I0821 20:50:26.575963 20352 net.cpp:454] attention_reduction_4 <- attention_permute_4
I0821 20:50:26.575965 20352 net.cpp:411] attention_reduction_4 -> attention_reduction_4
I0821 20:50:26.575996 20352 net.cpp:150] Setting up attention_reduction_4
I0821 20:50:26.576000 20352 net.cpp:157] Top shape: 80 1 8 (640)
I0821 20:50:26.576002 20352 net.cpp:165] Memory required for data: 151176640
I0821 20:50:26.576004 20352 layer_factory.hpp:77] Creating layer attention_permute_5
I0821 20:50:26.576009 20352 net.cpp:106] Creating Layer attention_permute_5
I0821 20:50:26.576011 20352 net.cpp:454] attention_permute_5 <- attention_scale_5_attention_scale_slice_5_split_0
I0821 20:50:26.576015 20352 net.cpp:411] attention_permute_5 -> attention_permute_5
I0821 20:50:26.576071 20352 net.cpp:150] Setting up attention_permute_5
I0821 20:50:26.576074 20352 net.cpp:157] Top shape: 80 1 8 64 (40960)
I0821 20:50:26.576076 20352 net.cpp:165] Memory required for data: 151340480
I0821 20:50:26.576078 20352 layer_factory.hpp:77] Creating layer attention_reduction_5
I0821 20:50:26.576082 20352 net.cpp:106] Creating Layer attention_reduction_5
I0821 20:50:26.576086 20352 net.cpp:454] attention_reduction_5 <- attention_permute_5
I0821 20:50:26.576089 20352 net.cpp:411] attention_reduction_5 -> attention_reduction_5
I0821 20:50:26.576118 20352 net.cpp:150] Setting up attention_reduction_5
I0821 20:50:26.576122 20352 net.cpp:157] Top shape: 80 1 8 (640)
I0821 20:50:26.576124 20352 net.cpp:165] Memory required for data: 151343040
I0821 20:50:26.576126 20352 layer_factory.hpp:77] Creating layer attention_permute_6
I0821 20:50:26.576131 20352 net.cpp:106] Creating Layer attention_permute_6
I0821 20:50:26.576133 20352 net.cpp:454] attention_permute_6 <- attention_scale_6_attention_scale_slice_6_split_0
I0821 20:50:26.576138 20352 net.cpp:411] attention_permute_6 -> attention_permute_6
I0821 20:50:26.576192 20352 net.cpp:150] Setting up attention_permute_6
I0821 20:50:26.576196 20352 net.cpp:157] Top shape: 80 1 8 64 (40960)
I0821 20:50:26.576198 20352 net.cpp:165] Memory required for data: 151506880
I0821 20:50:26.576200 20352 layer_factory.hpp:77] Creating layer attention_reduction_6
I0821 20:50:26.576205 20352 net.cpp:106] Creating Layer attention_reduction_6
I0821 20:50:26.576206 20352 net.cpp:454] attention_reduction_6 <- attention_permute_6
I0821 20:50:26.576210 20352 net.cpp:411] attention_reduction_6 -> attention_reduction_6
I0821 20:50:26.576239 20352 net.cpp:150] Setting up attention_reduction_6
I0821 20:50:26.576243 20352 net.cpp:157] Top shape: 80 1 8 (640)
I0821 20:50:26.576246 20352 net.cpp:165] Memory required for data: 151509440
I0821 20:50:26.576248 20352 layer_factory.hpp:77] Creating layer attention_permute_7
I0821 20:50:26.576251 20352 net.cpp:106] Creating Layer attention_permute_7
I0821 20:50:26.576254 20352 net.cpp:454] attention_permute_7 <- attention_scale_7_attention_scale_slice_7_split_0
I0821 20:50:26.576258 20352 net.cpp:411] attention_permute_7 -> attention_permute_7
I0821 20:50:26.576313 20352 net.cpp:150] Setting up attention_permute_7
I0821 20:50:26.576316 20352 net.cpp:157] Top shape: 80 1 8 64 (40960)
I0821 20:50:26.576319 20352 net.cpp:165] Memory required for data: 151673280
I0821 20:50:26.576321 20352 layer_factory.hpp:77] Creating layer attention_reduction_7
I0821 20:50:26.576325 20352 net.cpp:106] Creating Layer attention_reduction_7
I0821 20:50:26.576328 20352 net.cpp:454] attention_reduction_7 <- attention_permute_7
I0821 20:50:26.576331 20352 net.cpp:411] attention_reduction_7 -> attention_reduction_7
I0821 20:50:26.576360 20352 net.cpp:150] Setting up attention_reduction_7
I0821 20:50:26.576364 20352 net.cpp:157] Top shape: 80 1 8 (640)
I0821 20:50:26.576366 20352 net.cpp:165] Memory required for data: 151675840
I0821 20:50:26.576370 20352 layer_factory.hpp:77] Creating layer attention_scale_concat
I0821 20:50:26.576375 20352 net.cpp:106] Creating Layer attention_scale_concat
I0821 20:50:26.576377 20352 net.cpp:454] attention_scale_concat <- attention_reduction_0
I0821 20:50:26.576380 20352 net.cpp:454] attention_scale_concat <- attention_reduction_1
I0821 20:50:26.576385 20352 net.cpp:454] attention_scale_concat <- attention_reduction_2
I0821 20:50:26.576387 20352 net.cpp:454] attention_scale_concat <- attention_reduction_3
I0821 20:50:26.576390 20352 net.cpp:454] attention_scale_concat <- attention_reduction_4
I0821 20:50:26.576393 20352 net.cpp:454] attention_scale_concat <- attention_reduction_5
I0821 20:50:26.576396 20352 net.cpp:454] attention_scale_concat <- attention_reduction_6
I0821 20:50:26.576398 20352 net.cpp:454] attention_scale_concat <- attention_reduction_7
I0821 20:50:26.576402 20352 net.cpp:411] attention_scale_concat -> attention_scale_concat
I0821 20:50:26.576417 20352 net.cpp:150] Setting up attention_scale_concat
I0821 20:50:26.576421 20352 net.cpp:157] Top shape: 80 8 8 (5120)
I0821 20:50:26.576423 20352 net.cpp:165] Memory required for data: 151696320
I0821 20:50:26.576426 20352 layer_factory.hpp:77] Creating layer attention_height_slice
I0821 20:50:26.576431 20352 net.cpp:106] Creating Layer attention_height_slice
I0821 20:50:26.576433 20352 net.cpp:454] attention_height_slice <- attention_scale_concat
I0821 20:50:26.576437 20352 net.cpp:411] attention_height_slice -> attention_height_0
I0821 20:50:26.576442 20352 net.cpp:411] attention_height_slice -> attention_height_1
I0821 20:50:26.576447 20352 net.cpp:411] attention_height_slice -> attention_height_2
I0821 20:50:26.576450 20352 net.cpp:411] attention_height_slice -> attention_height_3
I0821 20:50:26.576454 20352 net.cpp:411] attention_height_slice -> attention_height_4
I0821 20:50:26.576458 20352 net.cpp:411] attention_height_slice -> attention_height_5
I0821 20:50:26.576462 20352 net.cpp:411] attention_height_slice -> attention_height_6
I0821 20:50:26.576467 20352 net.cpp:411] attention_height_slice -> attention_height_7
I0821 20:50:26.576531 20352 net.cpp:150] Setting up attention_height_slice
I0821 20:50:26.576535 20352 net.cpp:157] Top shape: 80 8 1 (640)
I0821 20:50:26.576539 20352 net.cpp:157] Top shape: 80 8 1 (640)
I0821 20:50:26.576541 20352 net.cpp:157] Top shape: 80 8 1 (640)
I0821 20:50:26.576544 20352 net.cpp:157] Top shape: 80 8 1 (640)
I0821 20:50:26.576546 20352 net.cpp:157] Top shape: 80 8 1 (640)
I0821 20:50:26.576550 20352 net.cpp:157] Top shape: 80 8 1 (640)
I0821 20:50:26.576552 20352 net.cpp:157] Top shape: 80 8 1 (640)
I0821 20:50:26.576555 20352 net.cpp:157] Top shape: 80 8 1 (640)
I0821 20:50:26.576556 20352 net.cpp:165] Memory required for data: 151716800
I0821 20:50:26.576560 20352 layer_factory.hpp:77] Creating layer attention_height_fc1_0
I0821 20:50:26.576565 20352 net.cpp:106] Creating Layer attention_height_fc1_0
I0821 20:50:26.576567 20352 net.cpp:454] attention_height_fc1_0 <- attention_height_0
I0821 20:50:26.576572 20352 net.cpp:411] attention_height_fc1_0 -> attention_height_fc1_0
I0821 20:50:26.576642 20352 net.cpp:150] Setting up attention_height_fc1_0
I0821 20:50:26.576645 20352 net.cpp:157] Top shape: 80 8 (640)
I0821 20:50:26.576647 20352 net.cpp:165] Memory required for data: 151719360
I0821 20:50:26.576653 20352 layer_factory.hpp:77] Creating layer attention_height_fc2_0
I0821 20:50:26.576656 20352 net.cpp:106] Creating Layer attention_height_fc2_0
I0821 20:50:26.576659 20352 net.cpp:454] attention_height_fc2_0 <- attention_height_fc1_0
I0821 20:50:26.576663 20352 net.cpp:411] attention_height_fc2_0 -> attention_height_fc2_0
I0821 20:50:26.576728 20352 net.cpp:150] Setting up attention_height_fc2_0
I0821 20:50:26.576732 20352 net.cpp:157] Top shape: 80 8 (640)
I0821 20:50:26.576735 20352 net.cpp:165] Memory required for data: 151721920
I0821 20:50:26.576738 20352 layer_factory.hpp:77] Creating layer attention_height_reshape_0
I0821 20:50:26.576745 20352 net.cpp:106] Creating Layer attention_height_reshape_0
I0821 20:50:26.576747 20352 net.cpp:454] attention_height_reshape_0 <- attention_height_fc2_0
I0821 20:50:26.576751 20352 net.cpp:411] attention_height_reshape_0 -> attention_height_reshape_0
I0821 20:50:26.576768 20352 net.cpp:150] Setting up attention_height_reshape_0
I0821 20:50:26.576772 20352 net.cpp:157] Top shape: 80 8 1 1 (640)
I0821 20:50:26.576774 20352 net.cpp:165] Memory required for data: 151724480
I0821 20:50:26.576777 20352 layer_factory.hpp:77] Creating layer attention_height_fc1_1
I0821 20:50:26.576782 20352 net.cpp:106] Creating Layer attention_height_fc1_1
I0821 20:50:26.576784 20352 net.cpp:454] attention_height_fc1_1 <- attention_height_1
I0821 20:50:26.576788 20352 net.cpp:411] attention_height_fc1_1 -> attention_height_fc1_1
I0821 20:50:26.576853 20352 net.cpp:150] Setting up attention_height_fc1_1
I0821 20:50:26.576856 20352 net.cpp:157] Top shape: 80 8 (640)
I0821 20:50:26.576858 20352 net.cpp:165] Memory required for data: 151727040
I0821 20:50:26.576864 20352 layer_factory.hpp:77] Creating layer attention_height_fc2_1
I0821 20:50:26.576867 20352 net.cpp:106] Creating Layer attention_height_fc2_1
I0821 20:50:26.576870 20352 net.cpp:454] attention_height_fc2_1 <- attention_height_fc1_1
I0821 20:50:26.576874 20352 net.cpp:411] attention_height_fc2_1 -> attention_height_fc2_1
I0821 20:50:26.576936 20352 net.cpp:150] Setting up attention_height_fc2_1
I0821 20:50:26.576941 20352 net.cpp:157] Top shape: 80 8 (640)
I0821 20:50:26.576942 20352 net.cpp:165] Memory required for data: 151729600
I0821 20:50:26.576946 20352 layer_factory.hpp:77] Creating layer attention_height_reshape_1
I0821 20:50:26.576951 20352 net.cpp:106] Creating Layer attention_height_reshape_1
I0821 20:50:26.576953 20352 net.cpp:454] attention_height_reshape_1 <- attention_height_fc2_1
I0821 20:50:26.576957 20352 net.cpp:411] attention_height_reshape_1 -> attention_height_reshape_1
I0821 20:50:26.576973 20352 net.cpp:150] Setting up attention_height_reshape_1
I0821 20:50:26.576977 20352 net.cpp:157] Top shape: 80 8 1 1 (640)
I0821 20:50:26.576978 20352 net.cpp:165] Memory required for data: 151732160
I0821 20:50:26.576982 20352 layer_factory.hpp:77] Creating layer attention_height_fc1_2
I0821 20:50:26.576985 20352 net.cpp:106] Creating Layer attention_height_fc1_2
I0821 20:50:26.576988 20352 net.cpp:454] attention_height_fc1_2 <- attention_height_2
I0821 20:50:26.576992 20352 net.cpp:411] attention_height_fc1_2 -> attention_height_fc1_2
I0821 20:50:26.577090 20352 net.cpp:150] Setting up attention_height_fc1_2
I0821 20:50:26.577096 20352 net.cpp:157] Top shape: 80 8 (640)
I0821 20:50:26.577100 20352 net.cpp:165] Memory required for data: 151734720
I0821 20:50:26.577111 20352 layer_factory.hpp:77] Creating layer attention_height_fc2_2
I0821 20:50:26.577116 20352 net.cpp:106] Creating Layer attention_height_fc2_2
I0821 20:50:26.577118 20352 net.cpp:454] attention_height_fc2_2 <- attention_height_fc1_2
I0821 20:50:26.577123 20352 net.cpp:411] attention_height_fc2_2 -> attention_height_fc2_2
I0821 20:50:26.577198 20352 net.cpp:150] Setting up attention_height_fc2_2
I0821 20:50:26.577203 20352 net.cpp:157] Top shape: 80 8 (640)
I0821 20:50:26.577205 20352 net.cpp:165] Memory required for data: 151737280
I0821 20:50:26.577209 20352 layer_factory.hpp:77] Creating layer attention_height_reshape_2
I0821 20:50:26.577214 20352 net.cpp:106] Creating Layer attention_height_reshape_2
I0821 20:50:26.577216 20352 net.cpp:454] attention_height_reshape_2 <- attention_height_fc2_2
I0821 20:50:26.577220 20352 net.cpp:411] attention_height_reshape_2 -> attention_height_reshape_2
I0821 20:50:26.577237 20352 net.cpp:150] Setting up attention_height_reshape_2
I0821 20:50:26.577240 20352 net.cpp:157] Top shape: 80 8 1 1 (640)
I0821 20:50:26.577242 20352 net.cpp:165] Memory required for data: 151739840
I0821 20:50:26.577245 20352 layer_factory.hpp:77] Creating layer attention_height_fc1_3
I0821 20:50:26.577250 20352 net.cpp:106] Creating Layer attention_height_fc1_3
I0821 20:50:26.577252 20352 net.cpp:454] attention_height_fc1_3 <- attention_height_3
I0821 20:50:26.577256 20352 net.cpp:411] attention_height_fc1_3 -> attention_height_fc1_3
I0821 20:50:26.577320 20352 net.cpp:150] Setting up attention_height_fc1_3
I0821 20:50:26.577324 20352 net.cpp:157] Top shape: 80 8 (640)
I0821 20:50:26.577327 20352 net.cpp:165] Memory required for data: 151742400
I0821 20:50:26.577330 20352 layer_factory.hpp:77] Creating layer attention_height_fc2_3
I0821 20:50:26.577335 20352 net.cpp:106] Creating Layer attention_height_fc2_3
I0821 20:50:26.577338 20352 net.cpp:454] attention_height_fc2_3 <- attention_height_fc1_3
I0821 20:50:26.577342 20352 net.cpp:411] attention_height_fc2_3 -> attention_height_fc2_3
I0821 20:50:26.577406 20352 net.cpp:150] Setting up attention_height_fc2_3
I0821 20:50:26.577410 20352 net.cpp:157] Top shape: 80 8 (640)
I0821 20:50:26.577412 20352 net.cpp:165] Memory required for data: 151744960
I0821 20:50:26.577416 20352 layer_factory.hpp:77] Creating layer attention_height_reshape_3
I0821 20:50:26.577420 20352 net.cpp:106] Creating Layer attention_height_reshape_3
I0821 20:50:26.577424 20352 net.cpp:454] attention_height_reshape_3 <- attention_height_fc2_3
I0821 20:50:26.577426 20352 net.cpp:411] attention_height_reshape_3 -> attention_height_reshape_3
I0821 20:50:26.577441 20352 net.cpp:150] Setting up attention_height_reshape_3
I0821 20:50:26.577445 20352 net.cpp:157] Top shape: 80 8 1 1 (640)
I0821 20:50:26.577446 20352 net.cpp:165] Memory required for data: 151747520
I0821 20:50:26.577450 20352 layer_factory.hpp:77] Creating layer attention_height_fc1_4
I0821 20:50:26.577453 20352 net.cpp:106] Creating Layer attention_height_fc1_4
I0821 20:50:26.577456 20352 net.cpp:454] attention_height_fc1_4 <- attention_height_4
I0821 20:50:26.577461 20352 net.cpp:411] attention_height_fc1_4 -> attention_height_fc1_4
I0821 20:50:26.577525 20352 net.cpp:150] Setting up attention_height_fc1_4
I0821 20:50:26.577529 20352 net.cpp:157] Top shape: 80 8 (640)
I0821 20:50:26.577531 20352 net.cpp:165] Memory required for data: 151750080
I0821 20:50:26.577535 20352 layer_factory.hpp:77] Creating layer attention_height_fc2_4
I0821 20:50:26.577540 20352 net.cpp:106] Creating Layer attention_height_fc2_4
I0821 20:50:26.577543 20352 net.cpp:454] attention_height_fc2_4 <- attention_height_fc1_4
I0821 20:50:26.577548 20352 net.cpp:411] attention_height_fc2_4 -> attention_height_fc2_4
I0821 20:50:26.577610 20352 net.cpp:150] Setting up attention_height_fc2_4
I0821 20:50:26.577615 20352 net.cpp:157] Top shape: 80 8 (640)
I0821 20:50:26.577616 20352 net.cpp:165] Memory required for data: 151752640
I0821 20:50:26.577620 20352 layer_factory.hpp:77] Creating layer attention_height_reshape_4
I0821 20:50:26.577625 20352 net.cpp:106] Creating Layer attention_height_reshape_4
I0821 20:50:26.577626 20352 net.cpp:454] attention_height_reshape_4 <- attention_height_fc2_4
I0821 20:50:26.577630 20352 net.cpp:411] attention_height_reshape_4 -> attention_height_reshape_4
I0821 20:50:26.577646 20352 net.cpp:150] Setting up attention_height_reshape_4
I0821 20:50:26.577648 20352 net.cpp:157] Top shape: 80 8 1 1 (640)
I0821 20:50:26.577651 20352 net.cpp:165] Memory required for data: 151755200
I0821 20:50:26.577653 20352 layer_factory.hpp:77] Creating layer attention_height_fc1_5
I0821 20:50:26.577657 20352 net.cpp:106] Creating Layer attention_height_fc1_5
I0821 20:50:26.577661 20352 net.cpp:454] attention_height_fc1_5 <- attention_height_5
I0821 20:50:26.577663 20352 net.cpp:411] attention_height_fc1_5 -> attention_height_fc1_5
I0821 20:50:26.577726 20352 net.cpp:150] Setting up attention_height_fc1_5
I0821 20:50:26.577730 20352 net.cpp:157] Top shape: 80 8 (640)
I0821 20:50:26.577733 20352 net.cpp:165] Memory required for data: 151757760
I0821 20:50:26.577736 20352 layer_factory.hpp:77] Creating layer attention_height_fc2_5
I0821 20:50:26.577740 20352 net.cpp:106] Creating Layer attention_height_fc2_5
I0821 20:50:26.577744 20352 net.cpp:454] attention_height_fc2_5 <- attention_height_fc1_5
I0821 20:50:26.577747 20352 net.cpp:411] attention_height_fc2_5 -> attention_height_fc2_5
I0821 20:50:26.577811 20352 net.cpp:150] Setting up attention_height_fc2_5
I0821 20:50:26.577816 20352 net.cpp:157] Top shape: 80 8 (640)
I0821 20:50:26.577817 20352 net.cpp:165] Memory required for data: 151760320
I0821 20:50:26.577821 20352 layer_factory.hpp:77] Creating layer attention_height_reshape_5
I0821 20:50:26.577826 20352 net.cpp:106] Creating Layer attention_height_reshape_5
I0821 20:50:26.577828 20352 net.cpp:454] attention_height_reshape_5 <- attention_height_fc2_5
I0821 20:50:26.577831 20352 net.cpp:411] attention_height_reshape_5 -> attention_height_reshape_5
I0821 20:50:26.577847 20352 net.cpp:150] Setting up attention_height_reshape_5
I0821 20:50:26.577850 20352 net.cpp:157] Top shape: 80 8 1 1 (640)
I0821 20:50:26.577852 20352 net.cpp:165] Memory required for data: 151762880
I0821 20:50:26.577855 20352 layer_factory.hpp:77] Creating layer attention_height_fc1_6
I0821 20:50:26.577859 20352 net.cpp:106] Creating Layer attention_height_fc1_6
I0821 20:50:26.577862 20352 net.cpp:454] attention_height_fc1_6 <- attention_height_6
I0821 20:50:26.577867 20352 net.cpp:411] attention_height_fc1_6 -> attention_height_fc1_6
I0821 20:50:26.577929 20352 net.cpp:150] Setting up attention_height_fc1_6
I0821 20:50:26.577934 20352 net.cpp:157] Top shape: 80 8 (640)
I0821 20:50:26.577935 20352 net.cpp:165] Memory required for data: 151765440
I0821 20:50:26.577939 20352 layer_factory.hpp:77] Creating layer attention_height_fc2_6
I0821 20:50:26.577944 20352 net.cpp:106] Creating Layer attention_height_fc2_6
I0821 20:50:26.577947 20352 net.cpp:454] attention_height_fc2_6 <- attention_height_fc1_6
I0821 20:50:26.577951 20352 net.cpp:411] attention_height_fc2_6 -> attention_height_fc2_6
I0821 20:50:26.578016 20352 net.cpp:150] Setting up attention_height_fc2_6
I0821 20:50:26.578019 20352 net.cpp:157] Top shape: 80 8 (640)
I0821 20:50:26.578022 20352 net.cpp:165] Memory required for data: 151768000
I0821 20:50:26.578025 20352 layer_factory.hpp:77] Creating layer attention_height_reshape_6
I0821 20:50:26.578029 20352 net.cpp:106] Creating Layer attention_height_reshape_6
I0821 20:50:26.578032 20352 net.cpp:454] attention_height_reshape_6 <- attention_height_fc2_6
I0821 20:50:26.578035 20352 net.cpp:411] attention_height_reshape_6 -> attention_height_reshape_6
I0821 20:50:26.578050 20352 net.cpp:150] Setting up attention_height_reshape_6
I0821 20:50:26.578053 20352 net.cpp:157] Top shape: 80 8 1 1 (640)
I0821 20:50:26.578055 20352 net.cpp:165] Memory required for data: 151770560
I0821 20:50:26.578058 20352 layer_factory.hpp:77] Creating layer attention_height_fc1_7
I0821 20:50:26.578063 20352 net.cpp:106] Creating Layer attention_height_fc1_7
I0821 20:50:26.578065 20352 net.cpp:454] attention_height_fc1_7 <- attention_height_7
I0821 20:50:26.578069 20352 net.cpp:411] attention_height_fc1_7 -> attention_height_fc1_7
I0821 20:50:26.578133 20352 net.cpp:150] Setting up attention_height_fc1_7
I0821 20:50:26.578137 20352 net.cpp:157] Top shape: 80 8 (640)
I0821 20:50:26.578140 20352 net.cpp:165] Memory required for data: 151773120
I0821 20:50:26.578143 20352 layer_factory.hpp:77] Creating layer attention_height_fc2_7
I0821 20:50:26.578147 20352 net.cpp:106] Creating Layer attention_height_fc2_7
I0821 20:50:26.578150 20352 net.cpp:454] attention_height_fc2_7 <- attention_height_fc1_7
I0821 20:50:26.578155 20352 net.cpp:411] attention_height_fc2_7 -> attention_height_fc2_7
I0821 20:50:26.578217 20352 net.cpp:150] Setting up attention_height_fc2_7
I0821 20:50:26.578220 20352 net.cpp:157] Top shape: 80 8 (640)
I0821 20:50:26.578222 20352 net.cpp:165] Memory required for data: 151775680
I0821 20:50:26.578225 20352 layer_factory.hpp:77] Creating layer attention_height_reshape_7
I0821 20:50:26.578230 20352 net.cpp:106] Creating Layer attention_height_reshape_7
I0821 20:50:26.578233 20352 net.cpp:454] attention_height_reshape_7 <- attention_height_fc2_7
I0821 20:50:26.578236 20352 net.cpp:411] attention_height_reshape_7 -> attention_height_reshape_7
I0821 20:50:26.578250 20352 net.cpp:150] Setting up attention_height_reshape_7
I0821 20:50:26.578254 20352 net.cpp:157] Top shape: 80 8 1 1 (640)
I0821 20:50:26.578256 20352 net.cpp:165] Memory required for data: 151778240
I0821 20:50:26.578258 20352 layer_factory.hpp:77] Creating layer attention_height_concat
I0821 20:50:26.578264 20352 net.cpp:106] Creating Layer attention_height_concat
I0821 20:50:26.578266 20352 net.cpp:454] attention_height_concat <- attention_height_reshape_0
I0821 20:50:26.578270 20352 net.cpp:454] attention_height_concat <- attention_height_reshape_1
I0821 20:50:26.578274 20352 net.cpp:454] attention_height_concat <- attention_height_reshape_2
I0821 20:50:26.578276 20352 net.cpp:454] attention_height_concat <- attention_height_reshape_3
I0821 20:50:26.578279 20352 net.cpp:454] attention_height_concat <- attention_height_reshape_4
I0821 20:50:26.578281 20352 net.cpp:454] attention_height_concat <- attention_height_reshape_5
I0821 20:50:26.578284 20352 net.cpp:454] attention_height_concat <- attention_height_reshape_6
I0821 20:50:26.578286 20352 net.cpp:454] attention_height_concat <- attention_height_reshape_7
I0821 20:50:26.578289 20352 net.cpp:411] attention_height_concat -> attention_height_concat
I0821 20:50:26.578305 20352 net.cpp:150] Setting up attention_height_concat
I0821 20:50:26.578308 20352 net.cpp:157] Top shape: 80 8 8 1 (5120)
I0821 20:50:26.578310 20352 net.cpp:165] Memory required for data: 151798720
I0821 20:50:26.578313 20352 layer_factory.hpp:77] Creating layer attention_weight
I0821 20:50:26.578317 20352 net.cpp:106] Creating Layer attention_weight
I0821 20:50:26.578320 20352 net.cpp:454] attention_weight <- attention_height_concat
I0821 20:50:26.578323 20352 net.cpp:411] attention_weight -> attention_weight
I0821 20:50:26.578361 20352 net.cpp:150] Setting up attention_weight
I0821 20:50:26.578364 20352 net.cpp:157] Top shape: 80 8 8 1 (5120)
I0821 20:50:26.578366 20352 net.cpp:165] Memory required for data: 151819200
I0821 20:50:26.578368 20352 layer_factory.hpp:77] Creating layer attention_weight_slice
I0821 20:50:26.578373 20352 net.cpp:106] Creating Layer attention_weight_slice
I0821 20:50:26.578377 20352 net.cpp:454] attention_weight_slice <- attention_weight
I0821 20:50:26.578380 20352 net.cpp:411] attention_weight_slice -> attention_weight_slice_0
I0821 20:50:26.578385 20352 net.cpp:411] attention_weight_slice -> attention_weight_slice_1
I0821 20:50:26.578390 20352 net.cpp:411] attention_weight_slice -> attention_weight_slice_2
I0821 20:50:26.578394 20352 net.cpp:411] attention_weight_slice -> attention_weight_slice_3
I0821 20:50:26.578398 20352 net.cpp:411] attention_weight_slice -> attention_weight_slice_4
I0821 20:50:26.578402 20352 net.cpp:411] attention_weight_slice -> attention_weight_slice_5
I0821 20:50:26.578407 20352 net.cpp:411] attention_weight_slice -> attention_weight_slice_6
I0821 20:50:26.578410 20352 net.cpp:411] attention_weight_slice -> attention_weight_slice_7
I0821 20:50:26.578474 20352 net.cpp:150] Setting up attention_weight_slice
I0821 20:50:26.578477 20352 net.cpp:157] Top shape: 80 1 8 1 (640)
I0821 20:50:26.578480 20352 net.cpp:157] Top shape: 80 1 8 1 (640)
I0821 20:50:26.578483 20352 net.cpp:157] Top shape: 80 1 8 1 (640)
I0821 20:50:26.578486 20352 net.cpp:157] Top shape: 80 1 8 1 (640)
I0821 20:50:26.578490 20352 net.cpp:157] Top shape: 80 1 8 1 (640)
I0821 20:50:26.578491 20352 net.cpp:157] Top shape: 80 1 8 1 (640)
I0821 20:50:26.578495 20352 net.cpp:157] Top shape: 80 1 8 1 (640)
I0821 20:50:26.578497 20352 net.cpp:157] Top shape: 80 1 8 1 (640)
I0821 20:50:26.578500 20352 net.cpp:165] Memory required for data: 151839680
I0821 20:50:26.578502 20352 layer_factory.hpp:77] Creating layer attention_weight_tile_0
I0821 20:50:26.578506 20352 net.cpp:106] Creating Layer attention_weight_tile_0
I0821 20:50:26.578510 20352 net.cpp:454] attention_weight_tile_0 <- attention_weight_slice_0
I0821 20:50:26.578513 20352 net.cpp:411] attention_weight_tile_0 -> attention_weight_tile_0
I0821 20:50:26.578527 20352 net.cpp:150] Setting up attention_weight_tile_0
I0821 20:50:26.578531 20352 net.cpp:157] Top shape: 80 64 8 1 (40960)
I0821 20:50:26.578534 20352 net.cpp:165] Memory required for data: 152003520
I0821 20:50:26.578536 20352 layer_factory.hpp:77] Creating layer attention_reweight_0
I0821 20:50:26.578541 20352 net.cpp:106] Creating Layer attention_reweight_0
I0821 20:50:26.578544 20352 net.cpp:454] attention_reweight_0 <- attention_scale_0_attention_scale_slice_0_split_1
I0821 20:50:26.578548 20352 net.cpp:454] attention_reweight_0 <- attention_weight_tile_0
I0821 20:50:26.578552 20352 net.cpp:411] attention_reweight_0 -> attention_reweight_0
I0821 20:50:26.578567 20352 net.cpp:150] Setting up attention_reweight_0
I0821 20:50:26.578570 20352 net.cpp:157] Top shape: 80 64 8 1 (40960)
I0821 20:50:26.578572 20352 net.cpp:165] Memory required for data: 152167360
I0821 20:50:26.578575 20352 layer_factory.hpp:77] Creating layer attention_weight_tile_1
I0821 20:50:26.578579 20352 net.cpp:106] Creating Layer attention_weight_tile_1
I0821 20:50:26.578582 20352 net.cpp:454] attention_weight_tile_1 <- attention_weight_slice_1
I0821 20:50:26.578585 20352 net.cpp:411] attention_weight_tile_1 -> attention_weight_tile_1
I0821 20:50:26.578598 20352 net.cpp:150] Setting up attention_weight_tile_1
I0821 20:50:26.578601 20352 net.cpp:157] Top shape: 80 64 8 1 (40960)
I0821 20:50:26.578604 20352 net.cpp:165] Memory required for data: 152331200
I0821 20:50:26.578606 20352 layer_factory.hpp:77] Creating layer attention_reweight_1
I0821 20:50:26.578610 20352 net.cpp:106] Creating Layer attention_reweight_1
I0821 20:50:26.578613 20352 net.cpp:454] attention_reweight_1 <- attention_scale_1_attention_scale_slice_1_split_1
I0821 20:50:26.578616 20352 net.cpp:454] attention_reweight_1 <- attention_weight_tile_1
I0821 20:50:26.578619 20352 net.cpp:411] attention_reweight_1 -> attention_reweight_1
I0821 20:50:26.578632 20352 net.cpp:150] Setting up attention_reweight_1
I0821 20:50:26.578636 20352 net.cpp:157] Top shape: 80 64 8 1 (40960)
I0821 20:50:26.578639 20352 net.cpp:165] Memory required for data: 152495040
I0821 20:50:26.578640 20352 layer_factory.hpp:77] Creating layer attention_weight_tile_2
I0821 20:50:26.578644 20352 net.cpp:106] Creating Layer attention_weight_tile_2
I0821 20:50:26.578646 20352 net.cpp:454] attention_weight_tile_2 <- attention_weight_slice_2
I0821 20:50:26.578650 20352 net.cpp:411] attention_weight_tile_2 -> attention_weight_tile_2
I0821 20:50:26.578662 20352 net.cpp:150] Setting up attention_weight_tile_2
I0821 20:50:26.578666 20352 net.cpp:157] Top shape: 80 64 8 1 (40960)
I0821 20:50:26.578668 20352 net.cpp:165] Memory required for data: 152658880
I0821 20:50:26.578670 20352 layer_factory.hpp:77] Creating layer attention_reweight_2
I0821 20:50:26.578675 20352 net.cpp:106] Creating Layer attention_reweight_2
I0821 20:50:26.578677 20352 net.cpp:454] attention_reweight_2 <- attention_scale_2_attention_scale_slice_2_split_1
I0821 20:50:26.578680 20352 net.cpp:454] attention_reweight_2 <- attention_weight_tile_2
I0821 20:50:26.578685 20352 net.cpp:411] attention_reweight_2 -> attention_reweight_2
I0821 20:50:26.578696 20352 net.cpp:150] Setting up attention_reweight_2
I0821 20:50:26.578701 20352 net.cpp:157] Top shape: 80 64 8 1 (40960)
I0821 20:50:26.578702 20352 net.cpp:165] Memory required for data: 152822720
I0821 20:50:26.578706 20352 layer_factory.hpp:77] Creating layer attention_weight_tile_3
I0821 20:50:26.578708 20352 net.cpp:106] Creating Layer attention_weight_tile_3
I0821 20:50:26.578711 20352 net.cpp:454] attention_weight_tile_3 <- attention_weight_slice_3
I0821 20:50:26.578714 20352 net.cpp:411] attention_weight_tile_3 -> attention_weight_tile_3
I0821 20:50:26.578727 20352 net.cpp:150] Setting up attention_weight_tile_3
I0821 20:50:26.578730 20352 net.cpp:157] Top shape: 80 64 8 1 (40960)
I0821 20:50:26.578732 20352 net.cpp:165] Memory required for data: 152986560
I0821 20:50:26.578734 20352 layer_factory.hpp:77] Creating layer attention_reweight_3
I0821 20:50:26.578738 20352 net.cpp:106] Creating Layer attention_reweight_3
I0821 20:50:26.578740 20352 net.cpp:454] attention_reweight_3 <- attention_scale_3_attention_scale_slice_3_split_1
I0821 20:50:26.578744 20352 net.cpp:454] attention_reweight_3 <- attention_weight_tile_3
I0821 20:50:26.578748 20352 net.cpp:411] attention_reweight_3 -> attention_reweight_3
I0821 20:50:26.578760 20352 net.cpp:150] Setting up attention_reweight_3
I0821 20:50:26.578764 20352 net.cpp:157] Top shape: 80 64 8 1 (40960)
I0821 20:50:26.578766 20352 net.cpp:165] Memory required for data: 153150400
I0821 20:50:26.578768 20352 layer_factory.hpp:77] Creating layer attention_weight_tile_4
I0821 20:50:26.578773 20352 net.cpp:106] Creating Layer attention_weight_tile_4
I0821 20:50:26.578775 20352 net.cpp:454] attention_weight_tile_4 <- attention_weight_slice_4
I0821 20:50:26.578778 20352 net.cpp:411] attention_weight_tile_4 -> attention_weight_tile_4
I0821 20:50:26.578791 20352 net.cpp:150] Setting up attention_weight_tile_4
I0821 20:50:26.578794 20352 net.cpp:157] Top shape: 80 64 8 1 (40960)
I0821 20:50:26.578796 20352 net.cpp:165] Memory required for data: 153314240
I0821 20:50:26.578799 20352 layer_factory.hpp:77] Creating layer attention_reweight_4
I0821 20:50:26.578804 20352 net.cpp:106] Creating Layer attention_reweight_4
I0821 20:50:26.578805 20352 net.cpp:454] attention_reweight_4 <- attention_scale_4_attention_scale_slice_4_split_1
I0821 20:50:26.578809 20352 net.cpp:454] attention_reweight_4 <- attention_weight_tile_4
I0821 20:50:26.578811 20352 net.cpp:411] attention_reweight_4 -> attention_reweight_4
I0821 20:50:26.578824 20352 net.cpp:150] Setting up attention_reweight_4
I0821 20:50:26.578827 20352 net.cpp:157] Top shape: 80 64 8 1 (40960)
I0821 20:50:26.578830 20352 net.cpp:165] Memory required for data: 153478080
I0821 20:50:26.578832 20352 layer_factory.hpp:77] Creating layer attention_weight_tile_5
I0821 20:50:26.578835 20352 net.cpp:106] Creating Layer attention_weight_tile_5
I0821 20:50:26.578838 20352 net.cpp:454] attention_weight_tile_5 <- attention_weight_slice_5
I0821 20:50:26.578841 20352 net.cpp:411] attention_weight_tile_5 -> attention_weight_tile_5
I0821 20:50:26.578853 20352 net.cpp:150] Setting up attention_weight_tile_5
I0821 20:50:26.578857 20352 net.cpp:157] Top shape: 80 64 8 1 (40960)
I0821 20:50:26.578860 20352 net.cpp:165] Memory required for data: 153641920
I0821 20:50:26.578861 20352 layer_factory.hpp:77] Creating layer attention_reweight_5
I0821 20:50:26.578866 20352 net.cpp:106] Creating Layer attention_reweight_5
I0821 20:50:26.578867 20352 net.cpp:454] attention_reweight_5 <- attention_scale_5_attention_scale_slice_5_split_1
I0821 20:50:26.578871 20352 net.cpp:454] attention_reweight_5 <- attention_weight_tile_5
I0821 20:50:26.578874 20352 net.cpp:411] attention_reweight_5 -> attention_reweight_5
I0821 20:50:26.578886 20352 net.cpp:150] Setting up attention_reweight_5
I0821 20:50:26.578891 20352 net.cpp:157] Top shape: 80 64 8 1 (40960)
I0821 20:50:26.578892 20352 net.cpp:165] Memory required for data: 153805760
I0821 20:50:26.578894 20352 layer_factory.hpp:77] Creating layer attention_weight_tile_6
I0821 20:50:26.578898 20352 net.cpp:106] Creating Layer attention_weight_tile_6
I0821 20:50:26.578900 20352 net.cpp:454] attention_weight_tile_6 <- attention_weight_slice_6
I0821 20:50:26.578904 20352 net.cpp:411] attention_weight_tile_6 -> attention_weight_tile_6
I0821 20:50:26.578915 20352 net.cpp:150] Setting up attention_weight_tile_6
I0821 20:50:26.578919 20352 net.cpp:157] Top shape: 80 64 8 1 (40960)
I0821 20:50:26.578922 20352 net.cpp:165] Memory required for data: 153969600
I0821 20:50:26.578924 20352 layer_factory.hpp:77] Creating layer attention_reweight_6
I0821 20:50:26.578927 20352 net.cpp:106] Creating Layer attention_reweight_6
I0821 20:50:26.578930 20352 net.cpp:454] attention_reweight_6 <- attention_scale_6_attention_scale_slice_6_split_1
I0821 20:50:26.578933 20352 net.cpp:454] attention_reweight_6 <- attention_weight_tile_6
I0821 20:50:26.578936 20352 net.cpp:411] attention_reweight_6 -> attention_reweight_6
I0821 20:50:26.578949 20352 net.cpp:150] Setting up attention_reweight_6
I0821 20:50:26.578953 20352 net.cpp:157] Top shape: 80 64 8 1 (40960)
I0821 20:50:26.578954 20352 net.cpp:165] Memory required for data: 154133440
I0821 20:50:26.578958 20352 layer_factory.hpp:77] Creating layer attention_weight_tile_7
I0821 20:50:26.578960 20352 net.cpp:106] Creating Layer attention_weight_tile_7
I0821 20:50:26.578963 20352 net.cpp:454] attention_weight_tile_7 <- attention_weight_slice_7
I0821 20:50:26.578968 20352 net.cpp:411] attention_weight_tile_7 -> attention_weight_tile_7
I0821 20:50:26.578979 20352 net.cpp:150] Setting up attention_weight_tile_7
I0821 20:50:26.578982 20352 net.cpp:157] Top shape: 80 64 8 1 (40960)
I0821 20:50:26.578985 20352 net.cpp:165] Memory required for data: 154297280
I0821 20:50:26.578987 20352 layer_factory.hpp:77] Creating layer attention_reweight_7
I0821 20:50:26.578991 20352 net.cpp:106] Creating Layer attention_reweight_7
I0821 20:50:26.578994 20352 net.cpp:454] attention_reweight_7 <- attention_scale_7_attention_scale_slice_7_split_1
I0821 20:50:26.578997 20352 net.cpp:454] attention_reweight_7 <- attention_weight_tile_7
I0821 20:50:26.579000 20352 net.cpp:411] attention_reweight_7 -> attention_reweight_7
I0821 20:50:26.579012 20352 net.cpp:150] Setting up attention_reweight_7
I0821 20:50:26.579016 20352 net.cpp:157] Top shape: 80 64 8 1 (40960)
I0821 20:50:26.579018 20352 net.cpp:165] Memory required for data: 154461120
I0821 20:50:26.579020 20352 layer_factory.hpp:77] Creating layer attention_reweight_sum
I0821 20:50:26.579025 20352 net.cpp:106] Creating Layer attention_reweight_sum
I0821 20:50:26.579028 20352 net.cpp:454] attention_reweight_sum <- attention_reweight_0
I0821 20:50:26.579031 20352 net.cpp:454] attention_reweight_sum <- attention_reweight_1
I0821 20:50:26.579035 20352 net.cpp:454] attention_reweight_sum <- attention_reweight_2
I0821 20:50:26.579037 20352 net.cpp:454] attention_reweight_sum <- attention_reweight_3
I0821 20:50:26.579039 20352 net.cpp:454] attention_reweight_sum <- attention_reweight_4
I0821 20:50:26.579042 20352 net.cpp:454] attention_reweight_sum <- attention_reweight_5
I0821 20:50:26.579044 20352 net.cpp:454] attention_reweight_sum <- attention_reweight_6
I0821 20:50:26.579047 20352 net.cpp:454] attention_reweight_sum <- attention_reweight_7
I0821 20:50:26.579051 20352 net.cpp:411] attention_reweight_sum -> attention_reweight_sum
I0821 20:50:26.579064 20352 net.cpp:150] Setting up attention_reweight_sum
I0821 20:50:26.579068 20352 net.cpp:157] Top shape: 80 64 8 1 (40960)
I0821 20:50:26.579072 20352 net.cpp:165] Memory required for data: 154624960
I0821 20:50:26.579074 20352 layer_factory.hpp:77] Creating layer attention_reweight_flatten
I0821 20:50:26.579079 20352 net.cpp:106] Creating Layer attention_reweight_flatten
I0821 20:50:26.579082 20352 net.cpp:454] attention_reweight_flatten <- attention_reweight_sum
I0821 20:50:26.579085 20352 net.cpp:411] attention_reweight_flatten -> attention_reweight_flatten
I0821 20:50:26.579099 20352 net.cpp:150] Setting up attention_reweight_flatten
I0821 20:50:26.579102 20352 net.cpp:157] Top shape: 80 512 (40960)
I0821 20:50:26.579104 20352 net.cpp:165] Memory required for data: 154788800
I0821 20:50:26.579107 20352 layer_factory.hpp:77] Creating layer attention_reweight_dropout
I0821 20:50:26.579113 20352 net.cpp:106] Creating Layer attention_reweight_dropout
I0821 20:50:26.579114 20352 net.cpp:454] attention_reweight_dropout <- attention_reweight_flatten
I0821 20:50:26.579118 20352 net.cpp:411] attention_reweight_dropout -> attention_reweight_dropout
I0821 20:50:26.579140 20352 net.cpp:150] Setting up attention_reweight_dropout
I0821 20:50:26.579144 20352 net.cpp:157] Top shape: 80 512 (40960)
I0821 20:50:26.579146 20352 net.cpp:165] Memory required for data: 154952640
I0821 20:50:26.579149 20352 layer_factory.hpp:77] Creating layer classification_fc1
I0821 20:50:26.579154 20352 net.cpp:106] Creating Layer classification_fc1
I0821 20:50:26.579155 20352 net.cpp:454] classification_fc1 <- attention_reweight_dropout
I0821 20:50:26.579159 20352 net.cpp:411] classification_fc1 -> classification_fc1
I0821 20:50:26.580003 20352 net.cpp:150] Setting up classification_fc1
I0821 20:50:26.580008 20352 net.cpp:157] Top shape: 80 64 (5120)
I0821 20:50:26.580010 20352 net.cpp:165] Memory required for data: 154973120
I0821 20:50:26.580014 20352 layer_factory.hpp:77] Creating layer classification_dropout
I0821 20:50:26.580018 20352 net.cpp:106] Creating Layer classification_dropout
I0821 20:50:26.580021 20352 net.cpp:454] classification_dropout <- classification_fc1
I0821 20:50:26.580025 20352 net.cpp:411] classification_dropout -> classification_dropout
I0821 20:50:26.580049 20352 net.cpp:150] Setting up classification_dropout
I0821 20:50:26.580051 20352 net.cpp:157] Top shape: 80 64 (5120)
I0821 20:50:26.580054 20352 net.cpp:165] Memory required for data: 154993600
I0821 20:50:26.580056 20352 layer_factory.hpp:77] Creating layer classification_fc2
I0821 20:50:26.580060 20352 net.cpp:106] Creating Layer classification_fc2
I0821 20:50:26.580063 20352 net.cpp:454] classification_fc2 <- classification_dropout
I0821 20:50:26.580067 20352 net.cpp:411] classification_fc2 -> classification_fc2
I0821 20:50:26.580133 20352 net.cpp:150] Setting up classification_fc2
I0821 20:50:26.580137 20352 net.cpp:157] Top shape: 80 4 (320)
I0821 20:50:26.580139 20352 net.cpp:165] Memory required for data: 154994880
I0821 20:50:26.580143 20352 layer_factory.hpp:77] Creating layer classification_fc2_classification_fc2_0_split
I0821 20:50:26.580147 20352 net.cpp:106] Creating Layer classification_fc2_classification_fc2_0_split
I0821 20:50:26.580150 20352 net.cpp:454] classification_fc2_classification_fc2_0_split <- classification_fc2
I0821 20:50:26.580154 20352 net.cpp:411] classification_fc2_classification_fc2_0_split -> classification_fc2_classification_fc2_0_split_0
I0821 20:50:26.580158 20352 net.cpp:411] classification_fc2_classification_fc2_0_split -> classification_fc2_classification_fc2_0_split_1
I0821 20:50:26.580179 20352 net.cpp:150] Setting up classification_fc2_classification_fc2_0_split
I0821 20:50:26.580183 20352 net.cpp:157] Top shape: 80 4 (320)
I0821 20:50:26.580186 20352 net.cpp:157] Top shape: 80 4 (320)
I0821 20:50:26.580188 20352 net.cpp:165] Memory required for data: 154997440
I0821 20:50:26.580191 20352 layer_factory.hpp:77] Creating layer classification_loss
I0821 20:50:26.580201 20352 net.cpp:106] Creating Layer classification_loss
I0821 20:50:26.580204 20352 net.cpp:454] classification_loss <- classification_fc2_classification_fc2_0_split_0
I0821 20:50:26.580207 20352 net.cpp:454] classification_loss <- label_data_1_split_0
…
I0821 20:50:26.580313 20352 net.cpp:157] Top shape: (1)
I0821 20:50:26.580315 20352 net.cpp:165] Memory required for data: 154997448
I0821 20:50:26.580317 20352 layer_factory.hpp:77] Creating layer attention_pool_scale0
I0821 20:50:26.580322 20352 net.cpp:106] Creating Layer attention_pool_scale0
I0821 20:50:26.580325 20352 net.cpp:454] attention_pool_scale0 <- attention_scale_0_attention_scale_slice_0_split_2
I0821 20:50:26.580329 20352 net.cpp:411] attention_pool_scale0 -> attention_pool_scale0
I0821 20:50:26.580353 20352 net.cpp:150] Setting up attention_pool_scale0
I0821 20:50:26.580358 20352 net.cpp:157] Top shape: 80 64 1 1 (5120)
I0821 20:50:26.580359 20352 net.cpp:165] Memory required for data: 155017928
I0821 20:50:26.580363 20352 layer_factory.hpp:77] Creating layer attention_flatten_scale0
I0821 20:50:26.580366 20352 net.cpp:106] Creating Layer attention_flatten_scale0
I0821 20:50:26.580369 20352 net.cpp:454] attention_flatten_scale0 <- attention_pool_scale0
I0821 20:50:26.580374 20352 net.cpp:411] attention_flatten_scale0 -> attention_flatten_scale0
I0821 20:50:26.580386 20352 net.cpp:150] Setting up attention_flatten_scale0
I0821 20:50:26.580390 20352 net.cpp:157] Top shape: 80 64 (5120)
I0821 20:50:26.580392 20352 net.cpp:165] Memory required for data: 155038408
I0821 20:50:26.580394 20352 layer_factory.hpp:77] Creating layer attention_dropout_scale0
I0821 20:50:26.580399 20352 net.cpp:106] Creating Layer attention_dropout_scale0
I0821 20:50:26.580401 20352 net.cpp:454] attention_dropout_scale0 <- attention_flatten_scale0
I0821 20:50:26.580404 20352 net.cpp:411] attention_dropout_scale0 -> attention_dropout_scale0
I0821 20:50:26.580425 20352 net.cpp:150] Setting up attention_dropout_scale0
I0821 20:50:26.580428 20352 net.cpp:157] Top shape: 80 64 (5120)
I0821 20:50:26.580431 20352 net.cpp:165] Memory required for data: 155058888
I0821 20:50:26.580433 20352 layer_factory.hpp:77] Creating layer classification_fc1_scale0
I0821 20:50:26.580438 20352 net.cpp:106] Creating Layer classification_fc1_scale0
I0821 20:50:26.580441 20352 net.cpp:454] classification_fc1_scale0 <- attention_dropout_scale0
I0821 20:50:26.580446 20352 net.cpp:411] classification_fc1_scale0 -> classification_fc1_scale0
I0821 20:50:26.580607 20352 net.cpp:150] Setting up classification_fc1_scale0
I0821 20:50:26.580612 20352 net.cpp:157] Top shape: 80 64 (5120)
I0821 20:50:26.580615 20352 net.cpp:165] Memory required for data: 155079368
I0821 20:50:26.580618 20352 layer_factory.hpp:77] Creating layer classification_dropout_scale0
I0821 20:50:26.580622 20352 net.cpp:106] Creating Layer classification_dropout_scale0
I0821 20:50:26.580626 20352 net.cpp:454] classification_dropout_scale0 <- classification_fc1_scale0
I0821 20:50:26.580629 20352 net.cpp:411] classification_dropout_scale0 -> classification_dropout_scale0
I0821 20:50:26.580652 20352 net.cpp:150] Setting up classification_dropout_scale0
I0821 20:50:26.580657 20352 net.cpp:157] Top shape: 80 64 (5120)
I0821 20:50:26.580658 20352 net.cpp:165] Memory required for data: 155099848
I0821 20:50:26.580662 20352 layer_factory.hpp:77] Creating layer clasification_fc2_scale0
I0821 20:50:26.580665 20352 net.cpp:106] Creating Layer clasification_fc2_scale0
I0821 20:50:26.580668 20352 net.cpp:454] clasification_fc2_scale0 <- classification_dropout_scale0
I0821 20:50:26.580672 20352 net.cpp:411] clasification_fc2_scale0 -> classification_fc2_scale0
I0821 20:50:26.580739 20352 net.cpp:150] Setting up clasification_fc2_scale0
I0821 20:50:26.580742 20352 net.cpp:157] Top shape: 80 4 (320)
I0821 20:50:26.580745 20352 net.cpp:165] Memory required for data: 155101128
I0821 20:50:26.580749 20352 layer_factory.hpp:77] Creating layer classification_fc2_scale0_clasification_fc2_scale0_0_split
I0821 20:50:26.580752 20352 net.cpp:106] Creating Layer classification_fc2_scale0_clasification_fc2_scale0_0_split
I0821 20:50:26.580755 20352 net.cpp:454] classification_fc2_scale0_clasification_fc2_scale0_0_split <- classification_fc2_scale0
I0821 20:50:26.580760 20352 net.cpp:411] classification_fc2_scale0_clasification_fc2_scale0_0_split -> classification_fc2_scale0_clasification_fc2_scale0_0_split_0
I0821 20:50:26.580765 20352 net.cpp:411] classification_fc2_scale0_clasification_fc2_scale0_0_split -> classification_fc2_scale0_clasification_fc2_scale0_0_split_1
I0821 20:50:26.580785 20352 net.cpp:150] Setting up classification_fc2_scale0_clasification_fc2_scale0_0_split
I0821 20:50:26.580790 20352 net.cpp:157] Top shape: 80 4 (320)
I0821 20:50:26.580792 20352 net.cpp:157] Top shape: 80 4 (320)
I0821 20:50:26.580795 20352 net.cpp:165] Memory required for data: 155103688
I0821 20:50:26.580797 20352 layer_factory.hpp:77] Creating layer classification_loss_scale0
I0821 20:50:26.580801 20352 net.cpp:106] Creating Layer classification_loss_scale0
I0821 20:50:26.580804 20352 net.cpp:454] classification_loss_scale0 <- classification_fc2_scale0_clasification_fc2_scale0_0_split_0
I0821 20:50:26.580807 20352 net.cpp:454] classification_loss_scale0 <- label_data_1_split_2
…
