…
I0822 23:34:16.669915  2111 net.cpp:322] The NetState phase (0) differed from the phase (1) specified by a rule in layer data
I0822 23:34:16.670663  2111 net.cpp:49] Initializing net from parameters: 
name: "DenseAttentionNet"
state {
  phase: TRAIN
}
layer {
  name: "data"
  type: "TextData"
  top: "data"
  top: "label"
  include {
    phase: TRAIN
  }
  text_data_param {
    label_source: "/ssd/ijcai18/data/agnews/train_label.txt"
    data_source: "/ssd/ijcai18/data/agnews/train_data.txt"
    dict_source: "/ssd/ijcai18/data/agnews/local_dic_index.txt"
    batch_size: 64
    channel: 1
    num_words: 200
    crop_height: 100
    crop_width: 300
  }
}
layer {
  name: "trans_layer_conv0"
  type: "Convolution"
  bottom: "data"
  top: "trans_layer_conv0"
  convolution_param {
    num_output: 64
    group: 1
    stride: 1
    weight_filler {
      type: "gaussian"
      std: 0.058925565
    }
    bias_filler {
      type: "constant"
      value: 0
    }
    pad_h: 0
    pad_w: 0
    kernel_h: 1
    kernel_w: 300
  }
}
layer {
  name: "trans_layer_bn0"
  type: "BatchNorm"
  bottom: "trans_layer_conv0"
  top: "trans_layer_bn0"
  param {
    lr_mult: 0
    decay_mult: 0
  }
  param {
    lr_mult: 0
    decay_mult: 0
  }
  param {
    lr_mult: 0
    decay_mult: 0
  }
}
layer {
  name: "trans_layer_relu0"
  type: "ReLU"
  bottom: "trans_layer_bn0"
  top: "trans_layer_bn0"
}
layer {
  name: "trans_layer_conv1"
  type: "Convolution"
  bottom: "trans_layer_bn0"
  top: "trans_layer_conv1"
  convolution_param {
    num_output: 64
    group: 1
    stride: 1
    weight_filler {
      type: "gaussian"
      std: 0.058925565
    }
    bias_filler {
      type: "constant"
      value: 0
    }
    pad_h: 0
    pad_w: 0
    kernel_h: 1
    kernel_w: 1
  }
}
layer {
  name: "trans_layer_bn1"
  type: "BatchNorm"
  bottom: "trans_layer_conv1"
  top: "trans_layer_bn1"
  param {
    lr_mult: 0
    decay_mult: 0
  }
  param {
    lr_mult: 0
    decay_mult: 0
  }
  param {
    lr_mult: 0
    decay_mult: 0
  }
}
layer {
  name: "trans_layer_relu1"
  type: "ReLU"
  bottom: "trans_layer_bn1"
  top: "trans_layer_bn1"
}
layer {
  name: "trans_layer_conv2"
  type: "Convolution"
  bottom: "trans_layer_bn1"
  top: "trans_layer_conv2"
  convolution_param {
    num_output: 64
    group: 1
    stride: 1
    weight_filler {
      type: "gaussian"
      std: 0.058925565
    }
    bias_filler {
      type: "constant"
      value: 0
    }
    pad_h: 0
    pad_w: 0
    kernel_h: 1
    kernel_w: 1
  }
}
layer {
  name: "trans_layer_bn2"
  type: "BatchNorm"
  bottom: "trans_layer_conv2"
  top: "trans_layer_bn2"
  param {
    lr_mult: 0
    decay_mult: 0
  }
  param {
    lr_mult: 0
    decay_mult: 0
  }
  param {
    lr_mult: 0
    decay_mult: 0
  }
}
layer {
  name: "trans_layer_relu2"
  type: "ReLU"
  bottom: "trans_layer_bn2"
  top: "trans_layer_bn2"
}
layer {
  name: "dense_layer_conv0"
  type: "Convolution"
  bottom: "trans_layer_bn2"
  top: "dense_layer_conv0"
  convolution_param {
    num_output: 64
    group: 1
    stride: 1
    weight_filler {
      type: "gaussian"
      std: 0.058925565
    }
    bias_filler {
      type: "constant"
      value: 0
    }
    pad_h: 1
    pad_w: 0
    kernel_h: 3
    kernel_w: 1
  }
}
layer {
  name: "dense_layer_concat0"
  type: "Concat"
  bottom: "dense_layer_conv0"
  bottom: "trans_layer_conv0"
  bottom: "trans_layer_conv1"
  bottom: "trans_layer_conv2"
  top: "dense_layer_concat0"
  concat_param {
    axis: 1
  }
}
layer {
  name: "dense_layer_bn0"
  type: "BatchNorm"
  bottom: "dense_layer_concat0"
  top: "dense_layer_bn0"
  param {
    lr_mult: 0
    decay_mult: 0
  }
  param {
    lr_mult: 0
    decay_mult: 0
  }
  param {
    lr_mult: 0
    decay_mult: 0
  }
}
layer {
  name: "dense_layer_relu0"
  type: "ReLU"
  bottom: "dense_layer_bn0"
  top: "dense_layer_bn0"
}
layer {
  name: "dense_layer_pool0"
  type: "Pooling"
  bottom: "dense_layer_bn0"
  top: "dense_layer_pool0"
  pooling_param {
    pool: AVE
    kernel_h: 3
    kernel_w: 1
    stride_h: 2
    stride_w: 1
    pad_h: 1
    pad_w: 0
  }
}
layer {
  name: "dense_layer_conv1"
  type: "Convolution"
  bottom: "dense_layer_pool0"
  top: "dense_layer_conv1"
  convolution_param {
    num_output: 64
    group: 1
    stride: 1
    weight_filler {
      type: "gaussian"
      std: 0.058925565
    }
    bias_filler {
      type: "constant"
      value: 0
    }
    pad_h: 1
    pad_w: 0
    kernel_h: 3
    kernel_w: 1
  }
}
layer {
  name: "dense_layer_concat1"
  type: "Concat"
  bottom: "dense_layer_conv1"
  bottom: "dense_layer_pool0"
  top: "dense_layer_concat1"
  concat_param {
    axis: 1
  }
}
layer {
  name: "dense_layer_bn1"
  type: "BatchNorm"
  bottom: "dense_layer_concat1"
  top: "dense_layer_bn1"
  param {
    lr_mult: 0
    decay_mult: 0
  }
  param {
    lr_mult: 0
    decay_mult: 0
  }
  param {
    lr_mult: 0
    decay_mult: 0
  }
}
layer {
  name: "dense_layer_relu1"
  type: "ReLU"
  bottom: "dense_layer_bn1"
  top: "dense_layer_bn1"
}
layer {
  name: "dense_layer_pool1"
  type: "Pooling"
  bottom: "dense_layer_bn1"
  top: "dense_layer_pool1"
  pooling_param {
    pool: AVE
    kernel_h: 3
    kernel_w: 1
    stride_h: 2
    stride_w: 1
    pad_h: 1
    pad_w: 0
  }
}
layer {
  name: "dense_layer_conv2"
  type: "Convolution"
  bottom: "dense_layer_pool1"
  top: "dense_layer_conv2"
  convolution_param {
    num_output: 64
    group: 1
    stride: 1
    weight_filler {
      type: "gaussian"
      std: 0.058925565
    }
    bias_filler {
      type: "constant"
      value: 0
    }
    pad_h: 1
    pad_w: 0
    kernel_h: 3
    kernel_w: 1
  }
}
layer {
  name: "dense_layer_concat2"
  type: "Concat"
  bottom: "dense_layer_conv2"
  bottom: "dense_layer_pool1"
  top: "dense_layer_concat2"
  concat_param {
    axis: 1
  }
}
layer {
  name: "dense_layer_bn2"
  type: "BatchNorm"
  bottom: "dense_layer_concat2"
  top: "dense_layer_bn2"
  param {
    lr_mult: 0
    decay_mult: 0
  }
  param {
    lr_mult: 0
    decay_mult: 0
  }
  param {
    lr_mult: 0
    decay_mult: 0
  }
}
layer {
  name: "dense_layer_relu2"
  type: "ReLU"
  bottom: "dense_layer_bn2"
  top: "dense_layer_bn2"
}
layer {
  name: "dense_layer_pool2"
  type: "Pooling"
  bottom: "dense_layer_bn2"
  top: "dense_layer_pool2"
  pooling_param {
    pool: AVE
    kernel_h: 3
    kernel_w: 1
    stride_h: 2
    stride_w: 1
    pad_h: 1
    pad_w: 0
  }
}
layer {
  name: "dense_layer_conv3"
  type: "Convolution"
  bottom: "dense_layer_pool2"
  top: "dense_layer_conv3"
  convolution_param {
    num_output: 64
    group: 1
    stride: 1
    weight_filler {
      type: "gaussian"
      std: 0.058925565
    }
    bias_filler {
      type: "constant"
      value: 0
    }
    pad_h: 1
    pad_w: 0
    kernel_h: 3
    kernel_w: 1
  }
}
layer {
  name: "dense_layer_concat3"
  type: "Concat"
  bottom: "dense_layer_conv3"
  bottom: "dense_layer_pool2"
  top: "dense_layer_concat3"
  concat_param {
    axis: 1
  }
}
layer {
  name: "dense_layer_bn3"
  type: "BatchNorm"
  bottom: "dense_layer_concat3"
  top: "dense_layer_bn3"
  param {
    lr_mult: 0
    decay_mult: 0
  }
  param {
    lr_mult: 0
    decay_mult: 0
  }
  param {
    lr_mult: 0
    decay_mult: 0
  }
}
layer {
  name: "dense_layer_relu3"
  type: "ReLU"
  bottom: "dense_layer_bn3"
  top: "dense_layer_bn3"
}
layer {
  name: "dense_layer_pool3"
  type: "Pooling"
  bottom: "dense_layer_bn3"
  top: "dense_layer_pool3"
  pooling_param {
    pool: AVE
    kernel_h: 3
    kernel_w: 1
    stride_h: 2
    stride_w: 1
    pad_h: 1
    pad_w: 0
  }
}
layer {
  name: "dense_layer_conv4"
  type: "Convolution"
  bottom: "dense_layer_pool3"
  top: "dense_layer_conv4"
  convolution_param {
    num_output: 64
    group: 1
    stride: 1
    weight_filler {
      type: "gaussian"
      std: 0.058925565
    }
    bias_filler {
      type: "constant"
      value: 0
    }
    pad_h: 1
    pad_w: 0
    kernel_h: 3
    kernel_w: 1
  }
}
layer {
  name: "dense_layer_concat4"
  type: "Concat"
  bottom: "dense_layer_conv4"
  bottom: "dense_layer_pool3"
  top: "dense_layer_concat4"
  concat_param {
    axis: 1
  }
}
layer {
  name: "dense_layer_bn4"
  type: "BatchNorm"
  bottom: "dense_layer_concat4"
  top: "dense_layer_bn4"
  param {
    lr_mult: 0
    decay_mult: 0
  }
  param {
    lr_mult: 0
    decay_mult: 0
  }
  param {
    lr_mult: 0
    decay_mult: 0
  }
}
layer {
  name: "dense_layer_relu4"
  type: "ReLU"
  bottom: "dense_layer_bn4"
  top: "dense_layer_bn4"
}
layer {
  name: "attention_layer_conv0"
  type: "Convolution"
  bottom: "dense_layer_bn4"
  top: "attention_layer_conv0"
  convolution_param {
    num_output: 512
    group: 8
    stride: 1
    weight_filler {
      type: "gaussian"
      std: 0.058925565
    }
    bias_filler {
      type: "constant"
      value: 0
    }
    pad_h: 0
    pad_w: 0
    kernel_h: 1
    kernel_w: 1
  }
}
layer {
  name: "attention_layer_bn0"
  type: "BatchNorm"
  bottom: "attention_layer_conv0"
  top: "attention_layer_bn0"
  param {
    lr_mult: 0
    decay_mult: 0
  }
  param {
    lr_mult: 0
    decay_mult: 0
  }
  param {
    lr_mult: 0
    decay_mult: 0
  }
}
layer {
  name: "attention_layer_relu0"
  type: "ReLU"
  bottom: "attention_layer_bn0"
  top: "attention_layer_bn0"
}
layer {
  name: "attention_layer_conv1"
  type: "Convolution"
  bottom: "attention_layer_bn0"
  top: "attention_layer_conv1"
  convolution_param {
    num_output: 512
    group: 8
    stride: 1
    weight_filler {
      type: "gaussian"
      std: 0.058925565
    }
    bias_filler {
      type: "constant"
      value: 0
    }
    pad_h: 0
    pad_w: 0
    kernel_h: 1
    kernel_w: 1
  }
}
layer {
  name: "attention_layer_bn1"
  type: "BatchNorm"
  bottom: "attention_layer_conv1"
  top: "attention_layer_bn1"
  param {
    lr_mult: 0
    decay_mult: 0
  }
  param {
    lr_mult: 0
    decay_mult: 0
  }
  param {
    lr_mult: 0
    decay_mult: 0
  }
}
layer {
  name: "attention_layer_relu1"
  type: "ReLU"
  bottom: "attention_layer_bn1"
  top: "attention_layer_bn1"
}
layer {
  name: "attention_scale_slice"
  type: "Slice"
  bottom: "attention_layer_bn1"
  top: "attention_scale0"
  top: "attention_scale1"
  top: "attention_scale2"
  top: "attention_scale3"
  top: "attention_scale4"
  top: "attention_scale5"
  top: "attention_scale6"
  top: "attention_scale7"
  slice_param {
    slice_point: 64
    slice_point: 128
    slice_point: 192
    slice_point: 256
    slice_point: 320
    slice_point: 384
    slice_point: 448
    axis: 1
  }
}
layer {
  name: "attention_permute0"
  type: "Permute"
  bottom: "attention_scale0"
  top: "attention_permute0"
  permute_param {
    order: 0
    order: 3
    order: 2
    order: 1
  }
}
layer {
  name: "attention_reduction0"
  type: "Reduction"
  bottom: "attention_permute0"
  top: "attention_reduction0"
  reduction_param {
    axis: 3
  }
}
layer {
  name: "attention_permute1"
  type: "Permute"
  bottom: "attention_scale1"
  top: "attention_permute1"
  permute_param {
    order: 0
    order: 3
    order: 2
    order: 1
  }
}
layer {
  name: "attention_reduction1"
  type: "Reduction"
  bottom: "attention_permute1"
  top: "attention_reduction1"
  reduction_param {
    axis: 3
  }
}
layer {
  name: "attention_permute2"
  type: "Permute"
  bottom: "attention_scale2"
  top: "attention_permute2"
  permute_param {
    order: 0
    order: 3
    order: 2
    order: 1
  }
}
layer {
  name: "attention_reduction2"
  type: "Reduction"
  bottom: "attention_permute2"
  top: "attention_reduction2"
  reduction_param {
    axis: 3
  }
}
layer {
  name: "attention_permute3"
  type: "Permute"
  bottom: "attention_scale3"
  top: "attention_permute3"
  permute_param {
    order: 0
    order: 3
    order: 2
    order: 1
  }
}
layer {
  name: "attention_reduction3"
  type: "Reduction"
  bottom: "attention_permute3"
  top: "attention_reduction3"
  reduction_param {
    axis: 3
  }
}
layer {
  name: "attention_permute4"
  type: "Permute"
  bottom: "attention_scale4"
  top: "attention_permute4"
  permute_param {
    order: 0
    order: 3
    order: 2
    order: 1
  }
}
layer {
  name: "attention_reduction4"
  type: "Reduction"
  bottom: "attention_permute4"
  top: "attention_reduction4"
  reduction_param {
    axis: 3
  }
}
layer {
  name: "attention_permute5"
  type: "Permute"
  bottom: "attention_scale5"
  top: "attention_permute5"
  permute_param {
    order: 0
    order: 3
    order: 2
    order: 1
  }
}
layer {
  name: "attention_reduction5"
  type: "Reduction"
  bottom: "attention_permute5"
  top: "attention_reduction5"
  reduction_param {
    axis: 3
  }
}
layer {
  name: "attention_permute6"
  type: "Permute"
  bottom: "attention_scale6"
  top: "attention_permute6"
  permute_param {
    order: 0
    order: 3
    order: 2
    order: 1
  }
}
layer {
  name: "attention_reduction6"
  type: "Reduction"
  bottom: "attention_permute6"
  top: "attention_reduction6"
  reduction_param {
    axis: 3
  }
}
layer {
  name: "attention_permute7"
  type: "Permute"
  bottom: "attention_scale7"
  top: "attention_permute7"
  permute_param {
    order: 0
    order: 3
    order: 2
    order: 1
  }
}
layer {
  name: "attention_reduction7"
  type: "Reduction"
  bottom: "attention_permute7"
  top: "attention_reduction7"
  reduction_param {
    axis: 3
  }
}
layer {
  name: "attention_scale_concat"
  type: "Concat"
  bottom: "attention_reduction0"
  bottom: "attention_reduction1"
  bottom: "attention_reduction2"
  bottom: "attention_reduction3"
  bottom: "attention_reduction4"
  bottom: "attention_reduction5"
  bottom: "attention_reduction6"
  bottom: "attention_reduction7"
  top: "attention_scale_concat"
  concat_param {
    axis: 1
  }
}
layer {
  name: "attention_height_slice"
  type: "Slice"
  bottom: "attention_scale_concat"
  top: "attention_height0"
  top: "attention_height1"
  top: "attention_height2"
  top: "attention_height3"
  top: "attention_height4"
  top: "attention_height5"
  top: "attention_height6"
  top: "attention_height7"
  slice_param {
    slice_point: 1
    slice_point: 2
    slice_point: 3
    slice_point: 4
    slice_point: 5
    slice_point: 6
    slice_point: 7
    axis: 2
  }
}
layer {
  name: "attention_height_fc1_0"
  type: "InnerProduct"
  bottom: "attention_height0"
  top: "attention_height_fc1_0"
  inner_product_param {
    num_output: 64
    weight_filler {
      type: "gaussian"
      std: 0.001
    }
    bias_filler {
      type: "constant"
      value: 0
    }
  }
}
layer {
  name: "attention_height_fc2_0"
  type: "InnerProduct"
  bottom: "attention_height_fc1_0"
  top: "attention_height_fc2_0"
  inner_product_param {
    num_output: 32
    weight_filler {
      type: "gaussian"
      std: 0.001
    }
    bias_filler {
      type: "constant"
      value: 0
    }
  }
}
layer {
  name: "attention_height_fc3_0"
  type: "InnerProduct"
  bottom: "attention_height_fc2_0"
  top: "attention_height_fc3_0"
  inner_product_param {
    num_output: 8
    weight_filler {
      type: "gaussian"
      std: 0.001
    }
    bias_filler {
      type: "constant"
      value: 0
    }
  }
}
layer {
  name: "attention_height_reshape0"
  type: "Reshape"
  bottom: "attention_height_fc3_0"
  top: "attention_height_reshape0"
  reshape_param {
    shape {
      dim: 0
      dim: 0
      dim: 1
      dim: 1
    }
  }
}
layer {
  name: "attention_height_fc1_1"
  type: "InnerProduct"
  bottom: "attention_height1"
  top: "attention_height_fc1_1"
  inner_product_param {
    num_output: 64
    weight_filler {
      type: "gaussian"
      std: 0.001
    }
    bias_filler {
      type: "constant"
      value: 0
    }
  }
}
layer {
  name: "attention_height_fc2_1"
  type: "InnerProduct"
  bottom: "attention_height_fc1_1"
  top: "attention_height_fc2_1"
  inner_product_param {
    num_output: 32
    weight_filler {
      type: "gaussian"
      std: 0.001
    }
    bias_filler {
      type: "constant"
      value: 0
    }
  }
}
layer {
  name: "attention_height_fc3_1"
  type: "InnerProduct"
  bottom: "attention_height_fc2_1"
  top: "attention_height_fc3_1"
  inner_product_param {
    num_output: 8
    weight_filler {
      type: "gaussian"
      std: 0.001
    }
    bias_filler {
      type: "constant"
      value: 0
    }
  }
}
layer {
  name: "attention_height_reshape1"
  type: "Reshape"
  bottom: "attention_height_fc3_1"
  top: "attention_height_reshape1"
  reshape_param {
    shape {
      dim: 0
      dim: 0
      dim: 1
      dim: 1
    }
  }
}
layer {
  name: "attention_height_fc1_2"
  type: "InnerProduct"
  bottom: "attention_height2"
  top: "attention_height_fc1_2"
  inner_product_param {
    num_output: 64
    weight_filler {
      type: "gaussian"
      std: 0.001
    }
    bias_filler {
      type: "constant"
      value: 0
    }
  }
}
layer {
  name: "attention_height_fc2_2"
  type: "InnerProduct"
  bottom: "attention_height_fc1_2"
  top: "attention_height_fc2_2"
  inner_product_param {
    num_output: 32
    weight_filler {
      type: "gaussian"
      std: 0.001
    }
    bias_filler {
      type: "constant"
      value: 0
    }
  }
}
layer {
  name: "attention_height_fc3_2"
  type: "InnerProduct"
  bottom: "attention_height_fc2_2"
  top: "attention_height_fc3_2"
  inner_product_param {
    num_output: 8
    weight_filler {
      type: "gaussian"
      std: 0.001
    }
    bias_filler {
      type: "constant"
      value: 0
    }
  }
}
layer {
  name: "attention_height_reshape2"
  type: "Reshape"
  bottom: "attention_height_fc3_2"
  top: "attention_height_reshape2"
  reshape_param {
    shape {
      dim: 0
      dim: 0
      dim: 1
      dim: 1
    }
  }
}
layer {
  name: "attention_height_fc1_3"
  type: "InnerProduct"
  bottom: "attention_height3"
  top: "attention_height_fc1_3"
  inner_product_param {
    num_output: 64
    weight_filler {
      type: "gaussian"
      std: 0.001
    }
    bias_filler {
      type: "constant"
      value: 0
    }
  }
}
layer {
  name: "attention_height_fc2_3"
  type: "InnerProduct"
  bottom: "attention_height_fc1_3"
  top: "attention_height_fc2_3"
  inner_product_param {
    num_output: 32
    weight_filler {
      type: "gaussian"
      std: 0.001
    }
    bias_filler {
      type: "constant"
      value: 0
    }
  }
}
layer {
  name: "attention_height_fc3_3"
  type: "InnerProduct"
  bottom: "attention_height_fc2_3"
  top: "attention_height_fc3_3"
  inner_product_param {
    num_output: 8
    weight_filler {
      type: "gaussian"
      std: 0.001
    }
    bias_filler {
      type: "constant"
      value: 0
    }
  }
}
layer {
  name: "attention_height_reshape3"
  type: "Reshape"
  bottom: "attention_height_fc3_3"
  top: "attention_height_reshape3"
  reshape_param {
    shape {
      dim: 0
      dim: 0
      dim: 1
      dim: 1
    }
  }
}
layer {
  name: "attention_height_fc1_4"
  type: "InnerProduct"
  bottom: "attention_height4"
  top: "attention_height_fc1_4"
  inner_product_param {
    num_output: 64
    weight_filler {
      type: "gaussian"
      std: 0.001
    }
    bias_filler {
      type: "constant"
      value: 0
    }
  }
}
layer {
  name: "attention_height_fc2_4"
  type: "InnerProduct"
  bottom: "attention_height_fc1_4"
  top: "attention_height_fc2_4"
  inner_product_param {
    num_output: 32
    weight_filler {
      type: "gaussian"
      std: 0.001
    }
    bias_filler {
      type: "constant"
      value: 0
    }
  }
}
layer {
  name: "attention_height_fc3_4"
  type: "InnerProduct"
  bottom: "attention_height_fc2_4"
  top: "attention_height_fc3_4"
  inner_product_param {
    num_output: 8
    weight_filler {
      type: "gaussian"
      std: 0.001
    }
    bias_filler {
      type: "constant"
      value: 0
    }
  }
}
layer {
  name: "attention_height_reshape4"
  type: "Reshape"
  bottom: "attention_height_fc3_4"
  top: "attention_height_reshape4"
  reshape_param {
    shape {
      dim: 0
      dim: 0
      dim: 1
      dim: 1
    }
  }
}
layer {
  name: "attention_height_fc1_5"
  type: "InnerProduct"
  bottom: "attention_height5"
  top: "attention_height_fc1_5"
  inner_product_param {
    num_output: 64
    weight_filler {
      type: "gaussian"
      std: 0.001
    }
    bias_filler {
      type: "constant"
      value: 0
    }
  }
}
layer {
  name: "attention_height_fc2_5"
  type: "InnerProduct"
  bottom: "attention_height_fc1_5"
  top: "attention_height_fc2_5"
  inner_product_param {
    num_output: 32
    weight_filler {
      type: "gaussian"
      std: 0.001
    }
    bias_filler {
      type: "constant"
      value: 0
    }
  }
}
layer {
  name: "attention_height_fc3_5"
  type: "InnerProduct"
  bottom: "attention_height_fc2_5"
  top: "attention_height_fc3_5"
  inner_product_param {
    num_output: 8
    weight_filler {
      type: "gaussian"
      std: 0.001
    }
    bias_filler {
      type: "constant"
      value: 0
    }
  }
}
layer {
  name: "attention_height_reshape5"
  type: "Reshape"
  bottom: "attention_height_fc3_5"
  top: "attention_height_reshape5"
  reshape_param {
    shape {
      dim: 0
      dim: 0
      dim: 1
      dim: 1
    }
  }
}
layer {
  name: "attention_height_fc1_6"
  type: "InnerProduct"
  bottom: "attention_height6"
  top: "attention_height_fc1_6"
  inner_product_param {
    num_output: 64
    weight_filler {
      type: "gaussian"
      std: 0.001
    }
    bias_filler {
      type: "constant"
      value: 0
    }
  }
}
layer {
  name: "attention_height_fc2_6"
  type: "InnerProduct"
  bottom: "attention_height_fc1_6"
  top: "attention_height_fc2_6"
  inner_product_param {
    num_output: 32
    weight_filler {
      type: "gaussian"
      std: 0.001
    }
    bias_filler {
      type: "constant"
      value: 0
    }
  }
}
layer {
  name: "attention_height_fc3_6"
  type: "InnerProduct"
  bottom: "attention_height_fc2_6"
  top: "attention_height_fc3_6"
  inner_product_param {
    num_output: 8
    weight_filler {
      type: "gaussian"
      std: 0.001
    }
    bias_filler {
      type: "constant"
      value: 0
    }
  }
}
layer {
  name: "attention_height_reshape6"
  type: "Reshape"
  bottom: "attention_height_fc3_6"
  top: "attention_height_reshape6"
  reshape_param {
    shape {
      dim: 0
      dim: 0
      dim: 1
      dim: 1
    }
  }
}
layer {
  name: "attention_height_fc1_7"
  type: "InnerProduct"
  bottom: "attention_height7"
  top: "attention_height_fc1_7"
  inner_product_param {
    num_output: 64
    weight_filler {
      type: "gaussian"
      std: 0.001
    }
    bias_filler {
      type: "constant"
      value: 0
    }
  }
}
layer {
  name: "attention_height_fc2_7"
  type: "InnerProduct"
  bottom: "attention_height_fc1_7"
  top: "attention_height_fc2_7"
  inner_product_param {
    num_output: 32
    weight_filler {
      type: "gaussian"
      std: 0.001
    }
    bias_filler {
      type: "constant"
      value: 0
    }
  }
}
layer {
  name: "attention_height_fc3_7"
  type: "InnerProduct"
  bottom: "attention_height_fc2_7"
  top: "attention_height_fc3_7"
  inner_product_param {
    num_output: 8
    weight_filler {
      type: "gaussian"
      std: 0.001
    }
    bias_filler {
      type: "constant"
      value: 0
    }
  }
}
layer {
  name: "attention_height_reshape7"
  type: "Reshape"
  bottom: "attention_height_fc3_7"
  top: "attention_height_reshape7"
  reshape_param {
    shape {
      dim: 0
      dim: 0
      dim: 1
      dim: 1
    }
  }
}
layer {
  name: "attention_height_concat"
  type: "Concat"
  bottom: "attention_height_reshape0"
  bottom: "attention_height_reshape1"
  bottom: "attention_height_reshape2"
  bottom: "attention_height_reshape3"
  bottom: "attention_height_reshape4"
  bottom: "attention_height_reshape5"
  bottom: "attention_height_reshape6"
  bottom: "attention_height_reshape7"
  top: "attention_height_concat"
  concat_param {
    axis: 2
  }
}
layer {
  name: "attention_weight"
  type: "Softmax"
  bottom: "attention_height_concat"
  top: "attention_weight"
}
layer {
  name: "attention_weight_slice"
  type: "Slice"
  bottom: "attention_weight"
  top: "attention_weight_slice0"
  top: "attention_weight_slice1"
  top: "attention_weight_slice2"
  top: "attention_weight_slice3"
  top: "attention_weight_slice4"
  top: "attention_weight_slice5"
  top: "attention_weight_slice6"
  top: "attention_weight_slice7"
  slice_param {
    slice_point: 1
    slice_point: 2
    slice_point: 3
    slice_point: 4
    slice_point: 5
    slice_point: 6
    slice_point: 7
    axis: 1
  }
}
layer {
  name: "attention_weight_tile0"
  type: "Tile"
  bottom: "attention_weight_slice0"
  top: "attention_weight_tile0"
  tile_param {
    axis: 1
    tiles: 64
  }
}
layer {
  name: "attention_reweight0"
  type: "Eltwise"
  bottom: "attention_scale0"
  bottom: "attention_weight_tile0"
  top: "attention_reweight0"
  eltwise_param {
    operation: PROD
  }
}
layer {
  name: "attention_weight_tile1"
  type: "Tile"
  bottom: "attention_weight_slice1"
  top: "attention_weight_tile1"
  tile_param {
    axis: 1
    tiles: 64
  }
}
layer {
  name: "attention_reweight1"
  type: "Eltwise"
  bottom: "attention_scale1"
  bottom: "attention_weight_tile1"
  top: "attention_reweight1"
  eltwise_param {
    operation: PROD
  }
}
layer {
  name: "attention_weight_tile2"
  type: "Tile"
  bottom: "attention_weight_slice2"
  top: "attention_weight_tile2"
  tile_param {
    axis: 1
    tiles: 64
  }
}
layer {
  name: "attention_reweight2"
  type: "Eltwise"
  bottom: "attention_scale2"
  bottom: "attention_weight_tile2"
  top: "attention_reweight2"
  eltwise_param {
    operation: PROD
  }
}
layer {
  name: "attention_weight_tile3"
  type: "Tile"
  bottom: "attention_weight_slice3"
  top: "attention_weight_tile3"
  tile_param {
    axis: 1
    tiles: 64
  }
}
layer {
  name: "attention_reweight3"
  type: "Eltwise"
  bottom: "attention_scale3"
  bottom: "attention_weight_tile3"
  top: "attention_reweight3"
  eltwise_param {
    operation: PROD
  }
}
layer {
  name: "attention_weight_tile4"
  type: "Tile"
  bottom: "attention_weight_slice4"
  top: "attention_weight_tile4"
  tile_param {
    axis: 1
    tiles: 64
  }
}
layer {
  name: "attention_reweight4"
  type: "Eltwise"
  bottom: "attention_scale4"
  bottom: "attention_weight_tile4"
  top: "attention_reweight4"
  eltwise_param {
    operation: PROD
  }
}
layer {
  name: "attention_weight_tile5"
  type: "Tile"
  bottom: "attention_weight_slice5"
  top: "attention_weight_tile5"
  tile_param {
    axis: 1
    tiles: 64
  }
}
layer {
  name: "attention_reweight5"
  type: "Eltwise"
  bottom: "attention_scale5"
  bottom: "attention_weight_tile5"
  top: "attention_reweight5"
  eltwise_param {
    operation: PROD
  }
}
layer {
  name: "attention_weight_tile6"
  type: "Tile"
  bottom: "attention_weight_slice6"
  top: "attention_weight_tile6"
  tile_param {
    axis: 1
    tiles: 64
  }
}
layer {
  name: "attention_reweight6"
  type: "Eltwise"
  bottom: "attention_scale6"
  bottom: "attention_weight_tile6"
  top: "attention_reweight6"
  eltwise_param {
    operation: PROD
  }
}
layer {
  name: "attention_weight_tile7"
  type: "Tile"
  bottom: "attention_weight_slice7"
  top: "attention_weight_tile7"
  tile_param {
    axis: 1
    tiles: 64
  }
}
layer {
  name: "attention_reweight7"
  type: "Eltwise"
  bottom: "attention_scale7"
  bottom: "attention_weight_tile7"
  top: "attention_reweight7"
  eltwise_param {
    operation: PROD
  }
}
layer {
  name: "attention_reweight_sum"
  type: "Eltwise"
  bottom: "attention_reweight0"
  bottom: "attention_reweight1"
  bottom: "attention_reweight2"
  bottom: "attention_reweight3"
  bottom: "attention_reweight4"
  bottom: "attention_reweight5"
  bottom: "attention_reweight6"
  bottom: "attention_reweight7"
  top: "attention_reweight_sum"
  eltwise_param {
    operation: SUM
  }
}
layer {
  name: "attention_reweight_flatten"
  type: "Flatten"
  bottom: "attention_reweight_sum"
  top: "attention_reweight_flatten"
}
layer {
  name: "attention_reweight_dropout"
  type: "Dropout"
  bottom: "attention_reweight_flatten"
  top: "attention_reweight_dropout"
  dropout_param {
    dropout_ratio: 0.7
  }
}
layer {
  name: "classification_fc1"
  type: "InnerProduct"
  bottom: "attention_reweight_dropout"
  top: "classification_fc1"
  inner_product_param {
    num_output: 64
    weight_filler {
      type: "gaussian"
      std: 0.001
    }
    bias_filler {
      type: "constant"
      value: 0
    }
  }
}
layer {
  name: "classification_dropout"
  type: "Dropout"
  bottom: "classification_fc1"
  top: "classification_dropout"
  dropout_param {
    dropout_ratio: 0.7
  }
}
layer {
  name: "classification_fc2"
  type: "InnerProduct"
  bottom: "classification_dropout"
  top: "classification_fc2"
  param {
    lr_mult: 10
    decay_mult: 2
  }
  param {
    lr_mult: 10
    decay_mult: 2
  }
  inner_product_param {
    num_output: 4
    weight_filler {
      type: "gaussian"
      std: 0.001
    }
    bias_filler {
      type: "constant"
      value: 0
    }
  }
}
layer {
  name: "classification_loss"
  type: "SoftmaxWithLoss"
  bottom: "classification_fc2"
  bottom: "label"
  top: "classification_loss"
  loss_weight: 1
}
layer {
  name: "classification_accuracy"
  type: "Accuracy"
  bottom: "classification_fc2"
  bottom: "label"
  top: "classification_accuracy"
}
I0822 23:34:16.671106  2111 layer_factory.hpp:77] Creating layer data
I0822 23:34:16.671139  2111 net.cpp:106] Creating Layer data
I0822 23:34:16.671144  2111 net.cpp:411] data -> data
I0822 23:34:16.671162  2111 net.cpp:411] data -> label
I0822 23:34:16.677191  2111 text_data_layer.cpp:83] read label done (120000 samples)
I0822 23:34:16.677199  2111 text_data_layer.cpp:86] Reading content
I0822 23:34:16.702595  2111 text_data_layer.cpp:102] read content done: #120000 samples.
I0822 23:34:16.702936  2111 text_data_layer.cpp:108] Shuffling data
I0822 23:34:16.734869  2111 text_data_layer.cpp:117] output data size: 64,1,100,300
I0822 23:34:16.734936  2111 text_data_layer.cpp:125] Reading vector dict...
I0822 23:34:21.295002  2111 text_data_layer.cpp:132] vec_dict size: 56249
I0822 23:34:21.304023  2111 net.cpp:150] Setting up data
I0822 23:34:21.304064  2111 net.cpp:157] Top shape: 64 1 100 300 (1920000)
I0822 23:34:21.304069  2111 net.cpp:157] Top shape: 64 (64)
I0822 23:34:21.304071  2111 net.cpp:165] Memory required for data: 7680256
I0822 23:34:21.304080  2111 layer_factory.hpp:77] Creating layer label_data_1_split
I0822 23:34:21.304091  2111 net.cpp:106] Creating Layer label_data_1_split
I0822 23:34:21.304095  2111 net.cpp:454] label_data_1_split <- label
I0822 23:34:21.304105  2111 net.cpp:411] label_data_1_split -> label_data_1_split_0
I0822 23:34:21.304112  2111 net.cpp:411] label_data_1_split -> label_data_1_split_1
I0822 23:34:21.304191  2111 net.cpp:150] Setting up label_data_1_split
I0822 23:34:21.304198  2111 net.cpp:157] Top shape: 64 (64)
I0822 23:34:21.304201  2111 net.cpp:157] Top shape: 64 (64)
I0822 23:34:21.304204  2111 net.cpp:165] Memory required for data: 7680768
I0822 23:34:21.304206  2111 layer_factory.hpp:77] Creating layer trans_layer_conv0
I0822 23:34:21.304224  2111 net.cpp:106] Creating Layer trans_layer_conv0
I0822 23:34:21.304226  2111 net.cpp:454] trans_layer_conv0 <- data
I0822 23:34:21.304230  2111 net.cpp:411] trans_layer_conv0 -> trans_layer_conv0
I0822 23:34:21.305570  2111 net.cpp:150] Setting up trans_layer_conv0
I0822 23:34:21.305593  2111 net.cpp:157] Top shape: 64 64 100 1 (409600)
I0822 23:34:21.305596  2111 net.cpp:165] Memory required for data: 9319168
I0822 23:34:21.305606  2111 layer_factory.hpp:77] Creating layer trans_layer_conv0_trans_layer_conv0_0_split
I0822 23:34:21.305611  2111 net.cpp:106] Creating Layer trans_layer_conv0_trans_layer_conv0_0_split
I0822 23:34:21.305614  2111 net.cpp:454] trans_layer_conv0_trans_layer_conv0_0_split <- trans_layer_conv0
I0822 23:34:21.305618  2111 net.cpp:411] trans_layer_conv0_trans_layer_conv0_0_split -> trans_layer_conv0_trans_layer_conv0_0_split_0
I0822 23:34:21.305622  2111 net.cpp:411] trans_layer_conv0_trans_layer_conv0_0_split -> trans_layer_conv0_trans_layer_conv0_0_split_1
I0822 23:34:21.305646  2111 net.cpp:150] Setting up trans_layer_conv0_trans_layer_conv0_0_split
I0822 23:34:21.305650  2111 net.cpp:157] Top shape: 64 64 100 1 (409600)
I0822 23:34:21.305654  2111 net.cpp:157] Top shape: 64 64 100 1 (409600)
I0822 23:34:21.305655  2111 net.cpp:165] Memory required for data: 12595968
I0822 23:34:21.305657  2111 layer_factory.hpp:77] Creating layer trans_layer_bn0
I0822 23:34:21.305667  2111 net.cpp:106] Creating Layer trans_layer_bn0
I0822 23:34:21.305670  2111 net.cpp:454] trans_layer_bn0 <- trans_layer_conv0_trans_layer_conv0_0_split_0
I0822 23:34:21.305673  2111 net.cpp:411] trans_layer_bn0 -> trans_layer_bn0
I0822 23:34:21.305796  2111 net.cpp:150] Setting up trans_layer_bn0
I0822 23:34:21.305801  2111 net.cpp:157] Top shape: 64 64 100 1 (409600)
I0822 23:34:21.305804  2111 net.cpp:165] Memory required for data: 14234368
I0822 23:34:21.305810  2111 layer_factory.hpp:77] Creating layer trans_layer_relu0
I0822 23:34:21.305815  2111 net.cpp:106] Creating Layer trans_layer_relu0
I0822 23:34:21.305819  2111 net.cpp:454] trans_layer_relu0 <- trans_layer_bn0
I0822 23:34:21.305821  2111 net.cpp:397] trans_layer_relu0 -> trans_layer_bn0 (in-place)
I0822 23:34:21.305827  2111 net.cpp:150] Setting up trans_layer_relu0
I0822 23:34:21.305830  2111 net.cpp:157] Top shape: 64 64 100 1 (409600)
I0822 23:34:21.305832  2111 net.cpp:165] Memory required for data: 15872768
I0822 23:34:21.305835  2111 layer_factory.hpp:77] Creating layer trans_layer_conv1
I0822 23:34:21.305840  2111 net.cpp:106] Creating Layer trans_layer_conv1
I0822 23:34:21.305842  2111 net.cpp:454] trans_layer_conv1 <- trans_layer_bn0
I0822 23:34:21.305846  2111 net.cpp:411] trans_layer_conv1 -> trans_layer_conv1
I0822 23:34:21.307360  2111 net.cpp:150] Setting up trans_layer_conv1
I0822 23:34:21.307374  2111 net.cpp:157] Top shape: 64 64 100 1 (409600)
I0822 23:34:21.307376  2111 net.cpp:165] Memory required for data: 17511168
I0822 23:34:21.307381  2111 layer_factory.hpp:77] Creating layer trans_layer_conv1_trans_layer_conv1_0_split
I0822 23:34:21.307386  2111 net.cpp:106] Creating Layer trans_layer_conv1_trans_layer_conv1_0_split
I0822 23:34:21.307389  2111 net.cpp:454] trans_layer_conv1_trans_layer_conv1_0_split <- trans_layer_conv1
I0822 23:34:21.307394  2111 net.cpp:411] trans_layer_conv1_trans_layer_conv1_0_split -> trans_layer_conv1_trans_layer_conv1_0_split_0
I0822 23:34:21.307399  2111 net.cpp:411] trans_layer_conv1_trans_layer_conv1_0_split -> trans_layer_conv1_trans_layer_conv1_0_split_1
I0822 23:34:21.307422  2111 net.cpp:150] Setting up trans_layer_conv1_trans_layer_conv1_0_split
I0822 23:34:21.307426  2111 net.cpp:157] Top shape: 64 64 100 1 (409600)
I0822 23:34:21.307430  2111 net.cpp:157] Top shape: 64 64 100 1 (409600)
I0822 23:34:21.307431  2111 net.cpp:165] Memory required for data: 20787968
I0822 23:34:21.307435  2111 layer_factory.hpp:77] Creating layer trans_layer_bn1
I0822 23:34:21.307440  2111 net.cpp:106] Creating Layer trans_layer_bn1
I0822 23:34:21.307442  2111 net.cpp:454] trans_layer_bn1 <- trans_layer_conv1_trans_layer_conv1_0_split_0
I0822 23:34:21.307446  2111 net.cpp:411] trans_layer_bn1 -> trans_layer_bn1
I0822 23:34:21.307564  2111 net.cpp:150] Setting up trans_layer_bn1
I0822 23:34:21.307574  2111 net.cpp:157] Top shape: 64 64 100 1 (409600)
I0822 23:34:21.307576  2111 net.cpp:165] Memory required for data: 22426368
I0822 23:34:21.307585  2111 layer_factory.hpp:77] Creating layer trans_layer_relu1
I0822 23:34:21.307588  2111 net.cpp:106] Creating Layer trans_layer_relu1
I0822 23:34:21.307591  2111 net.cpp:454] trans_layer_relu1 <- trans_layer_bn1
I0822 23:34:21.307595  2111 net.cpp:397] trans_layer_relu1 -> trans_layer_bn1 (in-place)
I0822 23:34:21.307598  2111 net.cpp:150] Setting up trans_layer_relu1
I0822 23:34:21.307601  2111 net.cpp:157] Top shape: 64 64 100 1 (409600)
I0822 23:34:21.307605  2111 net.cpp:165] Memory required for data: 24064768
I0822 23:34:21.307606  2111 layer_factory.hpp:77] Creating layer trans_layer_conv2
I0822 23:34:21.307612  2111 net.cpp:106] Creating Layer trans_layer_conv2
I0822 23:34:21.307615  2111 net.cpp:454] trans_layer_conv2 <- trans_layer_bn1
I0822 23:34:21.307618  2111 net.cpp:411] trans_layer_conv2 -> trans_layer_conv2
I0822 23:34:21.307853  2111 net.cpp:150] Setting up trans_layer_conv2
I0822 23:34:21.307860  2111 net.cpp:157] Top shape: 64 64 100 1 (409600)
I0822 23:34:21.307862  2111 net.cpp:165] Memory required for data: 25703168
I0822 23:34:21.307868  2111 layer_factory.hpp:77] Creating layer trans_layer_conv2_trans_layer_conv2_0_split
I0822 23:34:21.307871  2111 net.cpp:106] Creating Layer trans_layer_conv2_trans_layer_conv2_0_split
I0822 23:34:21.307873  2111 net.cpp:454] trans_layer_conv2_trans_layer_conv2_0_split <- trans_layer_conv2
I0822 23:34:21.307878  2111 net.cpp:411] trans_layer_conv2_trans_layer_conv2_0_split -> trans_layer_conv2_trans_layer_conv2_0_split_0
I0822 23:34:21.307881  2111 net.cpp:411] trans_layer_conv2_trans_layer_conv2_0_split -> trans_layer_conv2_trans_layer_conv2_0_split_1
I0822 23:34:21.307902  2111 net.cpp:150] Setting up trans_layer_conv2_trans_layer_conv2_0_split
I0822 23:34:21.307906  2111 net.cpp:157] Top shape: 64 64 100 1 (409600)
I0822 23:34:21.307909  2111 net.cpp:157] Top shape: 64 64 100 1 (409600)
I0822 23:34:21.307911  2111 net.cpp:165] Memory required for data: 28979968
I0822 23:34:21.307914  2111 layer_factory.hpp:77] Creating layer trans_layer_bn2
I0822 23:34:21.307919  2111 net.cpp:106] Creating Layer trans_layer_bn2
I0822 23:34:21.307921  2111 net.cpp:454] trans_layer_bn2 <- trans_layer_conv2_trans_layer_conv2_0_split_0
I0822 23:34:21.307924  2111 net.cpp:411] trans_layer_bn2 -> trans_layer_bn2
I0822 23:34:21.308043  2111 net.cpp:150] Setting up trans_layer_bn2
I0822 23:34:21.308054  2111 net.cpp:157] Top shape: 64 64 100 1 (409600)
I0822 23:34:21.308058  2111 net.cpp:165] Memory required for data: 30618368
I0822 23:34:21.308063  2111 layer_factory.hpp:77] Creating layer trans_layer_relu2
I0822 23:34:21.308066  2111 net.cpp:106] Creating Layer trans_layer_relu2
I0822 23:34:21.308069  2111 net.cpp:454] trans_layer_relu2 <- trans_layer_bn2
I0822 23:34:21.308074  2111 net.cpp:397] trans_layer_relu2 -> trans_layer_bn2 (in-place)
I0822 23:34:21.308079  2111 net.cpp:150] Setting up trans_layer_relu2
I0822 23:34:21.308082  2111 net.cpp:157] Top shape: 64 64 100 1 (409600)
I0822 23:34:21.308084  2111 net.cpp:165] Memory required for data: 32256768
I0822 23:34:21.308087  2111 layer_factory.hpp:77] Creating layer dense_layer_conv0
I0822 23:34:21.308092  2111 net.cpp:106] Creating Layer dense_layer_conv0
I0822 23:34:21.308095  2111 net.cpp:454] dense_layer_conv0 <- trans_layer_bn2
I0822 23:34:21.308099  2111 net.cpp:411] dense_layer_conv0 -> dense_layer_conv0
I0822 23:34:21.309258  2111 net.cpp:150] Setting up dense_layer_conv0
I0822 23:34:21.309270  2111 net.cpp:157] Top shape: 64 64 100 1 (409600)
I0822 23:34:21.309273  2111 net.cpp:165] Memory required for data: 33895168
I0822 23:34:21.309281  2111 layer_factory.hpp:77] Creating layer dense_layer_concat0
I0822 23:34:21.309286  2111 net.cpp:106] Creating Layer dense_layer_concat0
I0822 23:34:21.309289  2111 net.cpp:454] dense_layer_concat0 <- dense_layer_conv0
I0822 23:34:21.309293  2111 net.cpp:454] dense_layer_concat0 <- trans_layer_conv0_trans_layer_conv0_0_split_1
I0822 23:34:21.309296  2111 net.cpp:454] dense_layer_concat0 <- trans_layer_conv1_trans_layer_conv1_0_split_1
I0822 23:34:21.309298  2111 net.cpp:454] dense_layer_concat0 <- trans_layer_conv2_trans_layer_conv2_0_split_1
I0822 23:34:21.309303  2111 net.cpp:411] dense_layer_concat0 -> dense_layer_concat0
I0822 23:34:21.309329  2111 net.cpp:150] Setting up dense_layer_concat0
I0822 23:34:21.309334  2111 net.cpp:157] Top shape: 64 256 100 1 (1638400)
I0822 23:34:21.309335  2111 net.cpp:165] Memory required for data: 40448768
I0822 23:34:21.309339  2111 layer_factory.hpp:77] Creating layer dense_layer_bn0
I0822 23:34:21.309345  2111 net.cpp:106] Creating Layer dense_layer_bn0
I0822 23:34:21.309346  2111 net.cpp:454] dense_layer_bn0 <- dense_layer_concat0
I0822 23:34:21.309350  2111 net.cpp:411] dense_layer_bn0 -> dense_layer_bn0
I0822 23:34:21.309468  2111 net.cpp:150] Setting up dense_layer_bn0
I0822 23:34:21.309471  2111 net.cpp:157] Top shape: 64 256 100 1 (1638400)
I0822 23:34:21.309473  2111 net.cpp:165] Memory required for data: 47002368
I0822 23:34:21.309479  2111 layer_factory.hpp:77] Creating layer dense_layer_relu0
I0822 23:34:21.309484  2111 net.cpp:106] Creating Layer dense_layer_relu0
I0822 23:34:21.309485  2111 net.cpp:454] dense_layer_relu0 <- dense_layer_bn0
I0822 23:34:21.309489  2111 net.cpp:397] dense_layer_relu0 -> dense_layer_bn0 (in-place)
I0822 23:34:21.309494  2111 net.cpp:150] Setting up dense_layer_relu0
I0822 23:34:21.309496  2111 net.cpp:157] Top shape: 64 256 100 1 (1638400)
I0822 23:34:21.309499  2111 net.cpp:165] Memory required for data: 53555968
I0822 23:34:21.309501  2111 layer_factory.hpp:77] Creating layer dense_layer_pool0
I0822 23:34:21.309506  2111 net.cpp:106] Creating Layer dense_layer_pool0
I0822 23:34:21.309509  2111 net.cpp:454] dense_layer_pool0 <- dense_layer_bn0
I0822 23:34:21.309511  2111 net.cpp:411] dense_layer_pool0 -> dense_layer_pool0
I0822 23:34:21.309535  2111 net.cpp:150] Setting up dense_layer_pool0
I0822 23:34:21.309540  2111 net.cpp:157] Top shape: 64 256 51 1 (835584)
I0822 23:34:21.309541  2111 net.cpp:165] Memory required for data: 56898304
I0822 23:34:21.309543  2111 layer_factory.hpp:77] Creating layer dense_layer_pool0_dense_layer_pool0_0_split
I0822 23:34:21.309547  2111 net.cpp:106] Creating Layer dense_layer_pool0_dense_layer_pool0_0_split
I0822 23:34:21.309551  2111 net.cpp:454] dense_layer_pool0_dense_layer_pool0_0_split <- dense_layer_pool0
I0822 23:34:21.309553  2111 net.cpp:411] dense_layer_pool0_dense_layer_pool0_0_split -> dense_layer_pool0_dense_layer_pool0_0_split_0
I0822 23:34:21.309557  2111 net.cpp:411] dense_layer_pool0_dense_layer_pool0_0_split -> dense_layer_pool0_dense_layer_pool0_0_split_1
I0822 23:34:21.309581  2111 net.cpp:150] Setting up dense_layer_pool0_dense_layer_pool0_0_split
I0822 23:34:21.309584  2111 net.cpp:157] Top shape: 64 256 51 1 (835584)
I0822 23:34:21.309588  2111 net.cpp:157] Top shape: 64 256 51 1 (835584)
I0822 23:34:21.309590  2111 net.cpp:165] Memory required for data: 63582976
I0822 23:34:21.309592  2111 layer_factory.hpp:77] Creating layer dense_layer_conv1
I0822 23:34:21.309599  2111 net.cpp:106] Creating Layer dense_layer_conv1
I0822 23:34:21.309602  2111 net.cpp:454] dense_layer_conv1 <- dense_layer_pool0_dense_layer_pool0_0_split_0
I0822 23:34:21.309605  2111 net.cpp:411] dense_layer_conv1 -> dense_layer_conv1
I0822 23:34:21.310940  2111 net.cpp:150] Setting up dense_layer_conv1
I0822 23:34:21.310947  2111 net.cpp:157] Top shape: 64 64 51 1 (208896)
I0822 23:34:21.310950  2111 net.cpp:165] Memory required for data: 64418560
I0822 23:34:21.310955  2111 layer_factory.hpp:77] Creating layer dense_layer_concat1
I0822 23:34:21.310958  2111 net.cpp:106] Creating Layer dense_layer_concat1
I0822 23:34:21.310961  2111 net.cpp:454] dense_layer_concat1 <- dense_layer_conv1
I0822 23:34:21.310963  2111 net.cpp:454] dense_layer_concat1 <- dense_layer_pool0_dense_layer_pool0_0_split_1
I0822 23:34:21.310967  2111 net.cpp:411] dense_layer_concat1 -> dense_layer_concat1
I0822 23:34:21.310981  2111 net.cpp:150] Setting up dense_layer_concat1
I0822 23:34:21.310986  2111 net.cpp:157] Top shape: 64 320 51 1 (1044480)
I0822 23:34:21.310987  2111 net.cpp:165] Memory required for data: 68596480
I0822 23:34:21.310991  2111 layer_factory.hpp:77] Creating layer dense_layer_bn1
I0822 23:34:21.310994  2111 net.cpp:106] Creating Layer dense_layer_bn1
I0822 23:34:21.310997  2111 net.cpp:454] dense_layer_bn1 <- dense_layer_concat1
I0822 23:34:21.311000  2111 net.cpp:411] dense_layer_bn1 -> dense_layer_bn1
I0822 23:34:21.311842  2111 net.cpp:150] Setting up dense_layer_bn1
I0822 23:34:21.311854  2111 net.cpp:157] Top shape: 64 320 51 1 (1044480)
I0822 23:34:21.311857  2111 net.cpp:165] Memory required for data: 72774400
I0822 23:34:21.311863  2111 layer_factory.hpp:77] Creating layer dense_layer_relu1
I0822 23:34:21.311868  2111 net.cpp:106] Creating Layer dense_layer_relu1
I0822 23:34:21.311872  2111 net.cpp:454] dense_layer_relu1 <- dense_layer_bn1
I0822 23:34:21.311875  2111 net.cpp:397] dense_layer_relu1 -> dense_layer_bn1 (in-place)
I0822 23:34:21.311880  2111 net.cpp:150] Setting up dense_layer_relu1
I0822 23:34:21.311887  2111 net.cpp:157] Top shape: 64 320 51 1 (1044480)
I0822 23:34:21.311888  2111 net.cpp:165] Memory required for data: 76952320
I0822 23:34:21.311890  2111 layer_factory.hpp:77] Creating layer dense_layer_pool1
I0822 23:34:21.311894  2111 net.cpp:106] Creating Layer dense_layer_pool1
I0822 23:34:21.311897  2111 net.cpp:454] dense_layer_pool1 <- dense_layer_bn1
I0822 23:34:21.311900  2111 net.cpp:411] dense_layer_pool1 -> dense_layer_pool1
I0822 23:34:21.311915  2111 net.cpp:150] Setting up dense_layer_pool1
I0822 23:34:21.311919  2111 net.cpp:157] Top shape: 64 320 26 1 (532480)
I0822 23:34:21.311921  2111 net.cpp:165] Memory required for data: 79082240
I0822 23:34:21.311924  2111 layer_factory.hpp:77] Creating layer dense_layer_pool1_dense_layer_pool1_0_split
I0822 23:34:21.311928  2111 net.cpp:106] Creating Layer dense_layer_pool1_dense_layer_pool1_0_split
I0822 23:34:21.311930  2111 net.cpp:454] dense_layer_pool1_dense_layer_pool1_0_split <- dense_layer_pool1
I0822 23:34:21.311933  2111 net.cpp:411] dense_layer_pool1_dense_layer_pool1_0_split -> dense_layer_pool1_dense_layer_pool1_0_split_0
I0822 23:34:21.311938  2111 net.cpp:411] dense_layer_pool1_dense_layer_pool1_0_split -> dense_layer_pool1_dense_layer_pool1_0_split_1
I0822 23:34:21.311957  2111 net.cpp:150] Setting up dense_layer_pool1_dense_layer_pool1_0_split
I0822 23:34:21.311961  2111 net.cpp:157] Top shape: 64 320 26 1 (532480)
I0822 23:34:21.311964  2111 net.cpp:157] Top shape: 64 320 26 1 (532480)
I0822 23:34:21.311966  2111 net.cpp:165] Memory required for data: 83342080
I0822 23:34:21.311969  2111 layer_factory.hpp:77] Creating layer dense_layer_conv2
I0822 23:34:21.311975  2111 net.cpp:106] Creating Layer dense_layer_conv2
I0822 23:34:21.311976  2111 net.cpp:454] dense_layer_conv2 <- dense_layer_pool1_dense_layer_pool1_0_split_0
I0822 23:34:21.311980  2111 net.cpp:411] dense_layer_conv2 -> dense_layer_conv2
I0822 23:34:21.313617  2111 net.cpp:150] Setting up dense_layer_conv2
I0822 23:34:21.313627  2111 net.cpp:157] Top shape: 64 64 26 1 (106496)
I0822 23:34:21.313628  2111 net.cpp:165] Memory required for data: 83768064
I0822 23:34:21.313634  2111 layer_factory.hpp:77] Creating layer dense_layer_concat2
I0822 23:34:21.313638  2111 net.cpp:106] Creating Layer dense_layer_concat2
I0822 23:34:21.313642  2111 net.cpp:454] dense_layer_concat2 <- dense_layer_conv2
I0822 23:34:21.313644  2111 net.cpp:454] dense_layer_concat2 <- dense_layer_pool1_dense_layer_pool1_0_split_1
I0822 23:34:21.313648  2111 net.cpp:411] dense_layer_concat2 -> dense_layer_concat2
I0822 23:34:21.313663  2111 net.cpp:150] Setting up dense_layer_concat2
I0822 23:34:21.313668  2111 net.cpp:157] Top shape: 64 384 26 1 (638976)
I0822 23:34:21.313670  2111 net.cpp:165] Memory required for data: 86323968
I0822 23:34:21.313673  2111 layer_factory.hpp:77] Creating layer dense_layer_bn2
I0822 23:34:21.313676  2111 net.cpp:106] Creating Layer dense_layer_bn2
I0822 23:34:21.313678  2111 net.cpp:454] dense_layer_bn2 <- dense_layer_concat2
I0822 23:34:21.313683  2111 net.cpp:411] dense_layer_bn2 -> dense_layer_bn2
I0822 23:34:21.313804  2111 net.cpp:150] Setting up dense_layer_bn2
I0822 23:34:21.313819  2111 net.cpp:157] Top shape: 64 384 26 1 (638976)
I0822 23:34:21.313822  2111 net.cpp:165] Memory required for data: 88879872
I0822 23:34:21.313827  2111 layer_factory.hpp:77] Creating layer dense_layer_relu2
I0822 23:34:21.313832  2111 net.cpp:106] Creating Layer dense_layer_relu2
I0822 23:34:21.313834  2111 net.cpp:454] dense_layer_relu2 <- dense_layer_bn2
I0822 23:34:21.313838  2111 net.cpp:397] dense_layer_relu2 -> dense_layer_bn2 (in-place)
I0822 23:34:21.313841  2111 net.cpp:150] Setting up dense_layer_relu2
I0822 23:34:21.313844  2111 net.cpp:157] Top shape: 64 384 26 1 (638976)
I0822 23:34:21.313848  2111 net.cpp:165] Memory required for data: 91435776
I0822 23:34:21.313849  2111 layer_factory.hpp:77] Creating layer dense_layer_pool2
I0822 23:34:21.313853  2111 net.cpp:106] Creating Layer dense_layer_pool2
I0822 23:34:21.313856  2111 net.cpp:454] dense_layer_pool2 <- dense_layer_bn2
I0822 23:34:21.313859  2111 net.cpp:411] dense_layer_pool2 -> dense_layer_pool2
I0822 23:34:21.313876  2111 net.cpp:150] Setting up dense_layer_pool2
I0822 23:34:21.313880  2111 net.cpp:157] Top shape: 64 384 14 1 (344064)
I0822 23:34:21.313884  2111 net.cpp:165] Memory required for data: 92812032
I0822 23:34:21.313885  2111 layer_factory.hpp:77] Creating layer dense_layer_pool2_dense_layer_pool2_0_split
I0822 23:34:21.313889  2111 net.cpp:106] Creating Layer dense_layer_pool2_dense_layer_pool2_0_split
I0822 23:34:21.313891  2111 net.cpp:454] dense_layer_pool2_dense_layer_pool2_0_split <- dense_layer_pool2
I0822 23:34:21.313895  2111 net.cpp:411] dense_layer_pool2_dense_layer_pool2_0_split -> dense_layer_pool2_dense_layer_pool2_0_split_0
I0822 23:34:21.313901  2111 net.cpp:411] dense_layer_pool2_dense_layer_pool2_0_split -> dense_layer_pool2_dense_layer_pool2_0_split_1
I0822 23:34:21.313921  2111 net.cpp:150] Setting up dense_layer_pool2_dense_layer_pool2_0_split
I0822 23:34:21.313925  2111 net.cpp:157] Top shape: 64 384 14 1 (344064)
I0822 23:34:21.313928  2111 net.cpp:157] Top shape: 64 384 14 1 (344064)
I0822 23:34:21.313930  2111 net.cpp:165] Memory required for data: 95564544
I0822 23:34:21.313932  2111 layer_factory.hpp:77] Creating layer dense_layer_conv3
I0822 23:34:21.313941  2111 net.cpp:106] Creating Layer dense_layer_conv3
I0822 23:34:21.313942  2111 net.cpp:454] dense_layer_conv3 <- dense_layer_pool2_dense_layer_pool2_0_split_0
I0822 23:34:21.313946  2111 net.cpp:411] dense_layer_conv3 -> dense_layer_conv3
I0822 23:34:21.316542  2111 net.cpp:150] Setting up dense_layer_conv3
I0822 23:34:21.316555  2111 net.cpp:157] Top shape: 64 64 14 1 (57344)
I0822 23:34:21.316557  2111 net.cpp:165] Memory required for data: 95793920
I0822 23:34:21.316562  2111 layer_factory.hpp:77] Creating layer dense_layer_concat3
I0822 23:34:21.316567  2111 net.cpp:106] Creating Layer dense_layer_concat3
I0822 23:34:21.316570  2111 net.cpp:454] dense_layer_concat3 <- dense_layer_conv3
I0822 23:34:21.316573  2111 net.cpp:454] dense_layer_concat3 <- dense_layer_pool2_dense_layer_pool2_0_split_1
I0822 23:34:21.316577  2111 net.cpp:411] dense_layer_concat3 -> dense_layer_concat3
I0822 23:34:21.316594  2111 net.cpp:150] Setting up dense_layer_concat3
I0822 23:34:21.316598  2111 net.cpp:157] Top shape: 64 448 14 1 (401408)
I0822 23:34:21.316601  2111 net.cpp:165] Memory required for data: 97399552
I0822 23:34:21.316603  2111 layer_factory.hpp:77] Creating layer dense_layer_bn3
I0822 23:34:21.316607  2111 net.cpp:106] Creating Layer dense_layer_bn3
I0822 23:34:21.316610  2111 net.cpp:454] dense_layer_bn3 <- dense_layer_concat3
I0822 23:34:21.316613  2111 net.cpp:411] dense_layer_bn3 -> dense_layer_bn3
I0822 23:34:21.316759  2111 net.cpp:150] Setting up dense_layer_bn3
I0822 23:34:21.316766  2111 net.cpp:157] Top shape: 64 448 14 1 (401408)
I0822 23:34:21.316767  2111 net.cpp:165] Memory required for data: 99005184
I0822 23:34:21.316777  2111 layer_factory.hpp:77] Creating layer dense_layer_relu3
I0822 23:34:21.316781  2111 net.cpp:106] Creating Layer dense_layer_relu3
I0822 23:34:21.316783  2111 net.cpp:454] dense_layer_relu3 <- dense_layer_bn3
I0822 23:34:21.316787  2111 net.cpp:397] dense_layer_relu3 -> dense_layer_bn3 (in-place)
I0822 23:34:21.316792  2111 net.cpp:150] Setting up dense_layer_relu3
I0822 23:34:21.316794  2111 net.cpp:157] Top shape: 64 448 14 1 (401408)
I0822 23:34:21.316797  2111 net.cpp:165] Memory required for data: 100610816
I0822 23:34:21.316798  2111 layer_factory.hpp:77] Creating layer dense_layer_pool3
I0822 23:34:21.316803  2111 net.cpp:106] Creating Layer dense_layer_pool3
I0822 23:34:21.316805  2111 net.cpp:454] dense_layer_pool3 <- dense_layer_bn3
I0822 23:34:21.316808  2111 net.cpp:411] dense_layer_pool3 -> dense_layer_pool3
I0822 23:34:21.317392  2111 net.cpp:150] Setting up dense_layer_pool3
I0822 23:34:21.317400  2111 net.cpp:157] Top shape: 64 448 8 1 (229376)
I0822 23:34:21.317402  2111 net.cpp:165] Memory required for data: 101528320
I0822 23:34:21.317405  2111 layer_factory.hpp:77] Creating layer dense_layer_pool3_dense_layer_pool3_0_split
I0822 23:34:21.317409  2111 net.cpp:106] Creating Layer dense_layer_pool3_dense_layer_pool3_0_split
I0822 23:34:21.317411  2111 net.cpp:454] dense_layer_pool3_dense_layer_pool3_0_split <- dense_layer_pool3
I0822 23:34:21.317415  2111 net.cpp:411] dense_layer_pool3_dense_layer_pool3_0_split -> dense_layer_pool3_dense_layer_pool3_0_split_0
I0822 23:34:21.317420  2111 net.cpp:411] dense_layer_pool3_dense_layer_pool3_0_split -> dense_layer_pool3_dense_layer_pool3_0_split_1
I0822 23:34:21.317441  2111 net.cpp:150] Setting up dense_layer_pool3_dense_layer_pool3_0_split
I0822 23:34:21.317445  2111 net.cpp:157] Top shape: 64 448 8 1 (229376)
I0822 23:34:21.317448  2111 net.cpp:157] Top shape: 64 448 8 1 (229376)
I0822 23:34:21.317451  2111 net.cpp:165] Memory required for data: 103363328
I0822 23:34:21.317452  2111 layer_factory.hpp:77] Creating layer dense_layer_conv4
I0822 23:34:21.317458  2111 net.cpp:106] Creating Layer dense_layer_conv4
I0822 23:34:21.317461  2111 net.cpp:454] dense_layer_conv4 <- dense_layer_pool3_dense_layer_pool3_0_split_0
I0822 23:34:21.317466  2111 net.cpp:411] dense_layer_conv4 -> dense_layer_conv4
I0822 23:34:21.319692  2111 net.cpp:150] Setting up dense_layer_conv4
I0822 23:34:21.319700  2111 net.cpp:157] Top shape: 64 64 8 1 (32768)
I0822 23:34:21.319703  2111 net.cpp:165] Memory required for data: 103494400
I0822 23:34:21.319708  2111 layer_factory.hpp:77] Creating layer dense_layer_concat4
I0822 23:34:21.319712  2111 net.cpp:106] Creating Layer dense_layer_concat4
I0822 23:34:21.319715  2111 net.cpp:454] dense_layer_concat4 <- dense_layer_conv4
I0822 23:34:21.319718  2111 net.cpp:454] dense_layer_concat4 <- dense_layer_pool3_dense_layer_pool3_0_split_1
I0822 23:34:21.319722  2111 net.cpp:411] dense_layer_concat4 -> dense_layer_concat4
I0822 23:34:21.319737  2111 net.cpp:150] Setting up dense_layer_concat4
I0822 23:34:21.319741  2111 net.cpp:157] Top shape: 64 512 8 1 (262144)
I0822 23:34:21.319743  2111 net.cpp:165] Memory required for data: 104542976
I0822 23:34:21.319746  2111 layer_factory.hpp:77] Creating layer dense_layer_bn4
I0822 23:34:21.319751  2111 net.cpp:106] Creating Layer dense_layer_bn4
I0822 23:34:21.319753  2111 net.cpp:454] dense_layer_bn4 <- dense_layer_concat4
I0822 23:34:21.319756  2111 net.cpp:411] dense_layer_bn4 -> dense_layer_bn4
I0822 23:34:21.319880  2111 net.cpp:150] Setting up dense_layer_bn4
I0822 23:34:21.319885  2111 net.cpp:157] Top shape: 64 512 8 1 (262144)
I0822 23:34:21.319888  2111 net.cpp:165] Memory required for data: 105591552
I0822 23:34:21.319893  2111 layer_factory.hpp:77] Creating layer dense_layer_relu4
I0822 23:34:21.319897  2111 net.cpp:106] Creating Layer dense_layer_relu4
I0822 23:34:21.319900  2111 net.cpp:454] dense_layer_relu4 <- dense_layer_bn4
I0822 23:34:21.319903  2111 net.cpp:397] dense_layer_relu4 -> dense_layer_bn4 (in-place)
I0822 23:34:21.319907  2111 net.cpp:150] Setting up dense_layer_relu4
I0822 23:34:21.319911  2111 net.cpp:157] Top shape: 64 512 8 1 (262144)
I0822 23:34:21.319912  2111 net.cpp:165] Memory required for data: 106640128
I0822 23:34:21.319914  2111 layer_factory.hpp:77] Creating layer attention_layer_conv0
I0822 23:34:21.319922  2111 net.cpp:106] Creating Layer attention_layer_conv0
I0822 23:34:21.319926  2111 net.cpp:454] attention_layer_conv0 <- dense_layer_bn4
I0822 23:34:21.319928  2111 net.cpp:411] attention_layer_conv0 -> attention_layer_conv0
I0822 23:34:21.320864  2111 net.cpp:150] Setting up attention_layer_conv0
I0822 23:34:21.320870  2111 net.cpp:157] Top shape: 64 512 8 1 (262144)
I0822 23:34:21.320873  2111 net.cpp:165] Memory required for data: 107688704
I0822 23:34:21.320878  2111 layer_factory.hpp:77] Creating layer attention_layer_bn0
I0822 23:34:21.320883  2111 net.cpp:106] Creating Layer attention_layer_bn0
I0822 23:34:21.320884  2111 net.cpp:454] attention_layer_bn0 <- attention_layer_conv0
I0822 23:34:21.320888  2111 net.cpp:411] attention_layer_bn0 -> attention_layer_bn0
I0822 23:34:21.321009  2111 net.cpp:150] Setting up attention_layer_bn0
I0822 23:34:21.321015  2111 net.cpp:157] Top shape: 64 512 8 1 (262144)
I0822 23:34:21.321017  2111 net.cpp:165] Memory required for data: 108737280
I0822 23:34:21.321022  2111 layer_factory.hpp:77] Creating layer attention_layer_relu0
I0822 23:34:21.321027  2111 net.cpp:106] Creating Layer attention_layer_relu0
I0822 23:34:21.321029  2111 net.cpp:454] attention_layer_relu0 <- attention_layer_bn0
I0822 23:34:21.321034  2111 net.cpp:397] attention_layer_relu0 -> attention_layer_bn0 (in-place)
I0822 23:34:21.321038  2111 net.cpp:150] Setting up attention_layer_relu0
I0822 23:34:21.321043  2111 net.cpp:157] Top shape: 64 512 8 1 (262144)
I0822 23:34:21.321044  2111 net.cpp:165] Memory required for data: 109785856
I0822 23:34:21.321046  2111 layer_factory.hpp:77] Creating layer attention_layer_conv1
I0822 23:34:21.321051  2111 net.cpp:106] Creating Layer attention_layer_conv1
I0822 23:34:21.321054  2111 net.cpp:454] attention_layer_conv1 <- attention_layer_bn0
I0822 23:34:21.321058  2111 net.cpp:411] attention_layer_conv1 -> attention_layer_conv1
I0822 23:34:21.321997  2111 net.cpp:150] Setting up attention_layer_conv1
I0822 23:34:21.322005  2111 net.cpp:157] Top shape: 64 512 8 1 (262144)
I0822 23:34:21.322007  2111 net.cpp:165] Memory required for data: 110834432
I0822 23:34:21.322012  2111 layer_factory.hpp:77] Creating layer attention_layer_bn1
I0822 23:34:21.322016  2111 net.cpp:106] Creating Layer attention_layer_bn1
I0822 23:34:21.322019  2111 net.cpp:454] attention_layer_bn1 <- attention_layer_conv1
I0822 23:34:21.322026  2111 net.cpp:411] attention_layer_bn1 -> attention_layer_bn1
I0822 23:34:21.322147  2111 net.cpp:150] Setting up attention_layer_bn1
I0822 23:34:21.322154  2111 net.cpp:157] Top shape: 64 512 8 1 (262144)
I0822 23:34:21.322156  2111 net.cpp:165] Memory required for data: 111883008
I0822 23:34:21.322161  2111 layer_factory.hpp:77] Creating layer attention_layer_relu1
I0822 23:34:21.322165  2111 net.cpp:106] Creating Layer attention_layer_relu1
I0822 23:34:21.322167  2111 net.cpp:454] attention_layer_relu1 <- attention_layer_bn1
I0822 23:34:21.322171  2111 net.cpp:397] attention_layer_relu1 -> attention_layer_bn1 (in-place)
I0822 23:34:21.322175  2111 net.cpp:150] Setting up attention_layer_relu1
I0822 23:34:21.322178  2111 net.cpp:157] Top shape: 64 512 8 1 (262144)
I0822 23:34:21.322180  2111 net.cpp:165] Memory required for data: 112931584
I0822 23:34:21.322182  2111 layer_factory.hpp:77] Creating layer attention_scale_slice
I0822 23:34:21.322191  2111 net.cpp:106] Creating Layer attention_scale_slice
I0822 23:34:21.322194  2111 net.cpp:454] attention_scale_slice <- attention_layer_bn1
I0822 23:34:21.322197  2111 net.cpp:411] attention_scale_slice -> attention_scale0
I0822 23:34:21.322203  2111 net.cpp:411] attention_scale_slice -> attention_scale1
I0822 23:34:21.322208  2111 net.cpp:411] attention_scale_slice -> attention_scale2
I0822 23:34:21.322212  2111 net.cpp:411] attention_scale_slice -> attention_scale3
I0822 23:34:21.322216  2111 net.cpp:411] attention_scale_slice -> attention_scale4
I0822 23:34:21.322221  2111 net.cpp:411] attention_scale_slice -> attention_scale5
I0822 23:34:21.322223  2111 net.cpp:411] attention_scale_slice -> attention_scale6
I0822 23:34:21.322227  2111 net.cpp:411] attention_scale_slice -> attention_scale7
I0822 23:34:21.322294  2111 net.cpp:150] Setting up attention_scale_slice
I0822 23:34:21.322299  2111 net.cpp:157] Top shape: 64 64 8 1 (32768)
I0822 23:34:21.322301  2111 net.cpp:157] Top shape: 64 64 8 1 (32768)
I0822 23:34:21.322304  2111 net.cpp:157] Top shape: 64 64 8 1 (32768)
I0822 23:34:21.322306  2111 net.cpp:157] Top shape: 64 64 8 1 (32768)
I0822 23:34:21.322309  2111 net.cpp:157] Top shape: 64 64 8 1 (32768)
I0822 23:34:21.322312  2111 net.cpp:157] Top shape: 64 64 8 1 (32768)
I0822 23:34:21.322314  2111 net.cpp:157] Top shape: 64 64 8 1 (32768)
I0822 23:34:21.322317  2111 net.cpp:157] Top shape: 64 64 8 1 (32768)
I0822 23:34:21.322319  2111 net.cpp:165] Memory required for data: 113980160
I0822 23:34:21.322321  2111 layer_factory.hpp:77] Creating layer attention_scale0_attention_scale_slice_0_split
I0822 23:34:21.322325  2111 net.cpp:106] Creating Layer attention_scale0_attention_scale_slice_0_split
I0822 23:34:21.322327  2111 net.cpp:454] attention_scale0_attention_scale_slice_0_split <- attention_scale0
I0822 23:34:21.322331  2111 net.cpp:411] attention_scale0_attention_scale_slice_0_split -> attention_scale0_attention_scale_slice_0_split_0
I0822 23:34:21.322335  2111 net.cpp:411] attention_scale0_attention_scale_slice_0_split -> attention_scale0_attention_scale_slice_0_split_1
I0822 23:34:21.322355  2111 net.cpp:150] Setting up attention_scale0_attention_scale_slice_0_split
I0822 23:34:21.322360  2111 net.cpp:157] Top shape: 64 64 8 1 (32768)
I0822 23:34:21.322362  2111 net.cpp:157] Top shape: 64 64 8 1 (32768)
I0822 23:34:21.322365  2111 net.cpp:165] Memory required for data: 114242304
I0822 23:34:21.322366  2111 layer_factory.hpp:77] Creating layer attention_scale1_attention_scale_slice_1_split
I0822 23:34:21.322371  2111 net.cpp:106] Creating Layer attention_scale1_attention_scale_slice_1_split
I0822 23:34:21.322372  2111 net.cpp:454] attention_scale1_attention_scale_slice_1_split <- attention_scale1
I0822 23:34:21.322376  2111 net.cpp:411] attention_scale1_attention_scale_slice_1_split -> attention_scale1_attention_scale_slice_1_split_0
I0822 23:34:21.322382  2111 net.cpp:411] attention_scale1_attention_scale_slice_1_split -> attention_scale1_attention_scale_slice_1_split_1
I0822 23:34:21.322401  2111 net.cpp:150] Setting up attention_scale1_attention_scale_slice_1_split
I0822 23:34:21.322404  2111 net.cpp:157] Top shape: 64 64 8 1 (32768)
I0822 23:34:21.322407  2111 net.cpp:157] Top shape: 64 64 8 1 (32768)
I0822 23:34:21.322409  2111 net.cpp:165] Memory required for data: 114504448
I0822 23:34:21.322412  2111 layer_factory.hpp:77] Creating layer attention_scale2_attention_scale_slice_2_split
I0822 23:34:21.322414  2111 net.cpp:106] Creating Layer attention_scale2_attention_scale_slice_2_split
I0822 23:34:21.322417  2111 net.cpp:454] attention_scale2_attention_scale_slice_2_split <- attention_scale2
I0822 23:34:21.322420  2111 net.cpp:411] attention_scale2_attention_scale_slice_2_split -> attention_scale2_attention_scale_slice_2_split_0
I0822 23:34:21.322424  2111 net.cpp:411] attention_scale2_attention_scale_slice_2_split -> attention_scale2_attention_scale_slice_2_split_1
I0822 23:34:21.322443  2111 net.cpp:150] Setting up attention_scale2_attention_scale_slice_2_split
I0822 23:34:21.322446  2111 net.cpp:157] Top shape: 64 64 8 1 (32768)
I0822 23:34:21.322448  2111 net.cpp:157] Top shape: 64 64 8 1 (32768)
I0822 23:34:21.322450  2111 net.cpp:165] Memory required for data: 114766592
I0822 23:34:21.322453  2111 layer_factory.hpp:77] Creating layer attention_scale3_attention_scale_slice_3_split
I0822 23:34:21.322456  2111 net.cpp:106] Creating Layer attention_scale3_attention_scale_slice_3_split
I0822 23:34:21.322458  2111 net.cpp:454] attention_scale3_attention_scale_slice_3_split <- attention_scale3
I0822 23:34:21.322461  2111 net.cpp:411] attention_scale3_attention_scale_slice_3_split -> attention_scale3_attention_scale_slice_3_split_0
I0822 23:34:21.322465  2111 net.cpp:411] attention_scale3_attention_scale_slice_3_split -> attention_scale3_attention_scale_slice_3_split_1
I0822 23:34:21.322484  2111 net.cpp:150] Setting up attention_scale3_attention_scale_slice_3_split
I0822 23:34:21.322489  2111 net.cpp:157] Top shape: 64 64 8 1 (32768)
I0822 23:34:21.322490  2111 net.cpp:157] Top shape: 64 64 8 1 (32768)
I0822 23:34:21.322492  2111 net.cpp:165] Memory required for data: 115028736
I0822 23:34:21.322494  2111 layer_factory.hpp:77] Creating layer attention_scale4_attention_scale_slice_4_split
I0822 23:34:21.322497  2111 net.cpp:106] Creating Layer attention_scale4_attention_scale_slice_4_split
I0822 23:34:21.322500  2111 net.cpp:454] attention_scale4_attention_scale_slice_4_split <- attention_scale4
I0822 23:34:21.322505  2111 net.cpp:411] attention_scale4_attention_scale_slice_4_split -> attention_scale4_attention_scale_slice_4_split_0
I0822 23:34:21.322510  2111 net.cpp:411] attention_scale4_attention_scale_slice_4_split -> attention_scale4_attention_scale_slice_4_split_1
I0822 23:34:21.322532  2111 net.cpp:150] Setting up attention_scale4_attention_scale_slice_4_split
I0822 23:34:21.322536  2111 net.cpp:157] Top shape: 64 64 8 1 (32768)
I0822 23:34:21.322540  2111 net.cpp:157] Top shape: 64 64 8 1 (32768)
I0822 23:34:21.322541  2111 net.cpp:165] Memory required for data: 115290880
I0822 23:34:21.322543  2111 layer_factory.hpp:77] Creating layer attention_scale5_attention_scale_slice_5_split
I0822 23:34:21.322547  2111 net.cpp:106] Creating Layer attention_scale5_attention_scale_slice_5_split
I0822 23:34:21.322549  2111 net.cpp:454] attention_scale5_attention_scale_slice_5_split <- attention_scale5
I0822 23:34:21.322552  2111 net.cpp:411] attention_scale5_attention_scale_slice_5_split -> attention_scale5_attention_scale_slice_5_split_0
I0822 23:34:21.322556  2111 net.cpp:411] attention_scale5_attention_scale_slice_5_split -> attention_scale5_attention_scale_slice_5_split_1
I0822 23:34:21.322574  2111 net.cpp:150] Setting up attention_scale5_attention_scale_slice_5_split
I0822 23:34:21.322577  2111 net.cpp:157] Top shape: 64 64 8 1 (32768)
I0822 23:34:21.322580  2111 net.cpp:157] Top shape: 64 64 8 1 (32768)
I0822 23:34:21.322582  2111 net.cpp:165] Memory required for data: 115553024
I0822 23:34:21.322584  2111 layer_factory.hpp:77] Creating layer attention_scale6_attention_scale_slice_6_split
I0822 23:34:21.322587  2111 net.cpp:106] Creating Layer attention_scale6_attention_scale_slice_6_split
I0822 23:34:21.322589  2111 net.cpp:454] attention_scale6_attention_scale_slice_6_split <- attention_scale6
I0822 23:34:21.322593  2111 net.cpp:411] attention_scale6_attention_scale_slice_6_split -> attention_scale6_attention_scale_slice_6_split_0
I0822 23:34:21.322597  2111 net.cpp:411] attention_scale6_attention_scale_slice_6_split -> attention_scale6_attention_scale_slice_6_split_1
I0822 23:34:21.322615  2111 net.cpp:150] Setting up attention_scale6_attention_scale_slice_6_split
I0822 23:34:21.322618  2111 net.cpp:157] Top shape: 64 64 8 1 (32768)
I0822 23:34:21.322621  2111 net.cpp:157] Top shape: 64 64 8 1 (32768)
I0822 23:34:21.322623  2111 net.cpp:165] Memory required for data: 115815168
I0822 23:34:21.322628  2111 layer_factory.hpp:77] Creating layer attention_scale7_attention_scale_slice_7_split
I0822 23:34:21.322631  2111 net.cpp:106] Creating Layer attention_scale7_attention_scale_slice_7_split
I0822 23:34:21.322633  2111 net.cpp:454] attention_scale7_attention_scale_slice_7_split <- attention_scale7
I0822 23:34:21.322636  2111 net.cpp:411] attention_scale7_attention_scale_slice_7_split -> attention_scale7_attention_scale_slice_7_split_0
I0822 23:34:21.322640  2111 net.cpp:411] attention_scale7_attention_scale_slice_7_split -> attention_scale7_attention_scale_slice_7_split_1
I0822 23:34:21.322659  2111 net.cpp:150] Setting up attention_scale7_attention_scale_slice_7_split
I0822 23:34:21.322662  2111 net.cpp:157] Top shape: 64 64 8 1 (32768)
I0822 23:34:21.322665  2111 net.cpp:157] Top shape: 64 64 8 1 (32768)
I0822 23:34:21.322667  2111 net.cpp:165] Memory required for data: 116077312
I0822 23:34:21.322669  2111 layer_factory.hpp:77] Creating layer attention_permute0
I0822 23:34:21.322674  2111 net.cpp:106] Creating Layer attention_permute0
I0822 23:34:21.322676  2111 net.cpp:454] attention_permute0 <- attention_scale0_attention_scale_slice_0_split_0
I0822 23:34:21.322680  2111 net.cpp:411] attention_permute0 -> attention_permute0
I0822 23:34:21.322739  2111 net.cpp:150] Setting up attention_permute0
I0822 23:34:21.322743  2111 net.cpp:157] Top shape: 64 1 8 64 (32768)
I0822 23:34:21.322746  2111 net.cpp:165] Memory required for data: 116208384
I0822 23:34:21.322747  2111 layer_factory.hpp:77] Creating layer attention_reduction0
I0822 23:34:21.322755  2111 net.cpp:106] Creating Layer attention_reduction0
I0822 23:34:21.322757  2111 net.cpp:454] attention_reduction0 <- attention_permute0
I0822 23:34:21.322762  2111 net.cpp:411] attention_reduction0 -> attention_reduction0
I0822 23:34:21.322793  2111 net.cpp:150] Setting up attention_reduction0
I0822 23:34:21.322798  2111 net.cpp:157] Top shape: 64 1 8 (512)
I0822 23:34:21.322800  2111 net.cpp:165] Memory required for data: 116210432
I0822 23:34:21.322803  2111 layer_factory.hpp:77] Creating layer attention_permute1
I0822 23:34:21.322806  2111 net.cpp:106] Creating Layer attention_permute1
I0822 23:34:21.322808  2111 net.cpp:454] attention_permute1 <- attention_scale1_attention_scale_slice_1_split_0
I0822 23:34:21.322811  2111 net.cpp:411] attention_permute1 -> attention_permute1
I0822 23:34:21.322866  2111 net.cpp:150] Setting up attention_permute1
I0822 23:34:21.322872  2111 net.cpp:157] Top shape: 64 1 8 64 (32768)
I0822 23:34:21.322875  2111 net.cpp:165] Memory required for data: 116341504
I0822 23:34:21.322877  2111 layer_factory.hpp:77] Creating layer attention_reduction1
I0822 23:34:21.322881  2111 net.cpp:106] Creating Layer attention_reduction1
I0822 23:34:21.322883  2111 net.cpp:454] attention_reduction1 <- attention_permute1
I0822 23:34:21.322887  2111 net.cpp:411] attention_reduction1 -> attention_reduction1
I0822 23:34:21.322917  2111 net.cpp:150] Setting up attention_reduction1
I0822 23:34:21.322921  2111 net.cpp:157] Top shape: 64 1 8 (512)
I0822 23:34:21.322922  2111 net.cpp:165] Memory required for data: 116343552
I0822 23:34:21.322926  2111 layer_factory.hpp:77] Creating layer attention_permute2
I0822 23:34:21.322928  2111 net.cpp:106] Creating Layer attention_permute2
I0822 23:34:21.322932  2111 net.cpp:454] attention_permute2 <- attention_scale2_attention_scale_slice_2_split_0
I0822 23:34:21.322934  2111 net.cpp:411] attention_permute2 -> attention_permute2
I0822 23:34:21.322988  2111 net.cpp:150] Setting up attention_permute2
I0822 23:34:21.322993  2111 net.cpp:157] Top shape: 64 1 8 64 (32768)
I0822 23:34:21.322996  2111 net.cpp:165] Memory required for data: 116474624
I0822 23:34:21.322999  2111 layer_factory.hpp:77] Creating layer attention_reduction2
I0822 23:34:21.323002  2111 net.cpp:106] Creating Layer attention_reduction2
I0822 23:34:21.323004  2111 net.cpp:454] attention_reduction2 <- attention_permute2
I0822 23:34:21.323007  2111 net.cpp:411] attention_reduction2 -> attention_reduction2
I0822 23:34:21.323035  2111 net.cpp:150] Setting up attention_reduction2
I0822 23:34:21.323040  2111 net.cpp:157] Top shape: 64 1 8 (512)
I0822 23:34:21.323041  2111 net.cpp:165] Memory required for data: 116476672
I0822 23:34:21.323043  2111 layer_factory.hpp:77] Creating layer attention_permute3
I0822 23:34:21.323047  2111 net.cpp:106] Creating Layer attention_permute3
I0822 23:34:21.323050  2111 net.cpp:454] attention_permute3 <- attention_scale3_attention_scale_slice_3_split_0
I0822 23:34:21.323053  2111 net.cpp:411] attention_permute3 -> attention_permute3
I0822 23:34:21.323107  2111 net.cpp:150] Setting up attention_permute3
I0822 23:34:21.323110  2111 net.cpp:157] Top shape: 64 1 8 64 (32768)
I0822 23:34:21.323112  2111 net.cpp:165] Memory required for data: 116607744
I0822 23:34:21.323114  2111 layer_factory.hpp:77] Creating layer attention_reduction3
I0822 23:34:21.323124  2111 net.cpp:106] Creating Layer attention_reduction3
I0822 23:34:21.323127  2111 net.cpp:454] attention_reduction3 <- attention_permute3
I0822 23:34:21.323132  2111 net.cpp:411] attention_reduction3 -> attention_reduction3
I0822 23:34:21.323160  2111 net.cpp:150] Setting up attention_reduction3
I0822 23:34:21.323164  2111 net.cpp:157] Top shape: 64 1 8 (512)
I0822 23:34:21.323166  2111 net.cpp:165] Memory required for data: 116609792
I0822 23:34:21.323168  2111 layer_factory.hpp:77] Creating layer attention_permute4
I0822 23:34:21.323173  2111 net.cpp:106] Creating Layer attention_permute4
I0822 23:34:21.323174  2111 net.cpp:454] attention_permute4 <- attention_scale4_attention_scale_slice_4_split_0
I0822 23:34:21.323179  2111 net.cpp:411] attention_permute4 -> attention_permute4
I0822 23:34:21.323230  2111 net.cpp:150] Setting up attention_permute4
I0822 23:34:21.323235  2111 net.cpp:157] Top shape: 64 1 8 64 (32768)
I0822 23:34:21.323236  2111 net.cpp:165] Memory required for data: 116740864
I0822 23:34:21.323240  2111 layer_factory.hpp:77] Creating layer attention_reduction4
I0822 23:34:21.323242  2111 net.cpp:106] Creating Layer attention_reduction4
I0822 23:34:21.323247  2111 net.cpp:454] attention_reduction4 <- attention_permute4
I0822 23:34:21.323251  2111 net.cpp:411] attention_reduction4 -> attention_reduction4
I0822 23:34:21.323279  2111 net.cpp:150] Setting up attention_reduction4
I0822 23:34:21.323283  2111 net.cpp:157] Top shape: 64 1 8 (512)
I0822 23:34:21.323285  2111 net.cpp:165] Memory required for data: 116742912
I0822 23:34:21.323287  2111 layer_factory.hpp:77] Creating layer attention_permute5
I0822 23:34:21.323292  2111 net.cpp:106] Creating Layer attention_permute5
I0822 23:34:21.323293  2111 net.cpp:454] attention_permute5 <- attention_scale5_attention_scale_slice_5_split_0
I0822 23:34:21.323297  2111 net.cpp:411] attention_permute5 -> attention_permute5
I0822 23:34:21.323350  2111 net.cpp:150] Setting up attention_permute5
I0822 23:34:21.323354  2111 net.cpp:157] Top shape: 64 1 8 64 (32768)
I0822 23:34:21.323356  2111 net.cpp:165] Memory required for data: 116873984
I0822 23:34:21.323359  2111 layer_factory.hpp:77] Creating layer attention_reduction5
I0822 23:34:21.323362  2111 net.cpp:106] Creating Layer attention_reduction5
I0822 23:34:21.323364  2111 net.cpp:454] attention_reduction5 <- attention_permute5
I0822 23:34:21.323369  2111 net.cpp:411] attention_reduction5 -> attention_reduction5
I0822 23:34:21.323398  2111 net.cpp:150] Setting up attention_reduction5
I0822 23:34:21.323402  2111 net.cpp:157] Top shape: 64 1 8 (512)
I0822 23:34:21.323405  2111 net.cpp:165] Memory required for data: 116876032
I0822 23:34:21.323407  2111 layer_factory.hpp:77] Creating layer attention_permute6
I0822 23:34:21.323410  2111 net.cpp:106] Creating Layer attention_permute6
I0822 23:34:21.323413  2111 net.cpp:454] attention_permute6 <- attention_scale6_attention_scale_slice_6_split_0
I0822 23:34:21.323416  2111 net.cpp:411] attention_permute6 -> attention_permute6
I0822 23:34:21.323469  2111 net.cpp:150] Setting up attention_permute6
I0822 23:34:21.323473  2111 net.cpp:157] Top shape: 64 1 8 64 (32768)
I0822 23:34:21.323475  2111 net.cpp:165] Memory required for data: 117007104
I0822 23:34:21.323477  2111 layer_factory.hpp:77] Creating layer attention_reduction6
I0822 23:34:21.323482  2111 net.cpp:106] Creating Layer attention_reduction6
I0822 23:34:21.323483  2111 net.cpp:454] attention_reduction6 <- attention_permute6
I0822 23:34:21.323489  2111 net.cpp:411] attention_reduction6 -> attention_reduction6
I0822 23:34:21.323518  2111 net.cpp:150] Setting up attention_reduction6
I0822 23:34:21.323521  2111 net.cpp:157] Top shape: 64 1 8 (512)
I0822 23:34:21.323523  2111 net.cpp:165] Memory required for data: 117009152
I0822 23:34:21.323525  2111 layer_factory.hpp:77] Creating layer attention_permute7
I0822 23:34:21.323529  2111 net.cpp:106] Creating Layer attention_permute7
I0822 23:34:21.323531  2111 net.cpp:454] attention_permute7 <- attention_scale7_attention_scale_slice_7_split_0
I0822 23:34:21.323535  2111 net.cpp:411] attention_permute7 -> attention_permute7
I0822 23:34:21.323590  2111 net.cpp:150] Setting up attention_permute7
I0822 23:34:21.323592  2111 net.cpp:157] Top shape: 64 1 8 64 (32768)
I0822 23:34:21.323596  2111 net.cpp:165] Memory required for data: 117140224
I0822 23:34:21.323597  2111 layer_factory.hpp:77] Creating layer attention_reduction7
I0822 23:34:21.323601  2111 net.cpp:106] Creating Layer attention_reduction7
I0822 23:34:21.323603  2111 net.cpp:454] attention_reduction7 <- attention_permute7
I0822 23:34:21.323606  2111 net.cpp:411] attention_reduction7 -> attention_reduction7
I0822 23:34:21.323637  2111 net.cpp:150] Setting up attention_reduction7
I0822 23:34:21.323640  2111 net.cpp:157] Top shape: 64 1 8 (512)
I0822 23:34:21.323642  2111 net.cpp:165] Memory required for data: 117142272
I0822 23:34:21.323645  2111 layer_factory.hpp:77] Creating layer attention_scale_concat
I0822 23:34:21.323649  2111 net.cpp:106] Creating Layer attention_scale_concat
I0822 23:34:21.323652  2111 net.cpp:454] attention_scale_concat <- attention_reduction0
I0822 23:34:21.323655  2111 net.cpp:454] attention_scale_concat <- attention_reduction1
I0822 23:34:21.323658  2111 net.cpp:454] attention_scale_concat <- attention_reduction2
I0822 23:34:21.323660  2111 net.cpp:454] attention_scale_concat <- attention_reduction3
I0822 23:34:21.323663  2111 net.cpp:454] attention_scale_concat <- attention_reduction4
I0822 23:34:21.323667  2111 net.cpp:454] attention_scale_concat <- attention_reduction5
I0822 23:34:21.323668  2111 net.cpp:454] attention_scale_concat <- attention_reduction6
I0822 23:34:21.323670  2111 net.cpp:454] attention_scale_concat <- attention_reduction7
I0822 23:34:21.323674  2111 net.cpp:411] attention_scale_concat -> attention_scale_concat
I0822 23:34:21.323688  2111 net.cpp:150] Setting up attention_scale_concat
I0822 23:34:21.323691  2111 net.cpp:157] Top shape: 64 8 8 (4096)
I0822 23:34:21.323693  2111 net.cpp:165] Memory required for data: 117158656
I0822 23:34:21.323695  2111 layer_factory.hpp:77] Creating layer attention_height_slice
I0822 23:34:21.323700  2111 net.cpp:106] Creating Layer attention_height_slice
I0822 23:34:21.323704  2111 net.cpp:454] attention_height_slice <- attention_scale_concat
I0822 23:34:21.323707  2111 net.cpp:411] attention_height_slice -> attention_height0
I0822 23:34:21.323711  2111 net.cpp:411] attention_height_slice -> attention_height1
I0822 23:34:21.323715  2111 net.cpp:411] attention_height_slice -> attention_height2
I0822 23:34:21.323719  2111 net.cpp:411] attention_height_slice -> attention_height3
I0822 23:34:21.323724  2111 net.cpp:411] attention_height_slice -> attention_height4
I0822 23:34:21.323727  2111 net.cpp:411] attention_height_slice -> attention_height5
I0822 23:34:21.323732  2111 net.cpp:411] attention_height_slice -> attention_height6
I0822 23:34:21.323736  2111 net.cpp:411] attention_height_slice -> attention_height7
I0822 23:34:21.323798  2111 net.cpp:150] Setting up attention_height_slice
I0822 23:34:21.323802  2111 net.cpp:157] Top shape: 64 8 1 (512)
I0822 23:34:21.323806  2111 net.cpp:157] Top shape: 64 8 1 (512)
I0822 23:34:21.323807  2111 net.cpp:157] Top shape: 64 8 1 (512)
I0822 23:34:21.323810  2111 net.cpp:157] Top shape: 64 8 1 (512)
I0822 23:34:21.323812  2111 net.cpp:157] Top shape: 64 8 1 (512)
I0822 23:34:21.323815  2111 net.cpp:157] Top shape: 64 8 1 (512)
I0822 23:34:21.323818  2111 net.cpp:157] Top shape: 64 8 1 (512)
I0822 23:34:21.323820  2111 net.cpp:157] Top shape: 64 8 1 (512)
I0822 23:34:21.323822  2111 net.cpp:165] Memory required for data: 117175040
I0822 23:34:21.323824  2111 layer_factory.hpp:77] Creating layer attention_height_fc1_0
I0822 23:34:21.323829  2111 net.cpp:106] Creating Layer attention_height_fc1_0
I0822 23:34:21.323832  2111 net.cpp:454] attention_height_fc1_0 <- attention_height0
I0822 23:34:21.323835  2111 net.cpp:411] attention_height_fc1_0 -> attention_height_fc1_0
I0822 23:34:21.323913  2111 net.cpp:150] Setting up attention_height_fc1_0
I0822 23:34:21.323917  2111 net.cpp:157] Top shape: 64 64 (4096)
I0822 23:34:21.323920  2111 net.cpp:165] Memory required for data: 117191424
I0822 23:34:21.323925  2111 layer_factory.hpp:77] Creating layer attention_height_fc2_0
I0822 23:34:21.323928  2111 net.cpp:106] Creating Layer attention_height_fc2_0
I0822 23:34:21.323930  2111 net.cpp:454] attention_height_fc2_0 <- attention_height_fc1_0
I0822 23:34:21.323935  2111 net.cpp:411] attention_height_fc2_0 -> attention_height_fc2_0
I0822 23:34:21.324050  2111 net.cpp:150] Setting up attention_height_fc2_0
I0822 23:34:21.324055  2111 net.cpp:157] Top shape: 64 32 (2048)
I0822 23:34:21.324057  2111 net.cpp:165] Memory required for data: 117199616
I0822 23:34:21.324061  2111 layer_factory.hpp:77] Creating layer attention_height_fc3_0
I0822 23:34:21.324065  2111 net.cpp:106] Creating Layer attention_height_fc3_0
I0822 23:34:21.324069  2111 net.cpp:454] attention_height_fc3_0 <- attention_height_fc2_0
I0822 23:34:21.324071  2111 net.cpp:411] attention_height_fc3_0 -> attention_height_fc3_0
I0822 23:34:21.324141  2111 net.cpp:150] Setting up attention_height_fc3_0
I0822 23:34:21.324146  2111 net.cpp:157] Top shape: 64 8 (512)
I0822 23:34:21.324147  2111 net.cpp:165] Memory required for data: 117201664
I0822 23:34:21.324151  2111 layer_factory.hpp:77] Creating layer attention_height_reshape0
I0822 23:34:21.324156  2111 net.cpp:106] Creating Layer attention_height_reshape0
I0822 23:34:21.324158  2111 net.cpp:454] attention_height_reshape0 <- attention_height_fc3_0
I0822 23:34:21.324162  2111 net.cpp:411] attention_height_reshape0 -> attention_height_reshape0
I0822 23:34:21.324182  2111 net.cpp:150] Setting up attention_height_reshape0
I0822 23:34:21.324187  2111 net.cpp:157] Top shape: 64 8 1 1 (512)
I0822 23:34:21.324188  2111 net.cpp:165] Memory required for data: 117203712
I0822 23:34:21.324190  2111 layer_factory.hpp:77] Creating layer attention_height_fc1_1
I0822 23:34:21.324194  2111 net.cpp:106] Creating Layer attention_height_fc1_1
I0822 23:34:21.324198  2111 net.cpp:454] attention_height_fc1_1 <- attention_height1
I0822 23:34:21.324201  2111 net.cpp:411] attention_height_fc1_1 -> attention_height_fc1_1
I0822 23:34:21.324278  2111 net.cpp:150] Setting up attention_height_fc1_1
I0822 23:34:21.324283  2111 net.cpp:157] Top shape: 64 64 (4096)
I0822 23:34:21.324285  2111 net.cpp:165] Memory required for data: 117220096
I0822 23:34:21.324288  2111 layer_factory.hpp:77] Creating layer attention_height_fc2_1
I0822 23:34:21.324292  2111 net.cpp:106] Creating Layer attention_height_fc2_1
I0822 23:34:21.324295  2111 net.cpp:454] attention_height_fc2_1 <- attention_height_fc1_1
I0822 23:34:21.324299  2111 net.cpp:411] attention_height_fc2_1 -> attention_height_fc2_1
I0822 23:34:21.324409  2111 net.cpp:150] Setting up attention_height_fc2_1
I0822 23:34:21.324414  2111 net.cpp:157] Top shape: 64 32 (2048)
I0822 23:34:21.324415  2111 net.cpp:165] Memory required for data: 117228288
I0822 23:34:21.324419  2111 layer_factory.hpp:77] Creating layer attention_height_fc3_1
I0822 23:34:21.324422  2111 net.cpp:106] Creating Layer attention_height_fc3_1
I0822 23:34:21.324425  2111 net.cpp:454] attention_height_fc3_1 <- attention_height_fc2_1
I0822 23:34:21.324429  2111 net.cpp:411] attention_height_fc3_1 -> attention_height_fc3_1
I0822 23:34:21.324494  2111 net.cpp:150] Setting up attention_height_fc3_1
I0822 23:34:21.324498  2111 net.cpp:157] Top shape: 64 8 (512)
I0822 23:34:21.324501  2111 net.cpp:165] Memory required for data: 117230336
I0822 23:34:21.324504  2111 layer_factory.hpp:77] Creating layer attention_height_reshape1
I0822 23:34:21.324508  2111 net.cpp:106] Creating Layer attention_height_reshape1
I0822 23:34:21.324510  2111 net.cpp:454] attention_height_reshape1 <- attention_height_fc3_1
I0822 23:34:21.324514  2111 net.cpp:411] attention_height_reshape1 -> attention_height_reshape1
I0822 23:34:21.324528  2111 net.cpp:150] Setting up attention_height_reshape1
I0822 23:34:21.324532  2111 net.cpp:157] Top shape: 64 8 1 1 (512)
I0822 23:34:21.324534  2111 net.cpp:165] Memory required for data: 117232384
I0822 23:34:21.324537  2111 layer_factory.hpp:77] Creating layer attention_height_fc1_2
I0822 23:34:21.324542  2111 net.cpp:106] Creating Layer attention_height_fc1_2
I0822 23:34:21.324543  2111 net.cpp:454] attention_height_fc1_2 <- attention_height2
I0822 23:34:21.324548  2111 net.cpp:411] attention_height_fc1_2 -> attention_height_fc1_2
I0822 23:34:21.324621  2111 net.cpp:150] Setting up attention_height_fc1_2
I0822 23:34:21.324625  2111 net.cpp:157] Top shape: 64 64 (4096)
I0822 23:34:21.324627  2111 net.cpp:165] Memory required for data: 117248768
I0822 23:34:21.324631  2111 layer_factory.hpp:77] Creating layer attention_height_fc2_2
I0822 23:34:21.324635  2111 net.cpp:106] Creating Layer attention_height_fc2_2
I0822 23:34:21.324637  2111 net.cpp:454] attention_height_fc2_2 <- attention_height_fc1_2
I0822 23:34:21.324641  2111 net.cpp:411] attention_height_fc2_2 -> attention_height_fc2_2
I0822 23:34:21.324753  2111 net.cpp:150] Setting up attention_height_fc2_2
I0822 23:34:21.324756  2111 net.cpp:157] Top shape: 64 32 (2048)
I0822 23:34:21.324759  2111 net.cpp:165] Memory required for data: 117256960
I0822 23:34:21.324767  2111 layer_factory.hpp:77] Creating layer attention_height_fc3_2
I0822 23:34:21.324771  2111 net.cpp:106] Creating Layer attention_height_fc3_2
I0822 23:34:21.324774  2111 net.cpp:454] attention_height_fc3_2 <- attention_height_fc2_2
I0822 23:34:21.324779  2111 net.cpp:411] attention_height_fc3_2 -> attention_height_fc3_2
I0822 23:34:21.324847  2111 net.cpp:150] Setting up attention_height_fc3_2
I0822 23:34:21.324851  2111 net.cpp:157] Top shape: 64 8 (512)
I0822 23:34:21.324853  2111 net.cpp:165] Memory required for data: 117259008
I0822 23:34:21.324857  2111 layer_factory.hpp:77] Creating layer attention_height_reshape2
I0822 23:34:21.324862  2111 net.cpp:106] Creating Layer attention_height_reshape2
I0822 23:34:21.324864  2111 net.cpp:454] attention_height_reshape2 <- attention_height_fc3_2
I0822 23:34:21.324867  2111 net.cpp:411] attention_height_reshape2 -> attention_height_reshape2
I0822 23:34:21.324882  2111 net.cpp:150] Setting up attention_height_reshape2
I0822 23:34:21.324887  2111 net.cpp:157] Top shape: 64 8 1 1 (512)
I0822 23:34:21.324888  2111 net.cpp:165] Memory required for data: 117261056
I0822 23:34:21.324890  2111 layer_factory.hpp:77] Creating layer attention_height_fc1_3
I0822 23:34:21.324894  2111 net.cpp:106] Creating Layer attention_height_fc1_3
I0822 23:34:21.324896  2111 net.cpp:454] attention_height_fc1_3 <- attention_height3
I0822 23:34:21.324900  2111 net.cpp:411] attention_height_fc1_3 -> attention_height_fc1_3
I0822 23:34:21.324975  2111 net.cpp:150] Setting up attention_height_fc1_3
I0822 23:34:21.324978  2111 net.cpp:157] Top shape: 64 64 (4096)
I0822 23:34:21.324980  2111 net.cpp:165] Memory required for data: 117277440
I0822 23:34:21.324985  2111 layer_factory.hpp:77] Creating layer attention_height_fc2_3
I0822 23:34:21.324988  2111 net.cpp:106] Creating Layer attention_height_fc2_3
I0822 23:34:21.324990  2111 net.cpp:454] attention_height_fc2_3 <- attention_height_fc1_3
I0822 23:34:21.324995  2111 net.cpp:411] attention_height_fc2_3 -> attention_height_fc2_3
I0822 23:34:21.325104  2111 net.cpp:150] Setting up attention_height_fc2_3
I0822 23:34:21.325109  2111 net.cpp:157] Top shape: 64 32 (2048)
I0822 23:34:21.325110  2111 net.cpp:165] Memory required for data: 117285632
I0822 23:34:21.325114  2111 layer_factory.hpp:77] Creating layer attention_height_fc3_3
I0822 23:34:21.325117  2111 net.cpp:106] Creating Layer attention_height_fc3_3
I0822 23:34:21.325120  2111 net.cpp:454] attention_height_fc3_3 <- attention_height_fc2_3
I0822 23:34:21.325124  2111 net.cpp:411] attention_height_fc3_3 -> attention_height_fc3_3
I0822 23:34:21.325191  2111 net.cpp:150] Setting up attention_height_fc3_3
I0822 23:34:21.325196  2111 net.cpp:157] Top shape: 64 8 (512)
I0822 23:34:21.325198  2111 net.cpp:165] Memory required for data: 117287680
I0822 23:34:21.325202  2111 layer_factory.hpp:77] Creating layer attention_height_reshape3
I0822 23:34:21.325208  2111 net.cpp:106] Creating Layer attention_height_reshape3
I0822 23:34:21.325211  2111 net.cpp:454] attention_height_reshape3 <- attention_height_fc3_3
I0822 23:34:21.325214  2111 net.cpp:411] attention_height_reshape3 -> attention_height_reshape3
I0822 23:34:21.325229  2111 net.cpp:150] Setting up attention_height_reshape3
I0822 23:34:21.325233  2111 net.cpp:157] Top shape: 64 8 1 1 (512)
I0822 23:34:21.325235  2111 net.cpp:165] Memory required for data: 117289728
I0822 23:34:21.325238  2111 layer_factory.hpp:77] Creating layer attention_height_fc1_4
I0822 23:34:21.325242  2111 net.cpp:106] Creating Layer attention_height_fc1_4
I0822 23:34:21.325244  2111 net.cpp:454] attention_height_fc1_4 <- attention_height4
I0822 23:34:21.325248  2111 net.cpp:411] attention_height_fc1_4 -> attention_height_fc1_4
I0822 23:34:21.325320  2111 net.cpp:150] Setting up attention_height_fc1_4
I0822 23:34:21.325325  2111 net.cpp:157] Top shape: 64 64 (4096)
I0822 23:34:21.325326  2111 net.cpp:165] Memory required for data: 117306112
I0822 23:34:21.325330  2111 layer_factory.hpp:77] Creating layer attention_height_fc2_4
I0822 23:34:21.325335  2111 net.cpp:106] Creating Layer attention_height_fc2_4
I0822 23:34:21.325336  2111 net.cpp:454] attention_height_fc2_4 <- attention_height_fc1_4
I0822 23:34:21.325342  2111 net.cpp:411] attention_height_fc2_4 -> attention_height_fc2_4
I0822 23:34:21.325474  2111 net.cpp:150] Setting up attention_height_fc2_4
I0822 23:34:21.325479  2111 net.cpp:157] Top shape: 64 32 (2048)
I0822 23:34:21.325481  2111 net.cpp:165] Memory required for data: 117314304
I0822 23:34:21.325485  2111 layer_factory.hpp:77] Creating layer attention_height_fc3_4
I0822 23:34:21.325489  2111 net.cpp:106] Creating Layer attention_height_fc3_4
I0822 23:34:21.325491  2111 net.cpp:454] attention_height_fc3_4 <- attention_height_fc2_4
I0822 23:34:21.325495  2111 net.cpp:411] attention_height_fc3_4 -> attention_height_fc3_4
I0822 23:34:21.325559  2111 net.cpp:150] Setting up attention_height_fc3_4
I0822 23:34:21.325563  2111 net.cpp:157] Top shape: 64 8 (512)
I0822 23:34:21.325565  2111 net.cpp:165] Memory required for data: 117316352
I0822 23:34:21.325569  2111 layer_factory.hpp:77] Creating layer attention_height_reshape4
I0822 23:34:21.325573  2111 net.cpp:106] Creating Layer attention_height_reshape4
I0822 23:34:21.325577  2111 net.cpp:454] attention_height_reshape4 <- attention_height_fc3_4
I0822 23:34:21.325580  2111 net.cpp:411] attention_height_reshape4 -> attention_height_reshape4
I0822 23:34:21.325594  2111 net.cpp:150] Setting up attention_height_reshape4
I0822 23:34:21.325598  2111 net.cpp:157] Top shape: 64 8 1 1 (512)
I0822 23:34:21.325599  2111 net.cpp:165] Memory required for data: 117318400
I0822 23:34:21.325603  2111 layer_factory.hpp:77] Creating layer attention_height_fc1_5
I0822 23:34:21.325606  2111 net.cpp:106] Creating Layer attention_height_fc1_5
I0822 23:34:21.325608  2111 net.cpp:454] attention_height_fc1_5 <- attention_height5
I0822 23:34:21.325613  2111 net.cpp:411] attention_height_fc1_5 -> attention_height_fc1_5
I0822 23:34:21.325683  2111 net.cpp:150] Setting up attention_height_fc1_5
I0822 23:34:21.325687  2111 net.cpp:157] Top shape: 64 64 (4096)
I0822 23:34:21.325690  2111 net.cpp:165] Memory required for data: 117334784
I0822 23:34:21.325692  2111 layer_factory.hpp:77] Creating layer attention_height_fc2_5
I0822 23:34:21.325697  2111 net.cpp:106] Creating Layer attention_height_fc2_5
I0822 23:34:21.325700  2111 net.cpp:454] attention_height_fc2_5 <- attention_height_fc1_5
I0822 23:34:21.325703  2111 net.cpp:411] attention_height_fc2_5 -> attention_height_fc2_5
I0822 23:34:21.325812  2111 net.cpp:150] Setting up attention_height_fc2_5
I0822 23:34:21.325817  2111 net.cpp:157] Top shape: 64 32 (2048)
I0822 23:34:21.325819  2111 net.cpp:165] Memory required for data: 117342976
I0822 23:34:21.325822  2111 layer_factory.hpp:77] Creating layer attention_height_fc3_5
I0822 23:34:21.325827  2111 net.cpp:106] Creating Layer attention_height_fc3_5
I0822 23:34:21.325829  2111 net.cpp:454] attention_height_fc3_5 <- attention_height_fc2_5
I0822 23:34:21.325832  2111 net.cpp:411] attention_height_fc3_5 -> attention_height_fc3_5
I0822 23:34:21.325897  2111 net.cpp:150] Setting up attention_height_fc3_5
I0822 23:34:21.325901  2111 net.cpp:157] Top shape: 64 8 (512)
I0822 23:34:21.325903  2111 net.cpp:165] Memory required for data: 117345024
I0822 23:34:21.325907  2111 layer_factory.hpp:77] Creating layer attention_height_reshape5
I0822 23:34:21.325911  2111 net.cpp:106] Creating Layer attention_height_reshape5
I0822 23:34:21.325913  2111 net.cpp:454] attention_height_reshape5 <- attention_height_fc3_5
I0822 23:34:21.325917  2111 net.cpp:411] attention_height_reshape5 -> attention_height_reshape5
I0822 23:34:21.325932  2111 net.cpp:150] Setting up attention_height_reshape5
I0822 23:34:21.325935  2111 net.cpp:157] Top shape: 64 8 1 1 (512)
I0822 23:34:21.325937  2111 net.cpp:165] Memory required for data: 117347072
I0822 23:34:21.325939  2111 layer_factory.hpp:77] Creating layer attention_height_fc1_6
I0822 23:34:21.325943  2111 net.cpp:106] Creating Layer attention_height_fc1_6
I0822 23:34:21.325947  2111 net.cpp:454] attention_height_fc1_6 <- attention_height6
I0822 23:34:21.325949  2111 net.cpp:411] attention_height_fc1_6 -> attention_height_fc1_6
I0822 23:34:21.326030  2111 net.cpp:150] Setting up attention_height_fc1_6
I0822 23:34:21.326035  2111 net.cpp:157] Top shape: 64 64 (4096)
I0822 23:34:21.326037  2111 net.cpp:165] Memory required for data: 117363456
I0822 23:34:21.326040  2111 layer_factory.hpp:77] Creating layer attention_height_fc2_6
I0822 23:34:21.326045  2111 net.cpp:106] Creating Layer attention_height_fc2_6
I0822 23:34:21.326047  2111 net.cpp:454] attention_height_fc2_6 <- attention_height_fc1_6
I0822 23:34:21.326051  2111 net.cpp:411] attention_height_fc2_6 -> attention_height_fc2_6
I0822 23:34:21.326750  2111 net.cpp:150] Setting up attention_height_fc2_6
I0822 23:34:21.326755  2111 net.cpp:157] Top shape: 64 32 (2048)
I0822 23:34:21.326757  2111 net.cpp:165] Memory required for data: 117371648
I0822 23:34:21.326761  2111 layer_factory.hpp:77] Creating layer attention_height_fc3_6
I0822 23:34:21.326766  2111 net.cpp:106] Creating Layer attention_height_fc3_6
I0822 23:34:21.326768  2111 net.cpp:454] attention_height_fc3_6 <- attention_height_fc2_6
I0822 23:34:21.326774  2111 net.cpp:411] attention_height_fc3_6 -> attention_height_fc3_6
I0822 23:34:21.326840  2111 net.cpp:150] Setting up attention_height_fc3_6
I0822 23:34:21.326844  2111 net.cpp:157] Top shape: 64 8 (512)
I0822 23:34:21.326846  2111 net.cpp:165] Memory required for data: 117373696
I0822 23:34:21.326850  2111 layer_factory.hpp:77] Creating layer attention_height_reshape6
I0822 23:34:21.326854  2111 net.cpp:106] Creating Layer attention_height_reshape6
I0822 23:34:21.326856  2111 net.cpp:454] attention_height_reshape6 <- attention_height_fc3_6
I0822 23:34:21.326860  2111 net.cpp:411] attention_height_reshape6 -> attention_height_reshape6
I0822 23:34:21.326874  2111 net.cpp:150] Setting up attention_height_reshape6
I0822 23:34:21.326879  2111 net.cpp:157] Top shape: 64 8 1 1 (512)
I0822 23:34:21.326880  2111 net.cpp:165] Memory required for data: 117375744
I0822 23:34:21.326882  2111 layer_factory.hpp:77] Creating layer attention_height_fc1_7
I0822 23:34:21.326887  2111 net.cpp:106] Creating Layer attention_height_fc1_7
I0822 23:34:21.326889  2111 net.cpp:454] attention_height_fc1_7 <- attention_height7
I0822 23:34:21.326895  2111 net.cpp:411] attention_height_fc1_7 -> attention_height_fc1_7
I0822 23:34:21.326967  2111 net.cpp:150] Setting up attention_height_fc1_7
I0822 23:34:21.326972  2111 net.cpp:157] Top shape: 64 64 (4096)
I0822 23:34:21.326973  2111 net.cpp:165] Memory required for data: 117392128
I0822 23:34:21.326977  2111 layer_factory.hpp:77] Creating layer attention_height_fc2_7
I0822 23:34:21.326982  2111 net.cpp:106] Creating Layer attention_height_fc2_7
I0822 23:34:21.326984  2111 net.cpp:454] attention_height_fc2_7 <- attention_height_fc1_7
I0822 23:34:21.326987  2111 net.cpp:411] attention_height_fc2_7 -> attention_height_fc2_7
I0822 23:34:21.327098  2111 net.cpp:150] Setting up attention_height_fc2_7
I0822 23:34:21.327102  2111 net.cpp:157] Top shape: 64 32 (2048)
I0822 23:34:21.327105  2111 net.cpp:165] Memory required for data: 117400320
I0822 23:34:21.327108  2111 layer_factory.hpp:77] Creating layer attention_height_fc3_7
I0822 23:34:21.327112  2111 net.cpp:106] Creating Layer attention_height_fc3_7
I0822 23:34:21.327114  2111 net.cpp:454] attention_height_fc3_7 <- attention_height_fc2_7
I0822 23:34:21.327118  2111 net.cpp:411] attention_height_fc3_7 -> attention_height_fc3_7
I0822 23:34:21.327183  2111 net.cpp:150] Setting up attention_height_fc3_7
I0822 23:34:21.327188  2111 net.cpp:157] Top shape: 64 8 (512)
I0822 23:34:21.327189  2111 net.cpp:165] Memory required for data: 117402368
I0822 23:34:21.327193  2111 layer_factory.hpp:77] Creating layer attention_height_reshape7
I0822 23:34:21.327198  2111 net.cpp:106] Creating Layer attention_height_reshape7
I0822 23:34:21.327199  2111 net.cpp:454] attention_height_reshape7 <- attention_height_fc3_7
I0822 23:34:21.327203  2111 net.cpp:411] attention_height_reshape7 -> attention_height_reshape7
I0822 23:34:21.327217  2111 net.cpp:150] Setting up attention_height_reshape7
I0822 23:34:21.327221  2111 net.cpp:157] Top shape: 64 8 1 1 (512)
I0822 23:34:21.327224  2111 net.cpp:165] Memory required for data: 117404416
I0822 23:34:21.327225  2111 layer_factory.hpp:77] Creating layer attention_height_concat
I0822 23:34:21.327229  2111 net.cpp:106] Creating Layer attention_height_concat
I0822 23:34:21.327232  2111 net.cpp:454] attention_height_concat <- attention_height_reshape0
I0822 23:34:21.327235  2111 net.cpp:454] attention_height_concat <- attention_height_reshape1
I0822 23:34:21.327237  2111 net.cpp:454] attention_height_concat <- attention_height_reshape2
I0822 23:34:21.327240  2111 net.cpp:454] attention_height_concat <- attention_height_reshape3
I0822 23:34:21.327244  2111 net.cpp:454] attention_height_concat <- attention_height_reshape4
I0822 23:34:21.327245  2111 net.cpp:454] attention_height_concat <- attention_height_reshape5
I0822 23:34:21.327248  2111 net.cpp:454] attention_height_concat <- attention_height_reshape6
I0822 23:34:21.327250  2111 net.cpp:454] attention_height_concat <- attention_height_reshape7
I0822 23:34:21.327253  2111 net.cpp:411] attention_height_concat -> attention_height_concat
I0822 23:34:21.327277  2111 net.cpp:150] Setting up attention_height_concat
I0822 23:34:21.327282  2111 net.cpp:157] Top shape: 64 8 8 1 (4096)
I0822 23:34:21.327284  2111 net.cpp:165] Memory required for data: 117420800
I0822 23:34:21.327286  2111 layer_factory.hpp:77] Creating layer attention_weight
I0822 23:34:21.327291  2111 net.cpp:106] Creating Layer attention_weight
I0822 23:34:21.327293  2111 net.cpp:454] attention_weight <- attention_height_concat
I0822 23:34:21.327297  2111 net.cpp:411] attention_weight -> attention_weight
I0822 23:34:21.327339  2111 net.cpp:150] Setting up attention_weight
I0822 23:34:21.327343  2111 net.cpp:157] Top shape: 64 8 8 1 (4096)
I0822 23:34:21.327347  2111 net.cpp:165] Memory required for data: 117437184
I0822 23:34:21.327348  2111 layer_factory.hpp:77] Creating layer attention_weight_slice
I0822 23:34:21.327353  2111 net.cpp:106] Creating Layer attention_weight_slice
I0822 23:34:21.327356  2111 net.cpp:454] attention_weight_slice <- attention_weight
I0822 23:34:21.327360  2111 net.cpp:411] attention_weight_slice -> attention_weight_slice0
I0822 23:34:21.327364  2111 net.cpp:411] attention_weight_slice -> attention_weight_slice1
I0822 23:34:21.327369  2111 net.cpp:411] attention_weight_slice -> attention_weight_slice2
I0822 23:34:21.327373  2111 net.cpp:411] attention_weight_slice -> attention_weight_slice3
I0822 23:34:21.327379  2111 net.cpp:411] attention_weight_slice -> attention_weight_slice4
I0822 23:34:21.327383  2111 net.cpp:411] attention_weight_slice -> attention_weight_slice5
I0822 23:34:21.327388  2111 net.cpp:411] attention_weight_slice -> attention_weight_slice6
I0822 23:34:21.327391  2111 net.cpp:411] attention_weight_slice -> attention_weight_slice7
I0822 23:34:21.327453  2111 net.cpp:150] Setting up attention_weight_slice
I0822 23:34:21.327457  2111 net.cpp:157] Top shape: 64 1 8 1 (512)
I0822 23:34:21.327461  2111 net.cpp:157] Top shape: 64 1 8 1 (512)
I0822 23:34:21.327462  2111 net.cpp:157] Top shape: 64 1 8 1 (512)
I0822 23:34:21.327466  2111 net.cpp:157] Top shape: 64 1 8 1 (512)
I0822 23:34:21.327468  2111 net.cpp:157] Top shape: 64 1 8 1 (512)
I0822 23:34:21.327471  2111 net.cpp:157] Top shape: 64 1 8 1 (512)
I0822 23:34:21.327473  2111 net.cpp:157] Top shape: 64 1 8 1 (512)
I0822 23:34:21.327476  2111 net.cpp:157] Top shape: 64 1 8 1 (512)
I0822 23:34:21.327478  2111 net.cpp:165] Memory required for data: 117453568
I0822 23:34:21.327481  2111 layer_factory.hpp:77] Creating layer attention_weight_tile0
I0822 23:34:21.327486  2111 net.cpp:106] Creating Layer attention_weight_tile0
I0822 23:34:21.327487  2111 net.cpp:454] attention_weight_tile0 <- attention_weight_slice0
I0822 23:34:21.327491  2111 net.cpp:411] attention_weight_tile0 -> attention_weight_tile0
I0822 23:34:21.327509  2111 net.cpp:150] Setting up attention_weight_tile0
I0822 23:34:21.327513  2111 net.cpp:157] Top shape: 64 64 8 1 (32768)
I0822 23:34:21.327515  2111 net.cpp:165] Memory required for data: 117584640
I0822 23:34:21.327518  2111 layer_factory.hpp:77] Creating layer attention_reweight0
I0822 23:34:21.327522  2111 net.cpp:106] Creating Layer attention_reweight0
I0822 23:34:21.327525  2111 net.cpp:454] attention_reweight0 <- attention_scale0_attention_scale_slice_0_split_1
I0822 23:34:21.327528  2111 net.cpp:454] attention_reweight0 <- attention_weight_tile0
I0822 23:34:21.327533  2111 net.cpp:411] attention_reweight0 -> attention_reweight0
I0822 23:34:21.327548  2111 net.cpp:150] Setting up attention_reweight0
I0822 23:34:21.327551  2111 net.cpp:157] Top shape: 64 64 8 1 (32768)
I0822 23:34:21.327553  2111 net.cpp:165] Memory required for data: 117715712
I0822 23:34:21.327556  2111 layer_factory.hpp:77] Creating layer attention_weight_tile1
I0822 23:34:21.327559  2111 net.cpp:106] Creating Layer attention_weight_tile1
I0822 23:34:21.327563  2111 net.cpp:454] attention_weight_tile1 <- attention_weight_slice1
I0822 23:34:21.327565  2111 net.cpp:411] attention_weight_tile1 -> attention_weight_tile1
I0822 23:34:21.327579  2111 net.cpp:150] Setting up attention_weight_tile1
I0822 23:34:21.327581  2111 net.cpp:157] Top shape: 64 64 8 1 (32768)
I0822 23:34:21.327584  2111 net.cpp:165] Memory required for data: 117846784
I0822 23:34:21.327585  2111 layer_factory.hpp:77] Creating layer attention_reweight1
I0822 23:34:21.327589  2111 net.cpp:106] Creating Layer attention_reweight1
I0822 23:34:21.327592  2111 net.cpp:454] attention_reweight1 <- attention_scale1_attention_scale_slice_1_split_1
I0822 23:34:21.327595  2111 net.cpp:454] attention_reweight1 <- attention_weight_tile1
I0822 23:34:21.327599  2111 net.cpp:411] attention_reweight1 -> attention_reweight1
I0822 23:34:21.327611  2111 net.cpp:150] Setting up attention_reweight1
I0822 23:34:21.327615  2111 net.cpp:157] Top shape: 64 64 8 1 (32768)
I0822 23:34:21.327617  2111 net.cpp:165] Memory required for data: 117977856
I0822 23:34:21.327621  2111 layer_factory.hpp:77] Creating layer attention_weight_tile2
I0822 23:34:21.327625  2111 net.cpp:106] Creating Layer attention_weight_tile2
I0822 23:34:21.327628  2111 net.cpp:454] attention_weight_tile2 <- attention_weight_slice2
I0822 23:34:21.327631  2111 net.cpp:411] attention_weight_tile2 -> attention_weight_tile2
I0822 23:34:21.327644  2111 net.cpp:150] Setting up attention_weight_tile2
I0822 23:34:21.327648  2111 net.cpp:157] Top shape: 64 64 8 1 (32768)
I0822 23:34:21.327651  2111 net.cpp:165] Memory required for data: 118108928
I0822 23:34:21.327652  2111 layer_factory.hpp:77] Creating layer attention_reweight2
I0822 23:34:21.327656  2111 net.cpp:106] Creating Layer attention_reweight2
I0822 23:34:21.327658  2111 net.cpp:454] attention_reweight2 <- attention_scale2_attention_scale_slice_2_split_1
I0822 23:34:21.327661  2111 net.cpp:454] attention_reweight2 <- attention_weight_tile2
I0822 23:34:21.327666  2111 net.cpp:411] attention_reweight2 -> attention_reweight2
I0822 23:34:21.327677  2111 net.cpp:150] Setting up attention_reweight2
I0822 23:34:21.327682  2111 net.cpp:157] Top shape: 64 64 8 1 (32768)
I0822 23:34:21.327683  2111 net.cpp:165] Memory required for data: 118240000
I0822 23:34:21.327685  2111 layer_factory.hpp:77] Creating layer attention_weight_tile3
I0822 23:34:21.327689  2111 net.cpp:106] Creating Layer attention_weight_tile3
I0822 23:34:21.327692  2111 net.cpp:454] attention_weight_tile3 <- attention_weight_slice3
I0822 23:34:21.327694  2111 net.cpp:411] attention_weight_tile3 -> attention_weight_tile3
I0822 23:34:21.327706  2111 net.cpp:150] Setting up attention_weight_tile3
I0822 23:34:21.327710  2111 net.cpp:157] Top shape: 64 64 8 1 (32768)
I0822 23:34:21.327713  2111 net.cpp:165] Memory required for data: 118371072
I0822 23:34:21.327714  2111 layer_factory.hpp:77] Creating layer attention_reweight3
I0822 23:34:21.327718  2111 net.cpp:106] Creating Layer attention_reweight3
I0822 23:34:21.327721  2111 net.cpp:454] attention_reweight3 <- attention_scale3_attention_scale_slice_3_split_1
I0822 23:34:21.327724  2111 net.cpp:454] attention_reweight3 <- attention_weight_tile3
I0822 23:34:21.327728  2111 net.cpp:411] attention_reweight3 -> attention_reweight3
I0822 23:34:21.327742  2111 net.cpp:150] Setting up attention_reweight3
I0822 23:34:21.327745  2111 net.cpp:157] Top shape: 64 64 8 1 (32768)
I0822 23:34:21.327749  2111 net.cpp:165] Memory required for data: 118502144
I0822 23:34:21.327750  2111 layer_factory.hpp:77] Creating layer attention_weight_tile4
I0822 23:34:21.327754  2111 net.cpp:106] Creating Layer attention_weight_tile4
I0822 23:34:21.327756  2111 net.cpp:454] attention_weight_tile4 <- attention_weight_slice4
I0822 23:34:21.327760  2111 net.cpp:411] attention_weight_tile4 -> attention_weight_tile4
I0822 23:34:21.327772  2111 net.cpp:150] Setting up attention_weight_tile4
I0822 23:34:21.327776  2111 net.cpp:157] Top shape: 64 64 8 1 (32768)
I0822 23:34:21.327778  2111 net.cpp:165] Memory required for data: 118633216
I0822 23:34:21.327780  2111 layer_factory.hpp:77] Creating layer attention_reweight4
I0822 23:34:21.327783  2111 net.cpp:106] Creating Layer attention_reweight4
I0822 23:34:21.327786  2111 net.cpp:454] attention_reweight4 <- attention_scale4_attention_scale_slice_4_split_1
I0822 23:34:21.327790  2111 net.cpp:454] attention_reweight4 <- attention_weight_tile4
I0822 23:34:21.327792  2111 net.cpp:411] attention_reweight4 -> attention_reweight4
I0822 23:34:21.327805  2111 net.cpp:150] Setting up attention_reweight4
I0822 23:34:21.327808  2111 net.cpp:157] Top shape: 64 64 8 1 (32768)
I0822 23:34:21.327811  2111 net.cpp:165] Memory required for data: 118764288
I0822 23:34:21.327812  2111 layer_factory.hpp:77] Creating layer attention_weight_tile5
I0822 23:34:21.327816  2111 net.cpp:106] Creating Layer attention_weight_tile5
I0822 23:34:21.327817  2111 net.cpp:454] attention_weight_tile5 <- attention_weight_slice5
I0822 23:34:21.327821  2111 net.cpp:411] attention_weight_tile5 -> attention_weight_tile5
I0822 23:34:21.327832  2111 net.cpp:150] Setting up attention_weight_tile5
I0822 23:34:21.327836  2111 net.cpp:157] Top shape: 64 64 8 1 (32768)
I0822 23:34:21.327838  2111 net.cpp:165] Memory required for data: 118895360
I0822 23:34:21.327841  2111 layer_factory.hpp:77] Creating layer attention_reweight5
I0822 23:34:21.327843  2111 net.cpp:106] Creating Layer attention_reweight5
I0822 23:34:21.327847  2111 net.cpp:454] attention_reweight5 <- attention_scale5_attention_scale_slice_5_split_1
I0822 23:34:21.327849  2111 net.cpp:454] attention_reweight5 <- attention_weight_tile5
I0822 23:34:21.327852  2111 net.cpp:411] attention_reweight5 -> attention_reweight5
I0822 23:34:21.327867  2111 net.cpp:150] Setting up attention_reweight5
I0822 23:34:21.327870  2111 net.cpp:157] Top shape: 64 64 8 1 (32768)
I0822 23:34:21.327872  2111 net.cpp:165] Memory required for data: 119026432
I0822 23:34:21.327875  2111 layer_factory.hpp:77] Creating layer attention_weight_tile6
I0822 23:34:21.327878  2111 net.cpp:106] Creating Layer attention_weight_tile6
I0822 23:34:21.327881  2111 net.cpp:454] attention_weight_tile6 <- attention_weight_slice6
I0822 23:34:21.327884  2111 net.cpp:411] attention_weight_tile6 -> attention_weight_tile6
I0822 23:34:21.327896  2111 net.cpp:150] Setting up attention_weight_tile6
I0822 23:34:21.327900  2111 net.cpp:157] Top shape: 64 64 8 1 (32768)
I0822 23:34:21.327903  2111 net.cpp:165] Memory required for data: 119157504
I0822 23:34:21.327904  2111 layer_factory.hpp:77] Creating layer attention_reweight6
I0822 23:34:21.327908  2111 net.cpp:106] Creating Layer attention_reweight6
I0822 23:34:21.327910  2111 net.cpp:454] attention_reweight6 <- attention_scale6_attention_scale_slice_6_split_1
I0822 23:34:21.327913  2111 net.cpp:454] attention_reweight6 <- attention_weight_tile6
I0822 23:34:21.327916  2111 net.cpp:411] attention_reweight6 -> attention_reweight6
I0822 23:34:21.327929  2111 net.cpp:150] Setting up attention_reweight6
I0822 23:34:21.327932  2111 net.cpp:157] Top shape: 64 64 8 1 (32768)
I0822 23:34:21.327934  2111 net.cpp:165] Memory required for data: 119288576
I0822 23:34:21.327936  2111 layer_factory.hpp:77] Creating layer attention_weight_tile7
I0822 23:34:21.327940  2111 net.cpp:106] Creating Layer attention_weight_tile7
I0822 23:34:21.327942  2111 net.cpp:454] attention_weight_tile7 <- attention_weight_slice7
I0822 23:34:21.327945  2111 net.cpp:411] attention_weight_tile7 -> attention_weight_tile7
I0822 23:34:21.327957  2111 net.cpp:150] Setting up attention_weight_tile7
I0822 23:34:21.327961  2111 net.cpp:157] Top shape: 64 64 8 1 (32768)
I0822 23:34:21.327963  2111 net.cpp:165] Memory required for data: 119419648
I0822 23:34:21.327965  2111 layer_factory.hpp:77] Creating layer attention_reweight7
I0822 23:34:21.327970  2111 net.cpp:106] Creating Layer attention_reweight7
I0822 23:34:21.327971  2111 net.cpp:454] attention_reweight7 <- attention_scale7_attention_scale_slice_7_split_1
I0822 23:34:21.327975  2111 net.cpp:454] attention_reweight7 <- attention_weight_tile7
I0822 23:34:21.327977  2111 net.cpp:411] attention_reweight7 -> attention_reweight7
I0822 23:34:21.327992  2111 net.cpp:150] Setting up attention_reweight7
I0822 23:34:21.327996  2111 net.cpp:157] Top shape: 64 64 8 1 (32768)
I0822 23:34:21.327998  2111 net.cpp:165] Memory required for data: 119550720
I0822 23:34:21.328001  2111 layer_factory.hpp:77] Creating layer attention_reweight_sum
I0822 23:34:21.328004  2111 net.cpp:106] Creating Layer attention_reweight_sum
I0822 23:34:21.328007  2111 net.cpp:454] attention_reweight_sum <- attention_reweight0
I0822 23:34:21.328011  2111 net.cpp:454] attention_reweight_sum <- attention_reweight1
I0822 23:34:21.328012  2111 net.cpp:454] attention_reweight_sum <- attention_reweight2
I0822 23:34:21.328016  2111 net.cpp:454] attention_reweight_sum <- attention_reweight3
I0822 23:34:21.328017  2111 net.cpp:454] attention_reweight_sum <- attention_reweight4
I0822 23:34:21.328021  2111 net.cpp:454] attention_reweight_sum <- attention_reweight5
I0822 23:34:21.328022  2111 net.cpp:454] attention_reweight_sum <- attention_reweight6
I0822 23:34:21.328024  2111 net.cpp:454] attention_reweight_sum <- attention_reweight7
I0822 23:34:21.328028  2111 net.cpp:411] attention_reweight_sum -> attention_reweight_sum
I0822 23:34:21.328040  2111 net.cpp:150] Setting up attention_reweight_sum
I0822 23:34:21.328044  2111 net.cpp:157] Top shape: 64 64 8 1 (32768)
I0822 23:34:21.328047  2111 net.cpp:165] Memory required for data: 119681792
I0822 23:34:21.328048  2111 layer_factory.hpp:77] Creating layer attention_reweight_flatten
I0822 23:34:21.328052  2111 net.cpp:106] Creating Layer attention_reweight_flatten
I0822 23:34:21.328054  2111 net.cpp:454] attention_reweight_flatten <- attention_reweight_sum
I0822 23:34:21.328058  2111 net.cpp:411] attention_reweight_flatten -> attention_reweight_flatten
I0822 23:34:21.328071  2111 net.cpp:150] Setting up attention_reweight_flatten
I0822 23:34:21.328074  2111 net.cpp:157] Top shape: 64 512 (32768)
I0822 23:34:21.328076  2111 net.cpp:165] Memory required for data: 119812864
I0822 23:34:21.328079  2111 layer_factory.hpp:77] Creating layer attention_reweight_dropout
I0822 23:34:21.328089  2111 net.cpp:106] Creating Layer attention_reweight_dropout
I0822 23:34:21.328092  2111 net.cpp:454] attention_reweight_dropout <- attention_reweight_flatten
I0822 23:34:21.328095  2111 net.cpp:411] attention_reweight_dropout -> attention_reweight_dropout
I0822 23:34:21.328125  2111 net.cpp:150] Setting up attention_reweight_dropout
I0822 23:34:21.328128  2111 net.cpp:157] Top shape: 64 512 (32768)
I0822 23:34:21.328130  2111 net.cpp:165] Memory required for data: 119943936
I0822 23:34:21.328133  2111 layer_factory.hpp:77] Creating layer classification_fc1
I0822 23:34:21.328137  2111 net.cpp:106] Creating Layer classification_fc1
I0822 23:34:21.328140  2111 net.cpp:454] classification_fc1 <- attention_reweight_dropout
I0822 23:34:21.328143  2111 net.cpp:411] classification_fc1 -> classification_fc1
I0822 23:34:21.329001  2111 net.cpp:150] Setting up classification_fc1
I0822 23:34:21.329006  2111 net.cpp:157] Top shape: 64 64 (4096)
I0822 23:34:21.329008  2111 net.cpp:165] Memory required for data: 119960320
I0822 23:34:21.329013  2111 layer_factory.hpp:77] Creating layer classification_dropout
I0822 23:34:21.329017  2111 net.cpp:106] Creating Layer classification_dropout
I0822 23:34:21.329020  2111 net.cpp:454] classification_dropout <- classification_fc1
I0822 23:34:21.329023  2111 net.cpp:411] classification_dropout -> classification_dropout
I0822 23:34:21.329044  2111 net.cpp:150] Setting up classification_dropout
I0822 23:34:21.329048  2111 net.cpp:157] Top shape: 64 64 (4096)
I0822 23:34:21.329051  2111 net.cpp:165] Memory required for data: 119976704
I0822 23:34:21.329053  2111 layer_factory.hpp:77] Creating layer classification_fc2
I0822 23:34:21.329057  2111 net.cpp:106] Creating Layer classification_fc2
I0822 23:34:21.329061  2111 net.cpp:454] classification_fc2 <- classification_dropout
I0822 23:34:21.329064  2111 net.cpp:411] classification_fc2 -> classification_fc2
I0822 23:34:21.329131  2111 net.cpp:150] Setting up classification_fc2
I0822 23:34:21.329135  2111 net.cpp:157] Top shape: 64 4 (256)
I0822 23:34:21.329138  2111 net.cpp:165] Memory required for data: 119977728
I0822 23:34:21.329141  2111 layer_factory.hpp:77] Creating layer classification_fc2_classification_fc2_0_split
I0822 23:34:21.329145  2111 net.cpp:106] Creating Layer classification_fc2_classification_fc2_0_split
I0822 23:34:21.329149  2111 net.cpp:454] classification_fc2_classification_fc2_0_split <- classification_fc2
I0822 23:34:21.329151  2111 net.cpp:411] classification_fc2_classification_fc2_0_split -> classification_fc2_classification_fc2_0_split_0
I0822 23:34:21.329155  2111 net.cpp:411] classification_fc2_classification_fc2_0_split -> classification_fc2_classification_fc2_0_split_1
I0822 23:34:21.329182  2111 net.cpp:150] Setting up classification_fc2_classification_fc2_0_split
I0822 23:34:21.329186  2111 net.cpp:157] Top shape: 64 4 (256)
I0822 23:34:21.329190  2111 net.cpp:157] Top shape: 64 4 (256)
I0822 23:34:21.329191  2111 net.cpp:165] Memory required for data: 119979776
I0822 23:34:21.329193  2111 layer_factory.hpp:77] Creating layer classification_loss
I0822 23:34:21.329198  2111 net.cpp:106] Creating Layer classification_loss
I0822 23:34:21.329206  2111 net.cpp:454] classification_loss <- classification_fc2_classification_fc2_0_split_0
I0822 23:34:21.329210  2111 net.cpp:454] classification_loss <- label_data_1_split_0
…
I0822 23:34:21.332486  2111 net.cpp:49] Initializing net from parameters: 
name: "DenseAttentionNet"
state {
  phase: TEST
}
layer {
  name: "data"
  type: "TextData"
  top: "data"
  top: "label"
  include {
    phase: TEST
  }
  text_data_param {
    label_source: "/ssd/ijcai18/data/agnews/test_label.txt"
    data_source: "/ssd/ijcai18/data/agnews/test_data.txt"
    dict_source: "/ssd/ijcai18/data/agnews/local_dic_index.txt"
    batch_size: 80
    channel: 1
    num_words: 100
    crop_height: 100
    crop_width: 300
    shuffle: false
  }
}
layer {
  name: "trans_layer_conv0"
  type: "Convolution"
  bottom: "data"
  top: "trans_layer_conv0"
  convolution_param {
    num_output: 64
    group: 1
    stride: 1
    weight_filler {
      type: "gaussian"
      std: 0.058925565
    }
    bias_filler {
      type: "constant"
      value: 0
    }
    pad_h: 0
    pad_w: 0
    kernel_h: 1
    kernel_w: 300
  }
}
layer {
  name: "trans_layer_bn0"
  type: "BatchNorm"
  bottom: "trans_layer_conv0"
  top: "trans_layer_bn0"
  param {
    lr_mult: 0
    decay_mult: 0
  }
  param {
    lr_mult: 0
    decay_mult: 0
  }
  param {
    lr_mult: 0
    decay_mult: 0
  }
}
layer {
  name: "trans_layer_relu0"
  type: "ReLU"
  bottom: "trans_layer_bn0"
  top: "trans_layer_bn0"
}
layer {
  name: "trans_layer_conv1"
  type: "Convolution"
  bottom: "trans_layer_bn0"
  top: "trans_layer_conv1"
  convolution_param {
    num_output: 64
    group: 1
    stride: 1
    weight_filler {
      type: "gaussian"
      std: 0.058925565
    }
    bias_filler {
      type: "constant"
      value: 0
    }
    pad_h: 0
    pad_w: 0
    kernel_h: 1
    kernel_w: 1
  }
}
layer {
  name: "trans_layer_bn1"
  type: "BatchNorm"
  bottom: "trans_layer_conv1"
  top: "trans_layer_bn1"
  param {
    lr_mult: 0
    decay_mult: 0
  }
  param {
    lr_mult: 0
    decay_mult: 0
  }
  param {
    lr_mult: 0
    decay_mult: 0
  }
}
layer {
  name: "trans_layer_relu1"
  type: "ReLU"
  bottom: "trans_layer_bn1"
  top: "trans_layer_bn1"
}
layer {
  name: "trans_layer_conv2"
  type: "Convolution"
  bottom: "trans_layer_bn1"
  top: "trans_layer_conv2"
  convolution_param {
    num_output: 64
    group: 1
    stride: 1
    weight_filler {
      type: "gaussian"
      std: 0.058925565
    }
    bias_filler {
      type: "constant"
      value: 0
    }
    pad_h: 0
    pad_w: 0
    kernel_h: 1
    kernel_w: 1
  }
}
layer {
  name: "trans_layer_bn2"
  type: "BatchNorm"
  bottom: "trans_layer_conv2"
  top: "trans_layer_bn2"
  param {
    lr_mult: 0
    decay_mult: 0
  }
  param {
    lr_mult: 0
    decay_mult: 0
  }
  param {
    lr_mult: 0
    decay_mult: 0
  }
}
layer {
  name: "trans_layer_relu2"
  type: "ReLU"
  bottom: "trans_layer_bn2"
  top: "trans_layer_bn2"
}
layer {
  name: "dense_layer_conv0"
  type: "Convolution"
  bottom: "trans_layer_bn2"
  top: "dense_layer_conv0"
  convolution_param {
    num_output: 64
    group: 1
    stride: 1
    weight_filler {
      type: "gaussian"
      std: 0.058925565
    }
    bias_filler {
      type: "constant"
      value: 0
    }
    pad_h: 1
    pad_w: 0
    kernel_h: 3
    kernel_w: 1
  }
}
layer {
  name: "dense_layer_concat0"
  type: "Concat"
  bottom: "dense_layer_conv0"
  bottom: "trans_layer_conv0"
  bottom: "trans_layer_conv1"
  bottom: "trans_layer_conv2"
  top: "dense_layer_concat0"
  concat_param {
    axis: 1
  }
}
layer {
  name: "dense_layer_bn0"
  type: "BatchNorm"
  bottom: "dense_layer_concat0"
  top: "dense_layer_bn0"
  param {
    lr_mult: 0
    decay_mult: 0
  }
  param {
    lr_mult: 0
    decay_mult: 0
  }
  param {
    lr_mult: 0
    decay_mult: 0
  }
}
layer {
  name: "dense_layer_relu0"
  type: "ReLU"
  bottom: "dense_layer_bn0"
  top: "dense_layer_bn0"
}
layer {
  name: "dense_layer_pool0"
  type: "Pooling"
  bottom: "dense_layer_bn0"
  top: "dense_layer_pool0"
  pooling_param {
    pool: AVE
    kernel_h: 3
    kernel_w: 1
    stride_h: 2
    stride_w: 1
    pad_h: 1
    pad_w: 0
  }
}
layer {
  name: "dense_layer_conv1"
  type: "Convolution"
  bottom: "dense_layer_pool0"
  top: "dense_layer_conv1"
  convolution_param {
    num_output: 64
    group: 1
    stride: 1
    weight_filler {
      type: "gaussian"
      std: 0.058925565
    }
    bias_filler {
      type: "constant"
      value: 0
    }
    pad_h: 1
    pad_w: 0
    kernel_h: 3
    kernel_w: 1
  }
}
layer {
  name: "dense_layer_concat1"
  type: "Concat"
  bottom: "dense_layer_conv1"
  bottom: "dense_layer_pool0"
  top: "dense_layer_concat1"
  concat_param {
    axis: 1
  }
}
layer {
  name: "dense_layer_bn1"
  type: "BatchNorm"
  bottom: "dense_layer_concat1"
  top: "dense_layer_bn1"
  param {
    lr_mult: 0
    decay_mult: 0
  }
  param {
    lr_mult: 0
    decay_mult: 0
  }
  param {
    lr_mult: 0
    decay_mult: 0
  }
}
layer {
  name: "dense_layer_relu1"
  type: "ReLU"
  bottom: "dense_layer_bn1"
  top: "dense_layer_bn1"
}
layer {
  name: "dense_layer_pool1"
  type: "Pooling"
  bottom: "dense_layer_bn1"
  top: "dense_layer_pool1"
  pooling_param {
    pool: AVE
    kernel_h: 3
    kernel_w: 1
    stride_h: 2
    stride_w: 1
    pad_h: 1
    pad_w: 0
  }
}
layer {
  name: "dense_layer_conv2"
  type: "Convolution"
  bottom: "dense_layer_pool1"
  top: "dense_layer_conv2"
  convolution_param {
    num_output: 64
    group: 1
    stride: 1
    weight_filler {
      type: "gaussian"
      std: 0.058925565
    }
    bias_filler {
      type: "constant"
      value: 0
    }
    pad_h: 1
    pad_w: 0
    kernel_h: 3
    kernel_w: 1
  }
}
layer {
  name: "dense_layer_concat2"
  type: "Concat"
  bottom: "dense_layer_conv2"
  bottom: "dense_layer_pool1"
  top: "dense_layer_concat2"
  concat_param {
    axis: 1
  }
}
layer {
  name: "dense_layer_bn2"
  type: "BatchNorm"
  bottom: "dense_layer_concat2"
  top: "dense_layer_bn2"
  param {
    lr_mult: 0
    decay_mult: 0
  }
  param {
    lr_mult: 0
    decay_mult: 0
  }
  param {
    lr_mult: 0
    decay_mult: 0
  }
}
layer {
  name: "dense_layer_relu2"
  type: "ReLU"
  bottom: "dense_layer_bn2"
  top: "dense_layer_bn2"
}
layer {
  name: "dense_layer_pool2"
  type: "Pooling"
  bottom: "dense_layer_bn2"
  top: "dense_layer_pool2"
  pooling_param {
    pool: AVE
    kernel_h: 3
    kernel_w: 1
    stride_h: 2
    stride_w: 1
    pad_h: 1
    pad_w: 0
  }
}
layer {
  name: "dense_layer_conv3"
  type: "Convolution"
  bottom: "dense_layer_pool2"
  top: "dense_layer_conv3"
  convolution_param {
    num_output: 64
    group: 1
    stride: 1
    weight_filler {
      type: "gaussian"
      std: 0.058925565
    }
    bias_filler {
      type: "constant"
      value: 0
    }
    pad_h: 1
    pad_w: 0
    kernel_h: 3
    kernel_w: 1
  }
}
layer {
  name: "dense_layer_concat3"
  type: "Concat"
  bottom: "dense_layer_conv3"
  bottom: "dense_layer_pool2"
  top: "dense_layer_concat3"
  concat_param {
    axis: 1
  }
}
layer {
  name: "dense_layer_bn3"
  type: "BatchNorm"
  bottom: "dense_layer_concat3"
  top: "dense_layer_bn3"
  param {
    lr_mult: 0
    decay_mult: 0
  }
  param {
    lr_mult: 0
    decay_mult: 0
  }
  param {
    lr_mult: 0
    decay_mult: 0
  }
}
layer {
  name: "dense_layer_relu3"
  type: "ReLU"
  bottom: "dense_layer_bn3"
  top: "dense_layer_bn3"
}
layer {
  name: "dense_layer_pool3"
  type: "Pooling"
  bottom: "dense_layer_bn3"
  top: "dense_layer_pool3"
  pooling_param {
    pool: AVE
    kernel_h: 3
    kernel_w: 1
    stride_h: 2
    stride_w: 1
    pad_h: 1
    pad_w: 0
  }
}
layer {
  name: "dense_layer_conv4"
  type: "Convolution"
  bottom: "dense_layer_pool3"
  top: "dense_layer_conv4"
  convolution_param {
    num_output: 64
    group: 1
    stride: 1
    weight_filler {
      type: "gaussian"
      std: 0.058925565
    }
    bias_filler {
      type: "constant"
      value: 0
    }
    pad_h: 1
    pad_w: 0
    kernel_h: 3
    kernel_w: 1
  }
}
layer {
  name: "dense_layer_concat4"
  type: "Concat"
  bottom: "dense_layer_conv4"
  bottom: "dense_layer_pool3"
  top: "dense_layer_concat4"
  concat_param {
    axis: 1
  }
}
layer {
  name: "dense_layer_bn4"
  type: "BatchNorm"
  bottom: "dense_layer_concat4"
  top: "dense_layer_bn4"
  param {
    lr_mult: 0
    decay_mult: 0
  }
  param {
    lr_mult: 0
    decay_mult: 0
  }
  param {
    lr_mult: 0
    decay_mult: 0
  }
}
layer {
  name: "dense_layer_relu4"
  type: "ReLU"
  bottom: "dense_layer_bn4"
  top: "dense_layer_bn4"
}
layer {
  name: "attention_layer_conv0"
  type: "Convolution"
  bottom: "dense_layer_bn4"
  top: "attention_layer_conv0"
  convolution_param {
    num_output: 512
    group: 8
    stride: 1
    weight_filler {
      type: "gaussian"
      std: 0.058925565
    }
    bias_filler {
      type: "constant"
      value: 0
    }
    pad_h: 0
    pad_w: 0
    kernel_h: 1
    kernel_w: 1
  }
}
layer {
  name: "attention_layer_bn0"
  type: "BatchNorm"
  bottom: "attention_layer_conv0"
  top: "attention_layer_bn0"
  param {
    lr_mult: 0
    decay_mult: 0
  }
  param {
    lr_mult: 0
    decay_mult: 0
  }
  param {
    lr_mult: 0
    decay_mult: 0
  }
}
layer {
  name: "attention_layer_relu0"
  type: "ReLU"
  bottom: "attention_layer_bn0"
  top: "attention_layer_bn0"
}
layer {
  name: "attention_layer_conv1"
  type: "Convolution"
  bottom: "attention_layer_bn0"
  top: "attention_layer_conv1"
  convolution_param {
    num_output: 512
    group: 8
    stride: 1
    weight_filler {
      type: "gaussian"
      std: 0.058925565
    }
    bias_filler {
      type: "constant"
      value: 0
    }
    pad_h: 0
    pad_w: 0
    kernel_h: 1
    kernel_w: 1
  }
}
layer {
  name: "attention_layer_bn1"
  type: "BatchNorm"
  bottom: "attention_layer_conv1"
  top: "attention_layer_bn1"
  param {
    lr_mult: 0
    decay_mult: 0
  }
  param {
    lr_mult: 0
    decay_mult: 0
  }
  param {
    lr_mult: 0
    decay_mult: 0
  }
}
layer {
  name: "attention_layer_relu1"
  type: "ReLU"
  bottom: "attention_layer_bn1"
  top: "attention_layer_bn1"
}
layer {
  name: "attention_scale_slice"
  type: "Slice"
  bottom: "attention_layer_bn1"
  top: "attention_scale0"
  top: "attention_scale1"
  top: "attention_scale2"
  top: "attention_scale3"
  top: "attention_scale4"
  top: "attention_scale5"
  top: "attention_scale6"
  top: "attention_scale7"
  slice_param {
    slice_point: 64
    slice_point: 128
    slice_point: 192
    slice_point: 256
    slice_point: 320
    slice_point: 384
    slice_point: 448
    axis: 1
  }
}
layer {
  name: "attention_permute0"
  type: "Permute"
  bottom: "attention_scale0"
  top: "attention_permute0"
  permute_param {
    order: 0
    order: 3
    order: 2
    order: 1
  }
}
layer {
  name: "attention_reduction0"
  type: "Reduction"
  bottom: "attention_permute0"
  top: "attention_reduction0"
  reduction_param {
    axis: 3
  }
}
layer {
  name: "attention_permute1"
  type: "Permute"
  bottom: "attention_scale1"
  top: "attention_permute1"
  permute_param {
    order: 0
    order: 3
    order: 2
    order: 1
  }
}
layer {
  name: "attention_reduction1"
  type: "Reduction"
  bottom: "attention_permute1"
  top: "attention_reduction1"
  reduction_param {
    axis: 3
  }
}
layer {
  name: "attention_permute2"
  type: "Permute"
  bottom: "attention_scale2"
  top: "attention_permute2"
  permute_param {
    order: 0
    order: 3
    order: 2
    order: 1
  }
}
layer {
  name: "attention_reduction2"
  type: "Reduction"
  bottom: "attention_permute2"
  top: "attention_reduction2"
  reduction_param {
    axis: 3
  }
}
layer {
  name: "attention_permute3"
  type: "Permute"
  bottom: "attention_scale3"
  top: "attention_permute3"
  permute_param {
    order: 0
    order: 3
    order: 2
    order: 1
  }
}
layer {
  name: "attention_reduction3"
  type: "Reduction"
  bottom: "attention_permute3"
  top: "attention_reduction3"
  reduction_param {
    axis: 3
  }
}
layer {
  name: "attention_permute4"
  type: "Permute"
  bottom: "attention_scale4"
  top: "attention_permute4"
  permute_param {
    order: 0
    order: 3
    order: 2
    order: 1
  }
}
layer {
  name: "attention_reduction4"
  type: "Reduction"
  bottom: "attention_permute4"
  top: "attention_reduction4"
  reduction_param {
    axis: 3
  }
}
layer {
  name: "attention_permute5"
  type: "Permute"
  bottom: "attention_scale5"
  top: "attention_permute5"
  permute_param {
    order: 0
    order: 3
    order: 2
    order: 1
  }
}
layer {
  name: "attention_reduction5"
  type: "Reduction"
  bottom: "attention_permute5"
  top: "attention_reduction5"
  reduction_param {
    axis: 3
  }
}
layer {
  name: "attention_permute6"
  type: "Permute"
  bottom: "attention_scale6"
  top: "attention_permute6"
  permute_param {
    order: 0
    order: 3
    order: 2
    order: 1
  }
}
layer {
  name: "attention_reduction6"
  type: "Reduction"
  bottom: "attention_permute6"
  top: "attention_reduction6"
  reduction_param {
    axis: 3
  }
}
layer {
  name: "attention_permute7"
  type: "Permute"
  bottom: "attention_scale7"
  top: "attention_permute7"
  permute_param {
    order: 0
    order: 3
    order: 2
    order: 1
  }
}
layer {
  name: "attention_reduction7"
  type: "Reduction"
  bottom: "attention_permute7"
  top: "attention_reduction7"
  reduction_param {
    axis: 3
  }
}
layer {
  name: "attention_scale_concat"
  type: "Concat"
  bottom: "attention_reduction0"
  bottom: "attention_reduction1"
  bottom: "attention_reduction2"
  bottom: "attention_reduction3"
  bottom: "attention_reduction4"
  bottom: "attention_reduction5"
  bottom: "attention_reduction6"
  bottom: "attention_reduction7"
  top: "attention_scale_concat"
  concat_param {
    axis: 1
  }
}
layer {
  name: "attention_height_slice"
  type: "Slice"
  bottom: "attention_scale_concat"
  top: "attention_height0"
  top: "attention_height1"
  top: "attention_height2"
  top: "attention_height3"
  top: "attention_height4"
  top: "attention_height5"
  top: "attention_height6"
  top: "attention_height7"
  slice_param {
    slice_point: 1
    slice_point: 2
    slice_point: 3
    slice_point: 4
    slice_point: 5
    slice_point: 6
    slice_point: 7
    axis: 2
  }
}
layer {
  name: "attention_height_fc1_0"
  type: "InnerProduct"
  bottom: "attention_height0"
  top: "attention_height_fc1_0"
  inner_product_param {
    num_output: 64
    weight_filler {
      type: "gaussian"
      std: 0.001
    }
    bias_filler {
      type: "constant"
      value: 0
    }
  }
}
layer {
  name: "attention_height_fc2_0"
  type: "InnerProduct"
  bottom: "attention_height_fc1_0"
  top: "attention_height_fc2_0"
  inner_product_param {
    num_output: 32
    weight_filler {
      type: "gaussian"
      std: 0.001
    }
    bias_filler {
      type: "constant"
      value: 0
    }
  }
}
layer {
  name: "attention_height_fc3_0"
  type: "InnerProduct"
  bottom: "attention_height_fc2_0"
  top: "attention_height_fc3_0"
  inner_product_param {
    num_output: 8
    weight_filler {
      type: "gaussian"
      std: 0.001
    }
    bias_filler {
      type: "constant"
      value: 0
    }
  }
}
layer {
  name: "attention_height_reshape0"
  type: "Reshape"
  bottom: "attention_height_fc3_0"
  top: "attention_height_reshape0"
  reshape_param {
    shape {
      dim: 0
      dim: 0
      dim: 1
      dim: 1
    }
  }
}
layer {
  name: "attention_height_fc1_1"
  type: "InnerProduct"
  bottom: "attention_height1"
  top: "attention_height_fc1_1"
  inner_product_param {
    num_output: 64
    weight_filler {
      type: "gaussian"
      std: 0.001
    }
    bias_filler {
      type: "constant"
      value: 0
    }
  }
}
layer {
  name: "attention_height_fc2_1"
  type: "InnerProduct"
  bottom: "attention_height_fc1_1"
  top: "attention_height_fc2_1"
  inner_product_param {
    num_output: 32
    weight_filler {
      type: "gaussian"
      std: 0.001
    }
    bias_filler {
      type: "constant"
      value: 0
    }
  }
}
layer {
  name: "attention_height_fc3_1"
  type: "InnerProduct"
  bottom: "attention_height_fc2_1"
  top: "attention_height_fc3_1"
  inner_product_param {
    num_output: 8
    weight_filler {
      type: "gaussian"
      std: 0.001
    }
    bias_filler {
      type: "constant"
      value: 0
    }
  }
}
layer {
  name: "attention_height_reshape1"
  type: "Reshape"
  bottom: "attention_height_fc3_1"
  top: "attention_height_reshape1"
  reshape_param {
    shape {
      dim: 0
      dim: 0
      dim: 1
      dim: 1
    }
  }
}
layer {
  name: "attention_height_fc1_2"
  type: "InnerProduct"
  bottom: "attention_height2"
  top: "attention_height_fc1_2"
  inner_product_param {
    num_output: 64
    weight_filler {
      type: "gaussian"
      std: 0.001
    }
    bias_filler {
      type: "constant"
      value: 0
    }
  }
}
layer {
  name: "attention_height_fc2_2"
  type: "InnerProduct"
  bottom: "attention_height_fc1_2"
  top: "attention_height_fc2_2"
  inner_product_param {
    num_output: 32
    weight_filler {
      type: "gaussian"
      std: 0.001
    }
    bias_filler {
      type: "constant"
      value: 0
    }
  }
}
layer {
  name: "attention_height_fc3_2"
  type: "InnerProduct"
  bottom: "attention_height_fc2_2"
  top: "attention_height_fc3_2"
  inner_product_param {
    num_output: 8
    weight_filler {
      type: "gaussian"
      std: 0.001
    }
    bias_filler {
      type: "constant"
      value: 0
    }
  }
}
layer {
  name: "attention_height_reshape2"
  type: "Reshape"
  bottom: "attention_height_fc3_2"
  top: "attention_height_reshape2"
  reshape_param {
    shape {
      dim: 0
      dim: 0
      dim: 1
      dim: 1
    }
  }
}
layer {
  name: "attention_height_fc1_3"
  type: "InnerProduct"
  bottom: "attention_height3"
  top: "attention_height_fc1_3"
  inner_product_param {
    num_output: 64
    weight_filler {
      type: "gaussian"
      std: 0.001
    }
    bias_filler {
      type: "constant"
      value: 0
    }
  }
}
layer {
  name: "attention_height_fc2_3"
  type: "InnerProduct"
  bottom: "attention_height_fc1_3"
  top: "attention_height_fc2_3"
  inner_product_param {
    num_output: 32
    weight_filler {
      type: "gaussian"
      std: 0.001
    }
    bias_filler {
      type: "constant"
      value: 0
    }
  }
}
layer {
  name: "attention_height_fc3_3"
  type: "InnerProduct"
  bottom: "attention_height_fc2_3"
  top: "attention_height_fc3_3"
  inner_product_param {
    num_output: 8
    weight_filler {
      type: "gaussian"
      std: 0.001
    }
    bias_filler {
      type: "constant"
      value: 0
    }
  }
}
layer {
  name: "attention_height_reshape3"
  type: "Reshape"
  bottom: "attention_height_fc3_3"
  top: "attention_height_reshape3"
  reshape_param {
    shape {
      dim: 0
      dim: 0
      dim: 1
      dim: 1
    }
  }
}
layer {
  name: "attention_height_fc1_4"
  type: "InnerProduct"
  bottom: "attention_height4"
  top: "attention_height_fc1_4"
  inner_product_param {
    num_output: 64
    weight_filler {
      type: "gaussian"
      std: 0.001
    }
    bias_filler {
      type: "constant"
      value: 0
    }
  }
}
layer {
  name: "attention_height_fc2_4"
  type: "InnerProduct"
  bottom: "attention_height_fc1_4"
  top: "attention_height_fc2_4"
  inner_product_param {
    num_output: 32
    weight_filler {
      type: "gaussian"
      std: 0.001
    }
    bias_filler {
      type: "constant"
      value: 0
    }
  }
}
layer {
  name: "attention_height_fc3_4"
  type: "InnerProduct"
  bottom: "attention_height_fc2_4"
  top: "attention_height_fc3_4"
  inner_product_param {
    num_output: 8
    weight_filler {
      type: "gaussian"
      std: 0.001
    }
    bias_filler {
      type: "constant"
      value: 0
    }
  }
}
layer {
  name: "attention_height_reshape4"
  type: "Reshape"
  bottom: "attention_height_fc3_4"
  top: "attention_height_reshape4"
  reshape_param {
    shape {
      dim: 0
      dim: 0
      dim: 1
      dim: 1
    }
  }
}
layer {
  name: "attention_height_fc1_5"
  type: "InnerProduct"
  bottom: "attention_height5"
  top: "attention_height_fc1_5"
  inner_product_param {
    num_output: 64
    weight_filler {
      type: "gaussian"
      std: 0.001
    }
    bias_filler {
      type: "constant"
      value: 0
    }
  }
}
layer {
  name: "attention_height_fc2_5"
  type: "InnerProduct"
  bottom: "attention_height_fc1_5"
  top: "attention_height_fc2_5"
  inner_product_param {
    num_output: 32
    weight_filler {
      type: "gaussian"
      std: 0.001
    }
    bias_filler {
      type: "constant"
      value: 0
    }
  }
}
layer {
  name: "attention_height_fc3_5"
  type: "InnerProduct"
  bottom: "attention_height_fc2_5"
  top: "attention_height_fc3_5"
  inner_product_param {
    num_output: 8
    weight_filler {
      type: "gaussian"
      std: 0.001
    }
    bias_filler {
      type: "constant"
      value: 0
    }
  }
}
layer {
  name: "attention_height_reshape5"
  type: "Reshape"
  bottom: "attention_height_fc3_5"
  top: "attention_height_reshape5"
  reshape_param {
    shape {
      dim: 0
      dim: 0
      dim: 1
      dim: 1
    }
  }
}
layer {
  name: "attention_height_fc1_6"
  type: "InnerProduct"
  bottom: "attention_height6"
  top: "attention_height_fc1_6"
  inner_product_param {
    num_output: 64
    weight_filler {
      type: "gaussian"
      std: 0.001
    }
    bias_filler {
      type: "constant"
      value: 0
    }
  }
}
layer {
  name: "attention_height_fc2_6"
  type: "InnerProduct"
  bottom: "attention_height_fc1_6"
  top: "attention_height_fc2_6"
  inner_product_param {
    num_output: 32
    weight_filler {
      type: "gaussian"
      std: 0.001
    }
    bias_filler {
      type: "constant"
      value: 0
    }
  }
}
layer {
  name: "attention_height_fc3_6"
  type: "InnerProduct"
  bottom: "attention_height_fc2_6"
  top: "attention_height_fc3_6"
  inner_product_param {
    num_output: 8
    weight_filler {
      type: "gaussian"
      std: 0.001
    }
    bias_filler {
      type: "constant"
      value: 0
    }
  }
}
layer {
  name: "attention_height_reshape6"
  type: "Reshape"
  bottom: "attention_height_fc3_6"
  top: "attention_height_reshape6"
  reshape_param {
    shape {
      dim: 0
      dim: 0
      dim: 1
      dim: 1
    }
  }
}
layer {
  name: "attention_height_fc1_7"
  type: "InnerProduct"
  bottom: "attention_height7"
  top: "attention_height_fc1_7"
  inner_product_param {
    num_output: 64
    weight_filler {
      type: "gaussian"
      std: 0.001
    }
    bias_filler {
      type: "constant"
      value: 0
    }
  }
}
layer {
  name: "attention_height_fc2_7"
  type: "InnerProduct"
  bottom: "attention_height_fc1_7"
  top: "attention_height_fc2_7"
  inner_product_param {
    num_output: 32
    weight_filler {
      type: "gaussian"
      std: 0.001
    }
    bias_filler {
      type: "constant"
      value: 0
    }
  }
}
layer {
  name: "attention_height_fc3_7"
  type: "InnerProduct"
  bottom: "attention_height_fc2_7"
  top: "attention_height_fc3_7"
  inner_product_param {
    num_output: 8
    weight_filler {
      type: "gaussian"
      std: 0.001
    }
    bias_filler {
      type: "constant"
      value: 0
    }
  }
}
layer {
  name: "attention_height_reshape7"
  type: "Reshape"
  bottom: "attention_height_fc3_7"
  top: "attention_height_reshape7"
  reshape_param {
    shape {
      dim: 0
      dim: 0
      dim: 1
      dim: 1
    }
  }
}
layer {
  name: "attention_height_concat"
  type: "Concat"
  bottom: "attention_height_reshape0"
  bottom: "attention_height_reshape1"
  bottom: "attention_height_reshape2"
  bottom: "attention_height_reshape3"
  bottom: "attention_height_reshape4"
  bottom: "attention_height_reshape5"
  bottom: "attention_height_reshape6"
  bottom: "attention_height_reshape7"
  top: "attention_height_concat"
  concat_param {
    axis: 2
  }
}
layer {
  name: "attention_weight"
  type: "Softmax"
  bottom: "attention_height_concat"
  top: "attention_weight"
}
layer {
  name: "attention_weight_slice"
  type: "Slice"
  bottom: "attention_weight"
  top: "attention_weight_slice0"
  top: "attention_weight_slice1"
  top: "attention_weight_slice2"
  top: "attention_weight_slice3"
  top: "attention_weight_slice4"
  top: "attention_weight_slice5"
  top: "attention_weight_slice6"
  top: "attention_weight_slice7"
  slice_param {
    slice_point: 1
    slice_point: 2
    slice_point: 3
    slice_point: 4
    slice_point: 5
    slice_point: 6
    slice_point: 7
    axis: 1
  }
}
layer {
  name: "attention_weight_tile0"
  type: "Tile"
  bottom: "attention_weight_slice0"
  top: "attention_weight_tile0"
  tile_param {
    axis: 1
    tiles: 64
  }
}
layer {
  name: "attention_reweight0"
  type: "Eltwise"
  bottom: "attention_scale0"
  bottom: "attention_weight_tile0"
  top: "attention_reweight0"
  eltwise_param {
    operation: PROD
  }
}
layer {
  name: "attention_weight_tile1"
  type: "Tile"
  bottom: "attention_weight_slice1"
  top: "attention_weight_tile1"
  tile_param {
    axis: 1
    tiles: 64
  }
}
layer {
  name: "attention_reweight1"
  type: "Eltwise"
  bottom: "attention_scale1"
  bottom: "attention_weight_tile1"
  top: "attention_reweight1"
  eltwise_param {
    operation: PROD
  }
}
layer {
  name: "attention_weight_tile2"
  type: "Tile"
  bottom: "attention_weight_slice2"
  top: "attention_weight_tile2"
  tile_param {
    axis: 1
    tiles: 64
  }
}
layer {
  name: "attention_reweight2"
  type: "Eltwise"
  bottom: "attention_scale2"
  bottom: "attention_weight_tile2"
  top: "attention_reweight2"
  eltwise_param {
    operation: PROD
  }
}
layer {
  name: "attention_weight_tile3"
  type: "Tile"
  bottom: "attention_weight_slice3"
  top: "attention_weight_tile3"
  tile_param {
    axis: 1
    tiles: 64
  }
}
layer {
  name: "attention_reweight3"
  type: "Eltwise"
  bottom: "attention_scale3"
  bottom: "attention_weight_tile3"
  top: "attention_reweight3"
  eltwise_param {
    operation: PROD
  }
}
layer {
  name: "attention_weight_tile4"
  type: "Tile"
  bottom: "attention_weight_slice4"
  top: "attention_weight_tile4"
  tile_param {
    axis: 1
    tiles: 64
  }
}
layer {
  name: "attention_reweight4"
  type: "Eltwise"
  bottom: "attention_scale4"
  bottom: "attention_weight_tile4"
  top: "attention_reweight4"
  eltwise_param {
    operation: PROD
  }
}
layer {
  name: "attention_weight_tile5"
  type: "Tile"
  bottom: "attention_weight_slice5"
  top: "attention_weight_tile5"
  tile_param {
    axis: 1
    tiles: 64
  }
}
layer {
  name: "attention_reweight5"
  type: "Eltwise"
  bottom: "attention_scale5"
  bottom: "attention_weight_tile5"
  top: "attention_reweight5"
  eltwise_param {
    operation: PROD
  }
}
layer {
  name: "attention_weight_tile6"
  type: "Tile"
  bottom: "attention_weight_slice6"
  top: "attention_weight_tile6"
  tile_param {
    axis: 1
    tiles: 64
  }
}
layer {
  name: "attention_reweight6"
  type: "Eltwise"
  bottom: "attention_scale6"
  bottom: "attention_weight_tile6"
  top: "attention_reweight6"
  eltwise_param {
    operation: PROD
  }
}
layer {
  name: "attention_weight_tile7"
  type: "Tile"
  bottom: "attention_weight_slice7"
  top: "attention_weight_tile7"
  tile_param {
    axis: 1
    tiles: 64
  }
}
layer {
  name: "attention_reweight7"
  type: "Eltwise"
  bottom: "attention_scale7"
  bottom: "attention_weight_tile7"
  top: "attention_reweight7"
  eltwise_param {
    operation: PROD
  }
}
layer {
  name: "attention_reweight_sum"
  type: "Eltwise"
  bottom: "attention_reweight0"
  bottom: "attention_reweight1"
  bottom: "attention_reweight2"
  bottom: "attention_reweight3"
  bottom: "attention_reweight4"
  bottom: "attention_reweight5"
  bottom: "attention_reweight6"
  bottom: "attention_reweight7"
  top: "attention_reweight_sum"
  eltwise_param {
    operation: SUM
  }
}
layer {
  name: "attention_reweight_flatten"
  type: "Flatten"
  bottom: "attention_reweight_sum"
  top: "attention_reweight_flatten"
}
layer {
  name: "attention_reweight_dropout"
  type: "Dropout"
  bottom: "attention_reweight_flatten"
  top: "attention_reweight_dropout"
  dropout_param {
    dropout_ratio: 0.7
  }
}
layer {
  name: "classification_fc1"
  type: "InnerProduct"
  bottom: "attention_reweight_dropout"
  top: "classification_fc1"
  inner_product_param {
    num_output: 64
    weight_filler {
      type: "gaussian"
      std: 0.001
    }
    bias_filler {
      type: "constant"
      value: 0
    }
  }
}
layer {
  name: "classification_dropout"
  type: "Dropout"
  bottom: "classification_fc1"
  top: "classification_dropout"
  dropout_param {
    dropout_ratio: 0.7
  }
}
layer {
  name: "classification_fc2"
  type: "InnerProduct"
  bottom: "classification_dropout"
  top: "classification_fc2"
  param {
    lr_mult: 10
    decay_mult: 2
  }
  param {
    lr_mult: 10
    decay_mult: 2
  }
  inner_product_param {
    num_output: 4
    weight_filler {
      type: "gaussian"
      std: 0.001
    }
    bias_filler {
      type: "constant"
      value: 0
    }
  }
}
layer {
  name: "classification_loss"
  type: "SoftmaxWithLoss"
  bottom: "classification_fc2"
  bottom: "label"
  top: "classification_loss"
  loss_weight: 1
}
layer {
  name: "classification_accuracy"
  type: "Accuracy"
  bottom: "classification_fc2"
  bottom: "label"
  top: "classification_accuracy"
}
I0822 23:34:21.334229  2111 layer_factory.hpp:77] Creating layer data
I0822 23:34:21.334241  2111 net.cpp:106] Creating Layer data
I0822 23:34:21.334244  2111 net.cpp:411] data -> data
I0822 23:34:21.334250  2111 net.cpp:411] data -> label
I0822 23:34:21.334627  2111 text_data_layer.cpp:83] read label done (7600 samples)
I0822 23:34:21.334631  2111 text_data_layer.cpp:86] Reading content
I0822 23:34:21.335728  2111 text_data_layer.cpp:102] read content done: #7600 samples.
I0822 23:34:21.335777  2111 text_data_layer.cpp:117] output data size: 80,1,100,300
I0822 23:34:21.335826  2111 text_data_layer.cpp:125] Reading vector dict...
I0822 23:34:25.863332  2111 text_data_layer.cpp:132] vec_dict size: 56249
I0822 23:34:25.874315  2111 net.cpp:150] Setting up data
I0822 23:34:25.874349  2111 net.cpp:157] Top shape: 80 1 100 300 (2400000)
I0822 23:34:25.874354  2111 net.cpp:157] Top shape: 80 (80)
I0822 23:34:25.874356  2111 net.cpp:165] Memory required for data: 9600320
I0822 23:34:25.874362  2111 layer_factory.hpp:77] Creating layer label_data_1_split
I0822 23:34:25.874373  2111 net.cpp:106] Creating Layer label_data_1_split
I0822 23:34:25.874377  2111 net.cpp:454] label_data_1_split <- label
I0822 23:34:25.874382  2111 net.cpp:411] label_data_1_split -> label_data_1_split_0
I0822 23:34:25.874389  2111 net.cpp:411] label_data_1_split -> label_data_1_split_1
I0822 23:34:25.874431  2111 net.cpp:150] Setting up label_data_1_split
I0822 23:34:25.874438  2111 net.cpp:157] Top shape: 80 (80)
I0822 23:34:25.874440  2111 net.cpp:157] Top shape: 80 (80)
I0822 23:34:25.874444  2111 net.cpp:165] Memory required for data: 9600960
I0822 23:34:25.874445  2111 layer_factory.hpp:77] Creating layer trans_layer_conv0
I0822 23:34:25.874455  2111 net.cpp:106] Creating Layer trans_layer_conv0
I0822 23:34:25.874460  2111 net.cpp:454] trans_layer_conv0 <- data
I0822 23:34:25.874465  2111 net.cpp:411] trans_layer_conv0 -> trans_layer_conv0
I0822 23:34:25.875169  2111 net.cpp:150] Setting up trans_layer_conv0
I0822 23:34:25.875177  2111 net.cpp:157] Top shape: 80 64 100 1 (512000)
I0822 23:34:25.875191  2111 net.cpp:165] Memory required for data: 11648960
I0822 23:34:25.875200  2111 layer_factory.hpp:77] Creating layer trans_layer_conv0_trans_layer_conv0_0_split
I0822 23:34:25.875205  2111 net.cpp:106] Creating Layer trans_layer_conv0_trans_layer_conv0_0_split
I0822 23:34:25.875208  2111 net.cpp:454] trans_layer_conv0_trans_layer_conv0_0_split <- trans_layer_conv0
I0822 23:34:25.875211  2111 net.cpp:411] trans_layer_conv0_trans_layer_conv0_0_split -> trans_layer_conv0_trans_layer_conv0_0_split_0
I0822 23:34:25.875216  2111 net.cpp:411] trans_layer_conv0_trans_layer_conv0_0_split -> trans_layer_conv0_trans_layer_conv0_0_split_1
I0822 23:34:25.875241  2111 net.cpp:150] Setting up trans_layer_conv0_trans_layer_conv0_0_split
I0822 23:34:25.875247  2111 net.cpp:157] Top shape: 80 64 100 1 (512000)
I0822 23:34:25.875250  2111 net.cpp:157] Top shape: 80 64 100 1 (512000)
I0822 23:34:25.875253  2111 net.cpp:165] Memory required for data: 15744960
I0822 23:34:25.875255  2111 layer_factory.hpp:77] Creating layer trans_layer_bn0
I0822 23:34:25.875262  2111 net.cpp:106] Creating Layer trans_layer_bn0
I0822 23:34:25.875264  2111 net.cpp:454] trans_layer_bn0 <- trans_layer_conv0_trans_layer_conv0_0_split_0
I0822 23:34:25.875268  2111 net.cpp:411] trans_layer_bn0 -> trans_layer_bn0
I0822 23:34:25.875394  2111 net.cpp:150] Setting up trans_layer_bn0
I0822 23:34:25.875401  2111 net.cpp:157] Top shape: 80 64 100 1 (512000)
I0822 23:34:25.875403  2111 net.cpp:165] Memory required for data: 17792960
I0822 23:34:25.875411  2111 layer_factory.hpp:77] Creating layer trans_layer_relu0
I0822 23:34:25.875416  2111 net.cpp:106] Creating Layer trans_layer_relu0
I0822 23:34:25.875419  2111 net.cpp:454] trans_layer_relu0 <- trans_layer_bn0
I0822 23:34:25.875422  2111 net.cpp:397] trans_layer_relu0 -> trans_layer_bn0 (in-place)
I0822 23:34:25.875427  2111 net.cpp:150] Setting up trans_layer_relu0
I0822 23:34:25.875430  2111 net.cpp:157] Top shape: 80 64 100 1 (512000)
I0822 23:34:25.875432  2111 net.cpp:165] Memory required for data: 19840960
I0822 23:34:25.875435  2111 layer_factory.hpp:77] Creating layer trans_layer_conv1
I0822 23:34:25.875440  2111 net.cpp:106] Creating Layer trans_layer_conv1
…
I0822 23:34:25.889997  2111 net.cpp:454] attention_scale6_attention_scale_slice_6_split <- attention_scale6
I0822 23:34:25.890000  2111 net.cpp:411] attention_scale6_attention_scale_slice_6_split -> attention_scale6_attention_scale_slice_6_split_0
I0822 23:34:25.890003  2111 net.cpp:411] attention_scale6_attention_scale_slice_6_split -> attention_scale6_attention_scale_slice_6_split_1
I0822 23:34:25.890027  2111 net.cpp:150] Setting up attention_scale6_attention_scale_slice_6_split
I0822 23:34:25.890031  2111 net.cpp:157] Top shape: 80 64 8 1 (40960)
I0822 23:34:25.890034  2111 net.cpp:157] Top shape: 80 64 8 1 (40960)
I0822 23:34:25.890036  2111 net.cpp:165] Memory required for data: 144768960
I0822 23:34:25.890038  2111 layer_factory.hpp:77] Creating layer attention_scale7_attention_scale_slice_7_split
I0822 23:34:25.890043  2111 net.cpp:106] Creating Layer attention_scale7_attention_scale_slice_7_split
I0822 23:34:25.890044  2111 net.cpp:454] attention_scale7_attention_scale_slice_7_split <- attention_scale7
I0822 23:34:25.890048  2111 net.cpp:411] attention_scale7_attention_scale_slice_7_split -> attention_scale7_attention_scale_slice_7_split_0
I0822 23:34:25.890053  2111 net.cpp:411] attention_scale7_attention_scale_slice_7_split -> attention_scale7_attention_scale_slice_7_split_1
I0822 23:34:25.890072  2111 net.cpp:150] Setting up attention_scale7_attention_scale_slice_7_split
I0822 23:34:25.890075  2111 net.cpp:157] Top shape: 80 64 8 1 (40960)
I0822 23:34:25.890079  2111 net.cpp:157] Top shape: 80 64 8 1 (40960)
I0822 23:34:25.890080  2111 net.cpp:165] Memory required for data: 145096640
I0822 23:34:25.890082  2111 layer_factory.hpp:77] Creating layer attention_permute0
I0822 23:34:25.890087  2111 net.cpp:106] Creating Layer attention_permute0
I0822 23:34:25.890091  2111 net.cpp:454] attention_permute0 <- attention_scale0_attention_scale_slice_0_split_0
I0822 23:34:25.890095  2111 net.cpp:411] attention_permute0 -> attention_permute0
I0822 23:34:25.890153  2111 net.cpp:150] Setting up attention_permute0
I0822 23:34:25.890157  2111 net.cpp:157] Top shape: 80 1 8 64 (40960)
I0822 23:34:25.890159  2111 net.cpp:165] Memory required for data: 145260480
I0822 23:34:25.890161  2111 layer_factory.hpp:77] Creating layer attention_reduction0
I0822 23:34:25.890166  2111 net.cpp:106] Creating Layer attention_reduction0
I0822 23:34:25.890169  2111 net.cpp:454] attention_reduction0 <- attention_permute0
I0822 23:34:25.890172  2111 net.cpp:411] attention_reduction0 -> attention_reduction0
I0822 23:34:25.890215  2111 net.cpp:150] Setting up attention_reduction0
I0822 23:34:25.890219  2111 net.cpp:157] Top shape: 80 1 8 (640)
I0822 23:34:25.890233  2111 net.cpp:165] Memory required for data: 145263040
I0822 23:34:25.890234  2111 layer_factory.hpp:77] Creating layer attention_permute1
I0822 23:34:25.890239  2111 net.cpp:106] Creating Layer attention_permute1
I0822 23:34:25.890241  2111 net.cpp:454] attention_permute1 <- attention_scale1_attention_scale_slice_1_split_0
I0822 23:34:25.890244  2111 net.cpp:411] attention_permute1 -> attention_permute1
I0822 23:34:25.890301  2111 net.cpp:150] Setting up attention_permute1
I0822 23:34:25.890305  2111 net.cpp:157] Top shape: 80 1 8 64 (40960)
I0822 23:34:25.890307  2111 net.cpp:165] Memory required for data: 145426880
I0822 23:34:25.890310  2111 layer_factory.hpp:77] Creating layer attention_reduction1
I0822 23:34:25.890313  2111 net.cpp:106] Creating Layer attention_reduction1
I0822 23:34:25.890316  2111 net.cpp:454] attention_reduction1 <- attention_permute1
I0822 23:34:25.890318  2111 net.cpp:411] attention_reduction1 -> attention_reduction1
I0822 23:34:25.890350  2111 net.cpp:150] Setting up attention_reduction1
I0822 23:34:25.890354  2111 net.cpp:157] Top shape: 80 1 8 (640)
I0822 23:34:25.890357  2111 net.cpp:165] Memory required for data: 145429440
I0822 23:34:25.890359  2111 layer_factory.hpp:77] Creating layer attention_permute2
I0822 23:34:25.890362  2111 net.cpp:106] Creating Layer attention_permute2
I0822 23:34:25.890365  2111 net.cpp:454] attention_permute2 <- attention_scale2_attention_scale_slice_2_split_0
I0822 23:34:25.890368  2111 net.cpp:411] attention_permute2 -> attention_permute2
I0822 23:34:25.890425  2111 net.cpp:150] Setting up attention_permute2
I0822 23:34:25.890429  2111 net.cpp:157] Top shape: 80 1 8 64 (40960)
I0822 23:34:25.890431  2111 net.cpp:165] Memory required for data: 145593280
I0822 23:34:25.890434  2111 layer_factory.hpp:77] Creating layer attention_reduction2
I0822 23:34:25.890437  2111 net.cpp:106] Creating Layer attention_reduction2
I0822 23:34:25.890439  2111 net.cpp:454] attention_reduction2 <- attention_permute2
I0822 23:34:25.890444  2111 net.cpp:411] attention_reduction2 -> attention_reduction2
I0822 23:34:25.890472  2111 net.cpp:150] Setting up attention_reduction2
I0822 23:34:25.890476  2111 net.cpp:157] Top shape: 80 1 8 (640)
I0822 23:34:25.890478  2111 net.cpp:165] Memory required for data: 145595840
I0822 23:34:25.890480  2111 layer_factory.hpp:77] Creating layer attention_permute3
I0822 23:34:25.890485  2111 net.cpp:106] Creating Layer attention_permute3
I0822 23:34:25.890487  2111 net.cpp:454] attention_permute3 <- attention_scale3_attention_scale_slice_3_split_0
I0822 23:34:25.890491  2111 net.cpp:411] attention_permute3 -> attention_permute3
I0822 23:34:25.890548  2111 net.cpp:150] Setting up attention_permute3
I0822 23:34:25.890552  2111 net.cpp:157] Top shape: 80 1 8 64 (40960)
I0822 23:34:25.890554  2111 net.cpp:165] Memory required for data: 145759680
I0822 23:34:25.890558  2111 layer_factory.hpp:77] Creating layer attention_reduction3
I0822 23:34:25.890565  2111 net.cpp:106] Creating Layer attention_reduction3
I0822 23:34:25.890568  2111 net.cpp:454] attention_reduction3 <- attention_permute3
I0822 23:34:25.890571  2111 net.cpp:411] attention_reduction3 -> attention_reduction3
I0822 23:34:25.890605  2111 net.cpp:150] Setting up attention_reduction3
I0822 23:34:25.890609  2111 net.cpp:157] Top shape: 80 1 8 (640)
I0822 23:34:25.890611  2111 net.cpp:165] Memory required for data: 145762240
I0822 23:34:25.890614  2111 layer_factory.hpp:77] Creating layer attention_permute4
I0822 23:34:25.890619  2111 net.cpp:106] Creating Layer attention_permute4
I0822 23:34:25.890620  2111 net.cpp:454] attention_permute4 <- attention_scale4_attention_scale_slice_4_split_0
I0822 23:34:25.890625  2111 net.cpp:411] attention_permute4 -> attention_permute4
I0822 23:34:25.890681  2111 net.cpp:150] Setting up attention_permute4
I0822 23:34:25.890684  2111 net.cpp:157] Top shape: 80 1 8 64 (40960)
I0822 23:34:25.890686  2111 net.cpp:165] Memory required for data: 145926080
I0822 23:34:25.890688  2111 layer_factory.hpp:77] Creating layer attention_reduction4
I0822 23:34:25.890692  2111 net.cpp:106] Creating Layer attention_reduction4
I0822 23:34:25.890694  2111 net.cpp:454] attention_reduction4 <- attention_permute4
I0822 23:34:25.890698  2111 net.cpp:411] attention_reduction4 -> attention_reduction4
I0822 23:34:25.890738  2111 net.cpp:150] Setting up attention_reduction4
I0822 23:34:25.890743  2111 net.cpp:157] Top shape: 80 1 8 (640)
I0822 23:34:25.890744  2111 net.cpp:165] Memory required for data: 145928640
I0822 23:34:25.890746  2111 layer_factory.hpp:77] Creating layer attention_permute5
I0822 23:34:25.890750  2111 net.cpp:106] Creating Layer attention_permute5
I0822 23:34:25.890753  2111 net.cpp:454] attention_permute5 <- attention_scale5_attention_scale_slice_5_split_0
I0822 23:34:25.890756  2111 net.cpp:411] attention_permute5 -> attention_permute5
I0822 23:34:25.890810  2111 net.cpp:150] Setting up attention_permute5
I0822 23:34:25.890813  2111 net.cpp:157] Top shape: 80 1 8 64 (40960)
I0822 23:34:25.890815  2111 net.cpp:165] Memory required for data: 146092480
I0822 23:34:25.890817  2111 layer_factory.hpp:77] Creating layer attention_reduction5
I0822 23:34:25.890821  2111 net.cpp:106] Creating Layer attention_reduction5
I0822 23:34:25.890825  2111 net.cpp:454] attention_reduction5 <- attention_permute5
I0822 23:34:25.890828  2111 net.cpp:411] attention_reduction5 -> attention_reduction5
I0822 23:34:25.890863  2111 net.cpp:150] Setting up attention_reduction5
I0822 23:34:25.890868  2111 net.cpp:157] Top shape: 80 1 8 (640)
I0822 23:34:25.890871  2111 net.cpp:165] Memory required for data: 146095040
I0822 23:34:25.890872  2111 layer_factory.hpp:77] Creating layer attention_permute6
I0822 23:34:25.890875  2111 net.cpp:106] Creating Layer attention_permute6
I0822 23:34:25.890878  2111 net.cpp:454] attention_permute6 <- attention_scale6_attention_scale_slice_6_split_0
I0822 23:34:25.890882  2111 net.cpp:411] attention_permute6 -> attention_permute6
I0822 23:34:25.890946  2111 net.cpp:150] Setting up attention_permute6
I0822 23:34:25.890950  2111 net.cpp:157] Top shape: 80 1 8 64 (40960)
I0822 23:34:25.890952  2111 net.cpp:165] Memory required for data: 146258880
I0822 23:34:25.890954  2111 layer_factory.hpp:77] Creating layer attention_reduction6
I0822 23:34:25.890959  2111 net.cpp:106] Creating Layer attention_reduction6
I0822 23:34:25.890960  2111 net.cpp:454] attention_reduction6 <- attention_permute6
I0822 23:34:25.890964  2111 net.cpp:411] attention_reduction6 -> attention_reduction6
I0822 23:34:25.891757  2111 net.cpp:150] Setting up attention_reduction6
I0822 23:34:25.891769  2111 net.cpp:157] Top shape: 80 1 8 (640)
I0822 23:34:25.891772  2111 net.cpp:165] Memory required for data: 146261440
I0822 23:34:25.891775  2111 layer_factory.hpp:77] Creating layer attention_permute7
I0822 23:34:25.891780  2111 net.cpp:106] Creating Layer attention_permute7
I0822 23:34:25.891783  2111 net.cpp:454] attention_permute7 <- attention_scale7_attention_scale_slice_7_split_0
I0822 23:34:25.891788  2111 net.cpp:411] attention_permute7 -> attention_permute7
I0822 23:34:25.891850  2111 net.cpp:150] Setting up attention_permute7
I0822 23:34:25.891855  2111 net.cpp:157] Top shape: 80 1 8 64 (40960)
I0822 23:34:25.891857  2111 net.cpp:165] Memory required for data: 146425280
I0822 23:34:25.891860  2111 layer_factory.hpp:77] Creating layer attention_reduction7
I0822 23:34:25.891863  2111 net.cpp:106] Creating Layer attention_reduction7
I0822 23:34:25.891866  2111 net.cpp:454] attention_reduction7 <- attention_permute7
I0822 23:34:25.891870  2111 net.cpp:411] attention_reduction7 -> attention_reduction7
I0822 23:34:25.891901  2111 net.cpp:150] Setting up attention_reduction7
I0822 23:34:25.891906  2111 net.cpp:157] Top shape: 80 1 8 (640)
I0822 23:34:25.891907  2111 net.cpp:165] Memory required for data: 146427840
I0822 23:34:25.891911  2111 layer_factory.hpp:77] Creating layer attention_scale_concat
I0822 23:34:25.891916  2111 net.cpp:106] Creating Layer attention_scale_concat
I0822 23:34:25.891917  2111 net.cpp:454] attention_scale_concat <- attention_reduction0
I0822 23:34:25.891921  2111 net.cpp:454] attention_scale_concat <- attention_reduction1
I0822 23:34:25.891923  2111 net.cpp:454] attention_scale_concat <- attention_reduction2
I0822 23:34:25.891927  2111 net.cpp:454] attention_scale_concat <- attention_reduction3
I0822 23:34:25.891928  2111 net.cpp:454] attention_scale_concat <- attention_reduction4
I0822 23:34:25.891932  2111 net.cpp:454] attention_scale_concat <- attention_reduction5
I0822 23:34:25.891934  2111 net.cpp:454] attention_scale_concat <- attention_reduction6
I0822 23:34:25.891937  2111 net.cpp:454] attention_scale_concat <- attention_reduction7
I0822 23:34:25.891940  2111 net.cpp:411] attention_scale_concat -> attention_scale_concat
I0822 23:34:25.891955  2111 net.cpp:150] Setting up attention_scale_concat
I0822 23:34:25.891959  2111 net.cpp:157] Top shape: 80 8 8 (5120)
I0822 23:34:25.891961  2111 net.cpp:165] Memory required for data: 146448320
I0822 23:34:25.891963  2111 layer_factory.hpp:77] Creating layer attention_height_slice
I0822 23:34:25.891968  2111 net.cpp:106] Creating Layer attention_height_slice
I0822 23:34:25.891971  2111 net.cpp:454] attention_height_slice <- attention_scale_concat
I0822 23:34:25.891975  2111 net.cpp:411] attention_height_slice -> attention_height0
I0822 23:34:25.891980  2111 net.cpp:411] attention_height_slice -> attention_height1
I0822 23:34:25.891984  2111 net.cpp:411] attention_height_slice -> attention_height2
I0822 23:34:25.891988  2111 net.cpp:411] attention_height_slice -> attention_height3
I0822 23:34:25.891993  2111 net.cpp:411] attention_height_slice -> attention_height4
I0822 23:34:25.891996  2111 net.cpp:411] attention_height_slice -> attention_height5
I0822 23:34:25.891999  2111 net.cpp:411] attention_height_slice -> attention_height6
I0822 23:34:25.892004  2111 net.cpp:411] attention_height_slice -> attention_height7
I0822 23:34:25.892066  2111 net.cpp:150] Setting up attention_height_slice
I0822 23:34:25.892071  2111 net.cpp:157] Top shape: 80 8 1 (640)
I0822 23:34:25.892072  2111 net.cpp:157] Top shape: 80 8 1 (640)
I0822 23:34:25.892076  2111 net.cpp:157] Top shape: 80 8 1 (640)
I0822 23:34:25.892078  2111 net.cpp:157] Top shape: 80 8 1 (640)
I0822 23:34:25.892081  2111 net.cpp:157] Top shape: 80 8 1 (640)
I0822 23:34:25.892083  2111 net.cpp:157] Top shape: 80 8 1 (640)
I0822 23:34:25.892086  2111 net.cpp:157] Top shape: 80 8 1 (640)
I0822 23:34:25.892089  2111 net.cpp:157] Top shape: 80 8 1 (640)
I0822 23:34:25.892091  2111 net.cpp:165] Memory required for data: 146468800
I0822 23:34:25.892093  2111 layer_factory.hpp:77] Creating layer attention_height_fc1_0
I0822 23:34:25.892099  2111 net.cpp:106] Creating Layer attention_height_fc1_0
I0822 23:34:25.892102  2111 net.cpp:454] attention_height_fc1_0 <- attention_height0
I0822 23:34:25.892105  2111 net.cpp:411] attention_height_fc1_0 -> attention_height_fc1_0
I0822 23:34:25.892182  2111 net.cpp:150] Setting up attention_height_fc1_0
I0822 23:34:25.892187  2111 net.cpp:157] Top shape: 80 64 (5120)
I0822 23:34:25.892189  2111 net.cpp:165] Memory required for data: 146489280
I0822 23:34:25.892194  2111 layer_factory.hpp:77] Creating layer attention_height_fc2_0
I0822 23:34:25.892199  2111 net.cpp:106] Creating Layer attention_height_fc2_0
I0822 23:34:25.892201  2111 net.cpp:454] attention_height_fc2_0 <- attention_height_fc1_0
I0822 23:34:25.892205  2111 net.cpp:411] attention_height_fc2_0 -> attention_height_fc2_0
I0822 23:34:25.892323  2111 net.cpp:150] Setting up attention_height_fc2_0
I0822 23:34:25.892328  2111 net.cpp:157] Top shape: 80 32 (2560)
I0822 23:34:25.892329  2111 net.cpp:165] Memory required for data: 146499520
I0822 23:34:25.892333  2111 layer_factory.hpp:77] Creating layer attention_height_fc3_0
I0822 23:34:25.892338  2111 net.cpp:106] Creating Layer attention_height_fc3_0
I0822 23:34:25.892339  2111 net.cpp:454] attention_height_fc3_0 <- attention_height_fc2_0
I0822 23:34:25.892343  2111 net.cpp:411] attention_height_fc3_0 -> attention_height_fc3_0
I0822 23:34:25.892408  2111 net.cpp:150] Setting up attention_height_fc3_0
I0822 23:34:25.892412  2111 net.cpp:157] Top shape: 80 8 (640)
I0822 23:34:25.892415  2111 net.cpp:165] Memory required for data: 146502080
I0822 23:34:25.892418  2111 layer_factory.hpp:77] Creating layer attention_height_reshape0
I0822 23:34:25.892424  2111 net.cpp:106] Creating Layer attention_height_reshape0
I0822 23:34:25.892426  2111 net.cpp:454] attention_height_reshape0 <- attention_height_fc3_0
I0822 23:34:25.892431  2111 net.cpp:411] attention_height_reshape0 -> attention_height_reshape0
I0822 23:34:25.892447  2111 net.cpp:150] Setting up attention_height_reshape0
I0822 23:34:25.892451  2111 net.cpp:157] Top shape: 80 8 1 1 (640)
I0822 23:34:25.892452  2111 net.cpp:165] Memory required for data: 146504640
I0822 23:34:25.892454  2111 layer_factory.hpp:77] Creating layer attention_height_fc1_1
I0822 23:34:25.892459  2111 net.cpp:106] Creating Layer attention_height_fc1_1
I0822 23:34:25.892462  2111 net.cpp:454] attention_height_fc1_1 <- attention_height1
I0822 23:34:25.892465  2111 net.cpp:411] attention_height_fc1_1 -> attention_height_fc1_1
I0822 23:34:25.892537  2111 net.cpp:150] Setting up attention_height_fc1_1
I0822 23:34:25.892541  2111 net.cpp:157] Top shape: 80 64 (5120)
I0822 23:34:25.892544  2111 net.cpp:165] Memory required for data: 146525120
I0822 23:34:25.892547  2111 layer_factory.hpp:77] Creating layer attention_height_fc2_1
I0822 23:34:25.892551  2111 net.cpp:106] Creating Layer attention_height_fc2_1
I0822 23:34:25.892554  2111 net.cpp:454] attention_height_fc2_1 <- attention_height_fc1_1
I0822 23:34:25.892558  2111 net.cpp:411] attention_height_fc2_1 -> attention_height_fc2_1
I0822 23:34:25.892663  2111 net.cpp:150] Setting up attention_height_fc2_1
I0822 23:34:25.892668  2111 net.cpp:157] Top shape: 80 32 (2560)
I0822 23:34:25.892669  2111 net.cpp:165] Memory required for data: 146535360
I0822 23:34:25.892673  2111 layer_factory.hpp:77] Creating layer attention_height_fc3_1
I0822 23:34:25.892678  2111 net.cpp:106] Creating Layer attention_height_fc3_1
I0822 23:34:25.892680  2111 net.cpp:454] attention_height_fc3_1 <- attention_height_fc2_1
I0822 23:34:25.892683  2111 net.cpp:411] attention_height_fc3_1 -> attention_height_fc3_1
I0822 23:34:25.892746  2111 net.cpp:150] Setting up attention_height_fc3_1
I0822 23:34:25.892750  2111 net.cpp:157] Top shape: 80 8 (640)
I0822 23:34:25.892752  2111 net.cpp:165] Memory required for data: 146537920
I0822 23:34:25.892756  2111 layer_factory.hpp:77] Creating layer attention_height_reshape1
I0822 23:34:25.892760  2111 net.cpp:106] Creating Layer attention_height_reshape1
I0822 23:34:25.892762  2111 net.cpp:454] attention_height_reshape1 <- attention_height_fc3_1
I0822 23:34:25.892766  2111 net.cpp:411] attention_height_reshape1 -> attention_height_reshape1
I0822 23:34:25.892781  2111 net.cpp:150] Setting up attention_height_reshape1
I0822 23:34:25.892784  2111 net.cpp:157] Top shape: 80 8 1 1 (640)
I0822 23:34:25.892786  2111 net.cpp:165] Memory required for data: 146540480
I0822 23:34:25.892788  2111 layer_factory.hpp:77] Creating layer attention_height_fc1_2
I0822 23:34:25.892792  2111 net.cpp:106] Creating Layer attention_height_fc1_2
I0822 23:34:25.892794  2111 net.cpp:454] attention_height_fc1_2 <- attention_height2
I0822 23:34:25.892798  2111 net.cpp:411] attention_height_fc1_2 -> attention_height_fc1_2
I0822 23:34:25.892869  2111 net.cpp:150] Setting up attention_height_fc1_2
I0822 23:34:25.892874  2111 net.cpp:157] Top shape: 80 64 (5120)
I0822 23:34:25.892875  2111 net.cpp:165] Memory required for data: 146560960
I0822 23:34:25.892879  2111 layer_factory.hpp:77] Creating layer attention_height_fc2_2
I0822 23:34:25.892884  2111 net.cpp:106] Creating Layer attention_height_fc2_2
I0822 23:34:25.892886  2111 net.cpp:454] attention_height_fc2_2 <- attention_height_fc1_2
I0822 23:34:25.892889  2111 net.cpp:411] attention_height_fc2_2 -> attention_height_fc2_2
I0822 23:34:25.892995  2111 net.cpp:150] Setting up attention_height_fc2_2
I0822 23:34:25.892999  2111 net.cpp:157] Top shape: 80 32 (2560)
I0822 23:34:25.893002  2111 net.cpp:165] Memory required for data: 146571200
I0822 23:34:25.893012  2111 layer_factory.hpp:77] Creating layer attention_height_fc3_2
I0822 23:34:25.893016  2111 net.cpp:106] Creating Layer attention_height_fc3_2
I0822 23:34:25.893019  2111 net.cpp:454] attention_height_fc3_2 <- attention_height_fc2_2
I0822 23:34:25.893023  2111 net.cpp:411] attention_height_fc3_2 -> attention_height_fc3_2
I0822 23:34:25.893090  2111 net.cpp:150] Setting up attention_height_fc3_2
I0822 23:34:25.893093  2111 net.cpp:157] Top shape: 80 8 (640)
I0822 23:34:25.893095  2111 net.cpp:165] Memory required for data: 146573760
I0822 23:34:25.893100  2111 layer_factory.hpp:77] Creating layer attention_height_reshape2
I0822 23:34:25.893103  2111 net.cpp:106] Creating Layer attention_height_reshape2
I0822 23:34:25.893106  2111 net.cpp:454] attention_height_reshape2 <- attention_height_fc3_2
I0822 23:34:25.893110  2111 net.cpp:411] attention_height_reshape2 -> attention_height_reshape2
I0822 23:34:25.893124  2111 net.cpp:150] Setting up attention_height_reshape2
I0822 23:34:25.893139  2111 net.cpp:157] Top shape: 80 8 1 1 (640)
I0822 23:34:25.893141  2111 net.cpp:165] Memory required for data: 146576320
I0822 23:34:25.893143  2111 layer_factory.hpp:77] Creating layer attention_height_fc1_3
I0822 23:34:25.893147  2111 net.cpp:106] Creating Layer attention_height_fc1_3
I0822 23:34:25.893151  2111 net.cpp:454] attention_height_fc1_3 <- attention_height3
I0822 23:34:25.893153  2111 net.cpp:411] attention_height_fc1_3 -> attention_height_fc1_3
I0822 23:34:25.893234  2111 net.cpp:150] Setting up attention_height_fc1_3
I0822 23:34:25.893239  2111 net.cpp:157] Top shape: 80 64 (5120)
I0822 23:34:25.893240  2111 net.cpp:165] Memory required for data: 146596800
I0822 23:34:25.893244  2111 layer_factory.hpp:77] Creating layer attention_height_fc2_3
I0822 23:34:25.893249  2111 net.cpp:106] Creating Layer attention_height_fc2_3
I0822 23:34:25.893251  2111 net.cpp:454] attention_height_fc2_3 <- attention_height_fc1_3
I0822 23:34:25.893255  2111 net.cpp:411] attention_height_fc2_3 -> attention_height_fc2_3
I0822 23:34:25.893365  2111 net.cpp:150] Setting up attention_height_fc2_3
I0822 23:34:25.893369  2111 net.cpp:157] Top shape: 80 32 (2560)
I0822 23:34:25.893371  2111 net.cpp:165] Memory required for data: 146607040
I0822 23:34:25.893375  2111 layer_factory.hpp:77] Creating layer attention_height_fc3_3
I0822 23:34:25.893380  2111 net.cpp:106] Creating Layer attention_height_fc3_3
I0822 23:34:25.893383  2111 net.cpp:454] attention_height_fc3_3 <- attention_height_fc2_3
I0822 23:34:25.893386  2111 net.cpp:411] attention_height_fc3_3 -> attention_height_fc3_3
I0822 23:34:25.893451  2111 net.cpp:150] Setting up attention_height_fc3_3
I0822 23:34:25.893455  2111 net.cpp:157] Top shape: 80 8 (640)
I0822 23:34:25.893457  2111 net.cpp:165] Memory required for data: 146609600
I0822 23:34:25.893461  2111 layer_factory.hpp:77] Creating layer attention_height_reshape3
I0822 23:34:25.893465  2111 net.cpp:106] Creating Layer attention_height_reshape3
I0822 23:34:25.893468  2111 net.cpp:454] attention_height_reshape3 <- attention_height_fc3_3
I0822 23:34:25.893471  2111 net.cpp:411] attention_height_reshape3 -> attention_height_reshape3
I0822 23:34:25.893486  2111 net.cpp:150] Setting up attention_height_reshape3
I0822 23:34:25.893491  2111 net.cpp:157] Top shape: 80 8 1 1 (640)
I0822 23:34:25.893492  2111 net.cpp:165] Memory required for data: 146612160
I0822 23:34:25.893494  2111 layer_factory.hpp:77] Creating layer attention_height_fc1_4
I0822 23:34:25.893498  2111 net.cpp:106] Creating Layer attention_height_fc1_4
I0822 23:34:25.893501  2111 net.cpp:454] attention_height_fc1_4 <- attention_height4
I0822 23:34:25.893504  2111 net.cpp:411] attention_height_fc1_4 -> attention_height_fc1_4
I0822 23:34:25.893586  2111 net.cpp:150] Setting up attention_height_fc1_4
I0822 23:34:25.893590  2111 net.cpp:157] Top shape: 80 64 (5120)
I0822 23:34:25.893592  2111 net.cpp:165] Memory required for data: 146632640
I0822 23:34:25.893596  2111 layer_factory.hpp:77] Creating layer attention_height_fc2_4
I0822 23:34:25.893600  2111 net.cpp:106] Creating Layer attention_height_fc2_4
I0822 23:34:25.893602  2111 net.cpp:454] attention_height_fc2_4 <- attention_height_fc1_4
I0822 23:34:25.893606  2111 net.cpp:411] attention_height_fc2_4 -> attention_height_fc2_4
I0822 23:34:25.893712  2111 net.cpp:150] Setting up attention_height_fc2_4
I0822 23:34:25.893715  2111 net.cpp:157] Top shape: 80 32 (2560)
I0822 23:34:25.893718  2111 net.cpp:165] Memory required for data: 146642880
I0822 23:34:25.893721  2111 layer_factory.hpp:77] Creating layer attention_height_fc3_4
I0822 23:34:25.893725  2111 net.cpp:106] Creating Layer attention_height_fc3_4
I0822 23:34:25.893728  2111 net.cpp:454] attention_height_fc3_4 <- attention_height_fc2_4
I0822 23:34:25.893731  2111 net.cpp:411] attention_height_fc3_4 -> attention_height_fc3_4
I0822 23:34:25.893795  2111 net.cpp:150] Setting up attention_height_fc3_4
I0822 23:34:25.893800  2111 net.cpp:157] Top shape: 80 8 (640)
I0822 23:34:25.893801  2111 net.cpp:165] Memory required for data: 146645440
I0822 23:34:25.893805  2111 layer_factory.hpp:77] Creating layer attention_height_reshape4
I0822 23:34:25.893810  2111 net.cpp:106] Creating Layer attention_height_reshape4
I0822 23:34:25.893811  2111 net.cpp:454] attention_height_reshape4 <- attention_height_fc3_4
I0822 23:34:25.893815  2111 net.cpp:411] attention_height_reshape4 -> attention_height_reshape4
I0822 23:34:25.893829  2111 net.cpp:150] Setting up attention_height_reshape4
I0822 23:34:25.893832  2111 net.cpp:157] Top shape: 80 8 1 1 (640)
I0822 23:34:25.893834  2111 net.cpp:165] Memory required for data: 146648000
I0822 23:34:25.893836  2111 layer_factory.hpp:77] Creating layer attention_height_fc1_5
I0822 23:34:25.893841  2111 net.cpp:106] Creating Layer attention_height_fc1_5
I0822 23:34:25.893843  2111 net.cpp:454] attention_height_fc1_5 <- attention_height5
I0822 23:34:25.893847  2111 net.cpp:411] attention_height_fc1_5 -> attention_height_fc1_5
I0822 23:34:25.893918  2111 net.cpp:150] Setting up attention_height_fc1_5
I0822 23:34:25.893921  2111 net.cpp:157] Top shape: 80 64 (5120)
I0822 23:34:25.893923  2111 net.cpp:165] Memory required for data: 146668480
I0822 23:34:25.893927  2111 layer_factory.hpp:77] Creating layer attention_height_fc2_5
I0822 23:34:25.893931  2111 net.cpp:106] Creating Layer attention_height_fc2_5
I0822 23:34:25.893934  2111 net.cpp:454] attention_height_fc2_5 <- attention_height_fc1_5
I0822 23:34:25.893937  2111 net.cpp:411] attention_height_fc2_5 -> attention_height_fc2_5
I0822 23:34:25.894057  2111 net.cpp:150] Setting up attention_height_fc2_5
I0822 23:34:25.894060  2111 net.cpp:157] Top shape: 80 32 (2560)
I0822 23:34:25.894062  2111 net.cpp:165] Memory required for data: 146678720
I0822 23:34:25.894065  2111 layer_factory.hpp:77] Creating layer attention_height_fc3_5
I0822 23:34:25.894070  2111 net.cpp:106] Creating Layer attention_height_fc3_5
I0822 23:34:25.894073  2111 net.cpp:454] attention_height_fc3_5 <- attention_height_fc2_5
I0822 23:34:25.894076  2111 net.cpp:411] attention_height_fc3_5 -> attention_height_fc3_5
I0822 23:34:25.894140  2111 net.cpp:150] Setting up attention_height_fc3_5
I0822 23:34:25.894145  2111 net.cpp:157] Top shape: 80 8 (640)
I0822 23:34:25.894146  2111 net.cpp:165] Memory required for data: 146681280
I0822 23:34:25.894150  2111 layer_factory.hpp:77] Creating layer attention_height_reshape5
I0822 23:34:25.894153  2111 net.cpp:106] Creating Layer attention_height_reshape5
I0822 23:34:25.894156  2111 net.cpp:454] attention_height_reshape5 <- attention_height_fc3_5
I0822 23:34:25.894160  2111 net.cpp:411] attention_height_reshape5 -> attention_height_reshape5
I0822 23:34:25.894174  2111 net.cpp:150] Setting up attention_height_reshape5
I0822 23:34:25.894178  2111 net.cpp:157] Top shape: 80 8 1 1 (640)
I0822 23:34:25.894181  2111 net.cpp:165] Memory required for data: 146683840
I0822 23:34:25.894182  2111 layer_factory.hpp:77] Creating layer attention_height_fc1_6
I0822 23:34:25.894186  2111 net.cpp:106] Creating Layer attention_height_fc1_6
I0822 23:34:25.894189  2111 net.cpp:454] attention_height_fc1_6 <- attention_height6
I0822 23:34:25.894192  2111 net.cpp:411] attention_height_fc1_6 -> attention_height_fc1_6
I0822 23:34:25.894274  2111 net.cpp:150] Setting up attention_height_fc1_6
I0822 23:34:25.894279  2111 net.cpp:157] Top shape: 80 64 (5120)
I0822 23:34:25.894280  2111 net.cpp:165] Memory required for data: 146704320
I0822 23:34:25.894284  2111 layer_factory.hpp:77] Creating layer attention_height_fc2_6
I0822 23:34:25.894289  2111 net.cpp:106] Creating Layer attention_height_fc2_6
I0822 23:34:25.894290  2111 net.cpp:454] attention_height_fc2_6 <- attention_height_fc1_6
I0822 23:34:25.894294  2111 net.cpp:411] attention_height_fc2_6 -> attention_height_fc2_6
I0822 23:34:25.894399  2111 net.cpp:150] Setting up attention_height_fc2_6
I0822 23:34:25.894403  2111 net.cpp:157] Top shape: 80 32 (2560)
I0822 23:34:25.894405  2111 net.cpp:165] Memory required for data: 146714560
I0822 23:34:25.894409  2111 layer_factory.hpp:77] Creating layer attention_height_fc3_6
I0822 23:34:25.894413  2111 net.cpp:106] Creating Layer attention_height_fc3_6
I0822 23:34:25.894415  2111 net.cpp:454] attention_height_fc3_6 <- attention_height_fc2_6
I0822 23:34:25.894419  2111 net.cpp:411] attention_height_fc3_6 -> attention_height_fc3_6
I0822 23:34:25.894484  2111 net.cpp:150] Setting up attention_height_fc3_6
I0822 23:34:25.894487  2111 net.cpp:157] Top shape: 80 8 (640)
I0822 23:34:25.894490  2111 net.cpp:165] Memory required for data: 146717120
I0822 23:34:25.894492  2111 layer_factory.hpp:77] Creating layer attention_height_reshape6
I0822 23:34:25.894496  2111 net.cpp:106] Creating Layer attention_height_reshape6
I0822 23:34:25.894500  2111 net.cpp:454] attention_height_reshape6 <- attention_height_fc3_6
I0822 23:34:25.894503  2111 net.cpp:411] attention_height_reshape6 -> attention_height_reshape6
I0822 23:34:25.894517  2111 net.cpp:150] Setting up attention_height_reshape6
I0822 23:34:25.894520  2111 net.cpp:157] Top shape: 80 8 1 1 (640)
I0822 23:34:25.894522  2111 net.cpp:165] Memory required for data: 146719680
I0822 23:34:25.894526  2111 layer_factory.hpp:77] Creating layer attention_height_fc1_7
I0822 23:34:25.894529  2111 net.cpp:106] Creating Layer attention_height_fc1_7
I0822 23:34:25.894531  2111 net.cpp:454] attention_height_fc1_7 <- attention_height7
I0822 23:34:25.894536  2111 net.cpp:411] attention_height_fc1_7 -> attention_height_fc1_7
I0822 23:34:25.894608  2111 net.cpp:150] Setting up attention_height_fc1_7
I0822 23:34:25.894611  2111 net.cpp:157] Top shape: 80 64 (5120)
I0822 23:34:25.894613  2111 net.cpp:165] Memory required for data: 146740160
I0822 23:34:25.894616  2111 layer_factory.hpp:77] Creating layer attention_height_fc2_7
I0822 23:34:25.894621  2111 net.cpp:106] Creating Layer attention_height_fc2_7
I0822 23:34:25.894623  2111 net.cpp:454] attention_height_fc2_7 <- attention_height_fc1_7
I0822 23:34:25.894628  2111 net.cpp:411] attention_height_fc2_7 -> attention_height_fc2_7
I0822 23:34:25.894733  2111 net.cpp:150] Setting up attention_height_fc2_7
I0822 23:34:25.894737  2111 net.cpp:157] Top shape: 80 32 (2560)
I0822 23:34:25.894739  2111 net.cpp:165] Memory required for data: 146750400
I0822 23:34:25.894742  2111 layer_factory.hpp:77] Creating layer attention_height_fc3_7
I0822 23:34:25.894747  2111 net.cpp:106] Creating Layer attention_height_fc3_7
I0822 23:34:25.894749  2111 net.cpp:454] attention_height_fc3_7 <- attention_height_fc2_7
I0822 23:34:25.894753  2111 net.cpp:411] attention_height_fc3_7 -> attention_height_fc3_7
I0822 23:34:25.894816  2111 net.cpp:150] Setting up attention_height_fc3_7
I0822 23:34:25.894820  2111 net.cpp:157] Top shape: 80 8 (640)
I0822 23:34:25.894822  2111 net.cpp:165] Memory required for data: 146752960
I0822 23:34:25.894826  2111 layer_factory.hpp:77] Creating layer attention_height_reshape7
I0822 23:34:25.894830  2111 net.cpp:106] Creating Layer attention_height_reshape7
I0822 23:34:25.894832  2111 net.cpp:454] attention_height_reshape7 <- attention_height_fc3_7
I0822 23:34:25.894835  2111 net.cpp:411] attention_height_reshape7 -> attention_height_reshape7
I0822 23:34:25.894850  2111 net.cpp:150] Setting up attention_height_reshape7
I0822 23:34:25.894853  2111 net.cpp:157] Top shape: 80 8 1 1 (640)
I0822 23:34:25.894855  2111 net.cpp:165] Memory required for data: 146755520
I0822 23:34:25.894858  2111 layer_factory.hpp:77] Creating layer attention_height_concat
I0822 23:34:25.894863  2111 net.cpp:106] Creating Layer attention_height_concat
I0822 23:34:25.894866  2111 net.cpp:454] attention_height_concat <- attention_height_reshape0
I0822 23:34:25.894870  2111 net.cpp:454] attention_height_concat <- attention_height_reshape1
I0822 23:34:25.894871  2111 net.cpp:454] attention_height_concat <- attention_height_reshape2
I0822 23:34:25.894875  2111 net.cpp:454] attention_height_concat <- attention_height_reshape3
I0822 23:34:25.894876  2111 net.cpp:454] attention_height_concat <- attention_height_reshape4
I0822 23:34:25.894879  2111 net.cpp:454] attention_height_concat <- attention_height_reshape5
I0822 23:34:25.894881  2111 net.cpp:454] attention_height_concat <- attention_height_reshape6
I0822 23:34:25.894883  2111 net.cpp:454] attention_height_concat <- attention_height_reshape7
I0822 23:34:25.894887  2111 net.cpp:411] attention_height_concat -> attention_height_concat
I0822 23:34:25.894909  2111 net.cpp:150] Setting up attention_height_concat
I0822 23:34:25.894913  2111 net.cpp:157] Top shape: 80 8 8 1 (5120)
I0822 23:34:25.894917  2111 net.cpp:165] Memory required for data: 146776000
I0822 23:34:25.894918  2111 layer_factory.hpp:77] Creating layer attention_weight
I0822 23:34:25.894922  2111 net.cpp:106] Creating Layer attention_weight
I0822 23:34:25.894925  2111 net.cpp:454] attention_weight <- attention_height_concat
I0822 23:34:25.894929  2111 net.cpp:411] attention_weight -> attention_weight
I0822 23:34:25.894966  2111 net.cpp:150] Setting up attention_weight
I0822 23:34:25.894970  2111 net.cpp:157] Top shape: 80 8 8 1 (5120)
I0822 23:34:25.894973  2111 net.cpp:165] Memory required for data: 146796480
I0822 23:34:25.894974  2111 layer_factory.hpp:77] Creating layer attention_weight_slice
I0822 23:34:25.894980  2111 net.cpp:106] Creating Layer attention_weight_slice
I0822 23:34:25.894982  2111 net.cpp:454] attention_weight_slice <- attention_weight
I0822 23:34:25.894987  2111 net.cpp:411] attention_weight_slice -> attention_weight_slice0
I0822 23:34:25.894991  2111 net.cpp:411] attention_weight_slice -> attention_weight_slice1
I0822 23:34:25.894996  2111 net.cpp:411] attention_weight_slice -> attention_weight_slice2
I0822 23:34:25.895000  2111 net.cpp:411] attention_weight_slice -> attention_weight_slice3
I0822 23:34:25.895004  2111 net.cpp:411] attention_weight_slice -> attention_weight_slice4
I0822 23:34:25.895007  2111 net.cpp:411] attention_weight_slice -> attention_weight_slice5
I0822 23:34:25.895011  2111 net.cpp:411] attention_weight_slice -> attention_weight_slice6
I0822 23:34:25.895015  2111 net.cpp:411] attention_weight_slice -> attention_weight_slice7
I0822 23:34:25.895076  2111 net.cpp:150] Setting up attention_weight_slice
I0822 23:34:25.895079  2111 net.cpp:157] Top shape: 80 1 8 1 (640)
I0822 23:34:25.895082  2111 net.cpp:157] Top shape: 80 1 8 1 (640)
I0822 23:34:25.895085  2111 net.cpp:157] Top shape: 80 1 8 1 (640)
I0822 23:34:25.895087  2111 net.cpp:157] Top shape: 80 1 8 1 (640)
I0822 23:34:25.895090  2111 net.cpp:157] Top shape: 80 1 8 1 (640)
I0822 23:34:25.895093  2111 net.cpp:157] Top shape: 80 1 8 1 (640)
I0822 23:34:25.895095  2111 net.cpp:157] Top shape: 80 1 8 1 (640)
I0822 23:34:25.895098  2111 net.cpp:157] Top shape: 80 1 8 1 (640)
I0822 23:34:25.895100  2111 net.cpp:165] Memory required for data: 146816960
I0822 23:34:25.895102  2111 layer_factory.hpp:77] Creating layer attention_weight_tile0
I0822 23:34:25.895107  2111 net.cpp:106] Creating Layer attention_weight_tile0
I0822 23:34:25.895109  2111 net.cpp:454] attention_weight_tile0 <- attention_weight_slice0
I0822 23:34:25.895113  2111 net.cpp:411] attention_weight_tile0 -> attention_weight_tile0
I0822 23:34:25.895128  2111 net.cpp:150] Setting up attention_weight_tile0
I0822 23:34:25.895131  2111 net.cpp:157] Top shape: 80 64 8 1 (40960)
I0822 23:34:25.895133  2111 net.cpp:165] Memory required for data: 146980800
I0822 23:34:25.895135  2111 layer_factory.hpp:77] Creating layer attention_reweight0
I0822 23:34:25.895140  2111 net.cpp:106] Creating Layer attention_reweight0
I0822 23:34:25.895143  2111 net.cpp:454] attention_reweight0 <- attention_scale0_attention_scale_slice_0_split_1
I0822 23:34:25.895146  2111 net.cpp:454] attention_reweight0 <- attention_weight_tile0
I0822 23:34:25.895149  2111 net.cpp:411] attention_reweight0 -> attention_reweight0
I0822 23:34:25.895164  2111 net.cpp:150] Setting up attention_reweight0
I0822 23:34:25.895167  2111 net.cpp:157] Top shape: 80 64 8 1 (40960)
I0822 23:34:25.895169  2111 net.cpp:165] Memory required for data: 147144640
I0822 23:34:25.895171  2111 layer_factory.hpp:77] Creating layer attention_weight_tile1
I0822 23:34:25.895175  2111 net.cpp:106] Creating Layer attention_weight_tile1
I0822 23:34:25.895177  2111 net.cpp:454] attention_weight_tile1 <- attention_weight_slice1
I0822 23:34:25.895180  2111 net.cpp:411] attention_weight_tile1 -> attention_weight_tile1
I0822 23:34:25.895192  2111 net.cpp:150] Setting up attention_weight_tile1
I0822 23:34:25.895196  2111 net.cpp:157] Top shape: 80 64 8 1 (40960)
I0822 23:34:25.895198  2111 net.cpp:165] Memory required for data: 147308480
I0822 23:34:25.895200  2111 layer_factory.hpp:77] Creating layer attention_reweight1
I0822 23:34:25.895205  2111 net.cpp:106] Creating Layer attention_reweight1
I0822 23:34:25.895206  2111 net.cpp:454] attention_reweight1 <- attention_scale1_attention_scale_slice_1_split_1
I0822 23:34:25.895210  2111 net.cpp:454] attention_reweight1 <- attention_weight_tile1
I0822 23:34:25.895213  2111 net.cpp:411] attention_reweight1 -> attention_reweight1
I0822 23:34:25.895226  2111 net.cpp:150] Setting up attention_reweight1
I0822 23:34:25.895228  2111 net.cpp:157] Top shape: 80 64 8 1 (40960)
I0822 23:34:25.895231  2111 net.cpp:165] Memory required for data: 147472320
I0822 23:34:25.895233  2111 layer_factory.hpp:77] Creating layer attention_weight_tile2
I0822 23:34:25.895236  2111 net.cpp:106] Creating Layer attention_weight_tile2
I0822 23:34:25.895239  2111 net.cpp:454] attention_weight_tile2 <- attention_weight_slice2
I0822 23:34:25.895242  2111 net.cpp:411] attention_weight_tile2 -> attention_weight_tile2
I0822 23:34:25.895254  2111 net.cpp:150] Setting up attention_weight_tile2
I0822 23:34:25.895257  2111 net.cpp:157] Top shape: 80 64 8 1 (40960)
I0822 23:34:25.895259  2111 net.cpp:165] Memory required for data: 147636160
I0822 23:34:25.895262  2111 layer_factory.hpp:77] Creating layer attention_reweight2
I0822 23:34:25.895265  2111 net.cpp:106] Creating Layer attention_reweight2
I0822 23:34:25.895267  2111 net.cpp:454] attention_reweight2 <- attention_scale2_attention_scale_slice_2_split_1
I0822 23:34:25.895272  2111 net.cpp:454] attention_reweight2 <- attention_weight_tile2
I0822 23:34:25.895274  2111 net.cpp:411] attention_reweight2 -> attention_reweight2
I0822 23:34:25.895287  2111 net.cpp:150] Setting up attention_reweight2
I0822 23:34:25.895289  2111 net.cpp:157] Top shape: 80 64 8 1 (40960)
I0822 23:34:25.895292  2111 net.cpp:165] Memory required for data: 147800000
I0822 23:34:25.895294  2111 layer_factory.hpp:77] Creating layer attention_weight_tile3
I0822 23:34:25.895298  2111 net.cpp:106] Creating Layer attention_weight_tile3
I0822 23:34:25.895299  2111 net.cpp:454] attention_weight_tile3 <- attention_weight_slice3
I0822 23:34:25.895303  2111 net.cpp:411] attention_weight_tile3 -> attention_weight_tile3
I0822 23:34:25.895314  2111 net.cpp:150] Setting up attention_weight_tile3
I0822 23:34:25.895318  2111 net.cpp:157] Top shape: 80 64 8 1 (40960)
I0822 23:34:25.895320  2111 net.cpp:165] Memory required for data: 147963840
I0822 23:34:25.895323  2111 layer_factory.hpp:77] Creating layer attention_reweight3
I0822 23:34:25.895326  2111 net.cpp:106] Creating Layer attention_reweight3
I0822 23:34:25.895328  2111 net.cpp:454] attention_reweight3 <- attention_scale3_attention_scale_slice_3_split_1
I0822 23:34:25.895331  2111 net.cpp:454] attention_reweight3 <- attention_weight_tile3
I0822 23:34:25.895334  2111 net.cpp:411] attention_reweight3 -> attention_reweight3
I0822 23:34:25.895347  2111 net.cpp:150] Setting up attention_reweight3
I0822 23:34:25.895351  2111 net.cpp:157] Top shape: 80 64 8 1 (40960)
I0822 23:34:25.895354  2111 net.cpp:165] Memory required for data: 148127680
I0822 23:34:25.895355  2111 layer_factory.hpp:77] Creating layer attention_weight_tile4
I0822 23:34:25.895359  2111 net.cpp:106] Creating Layer attention_weight_tile4
I0822 23:34:25.895360  2111 net.cpp:454] attention_weight_tile4 <- attention_weight_slice4
I0822 23:34:25.895364  2111 net.cpp:411] attention_weight_tile4 -> attention_weight_tile4
I0822 23:34:25.895376  2111 net.cpp:150] Setting up attention_weight_tile4
I0822 23:34:25.895380  2111 net.cpp:157] Top shape: 80 64 8 1 (40960)
I0822 23:34:25.895381  2111 net.cpp:165] Memory required for data: 148291520
I0822 23:34:25.895383  2111 layer_factory.hpp:77] Creating layer attention_reweight4
I0822 23:34:25.895387  2111 net.cpp:106] Creating Layer attention_reweight4
I0822 23:34:25.895390  2111 net.cpp:454] attention_reweight4 <- attention_scale4_attention_scale_slice_4_split_1
I0822 23:34:25.895393  2111 net.cpp:454] attention_reweight4 <- attention_weight_tile4
I0822 23:34:25.895395  2111 net.cpp:411] attention_reweight4 -> attention_reweight4
I0822 23:34:25.895407  2111 net.cpp:150] Setting up attention_reweight4
I0822 23:34:25.895411  2111 net.cpp:157] Top shape: 80 64 8 1 (40960)
I0822 23:34:25.895413  2111 net.cpp:165] Memory required for data: 148455360
I0822 23:34:25.895416  2111 layer_factory.hpp:77] Creating layer attention_weight_tile5
I0822 23:34:25.895418  2111 net.cpp:106] Creating Layer attention_weight_tile5
I0822 23:34:25.895421  2111 net.cpp:454] attention_weight_tile5 <- attention_weight_slice5
I0822 23:34:25.895423  2111 net.cpp:411] attention_weight_tile5 -> attention_weight_tile5
I0822 23:34:25.895436  2111 net.cpp:150] Setting up attention_weight_tile5
I0822 23:34:25.895438  2111 net.cpp:157] Top shape: 80 64 8 1 (40960)
I0822 23:34:25.895440  2111 net.cpp:165] Memory required for data: 148619200
I0822 23:34:25.895442  2111 layer_factory.hpp:77] Creating layer attention_reweight5
I0822 23:34:25.895447  2111 net.cpp:106] Creating Layer attention_reweight5
I0822 23:34:25.895449  2111 net.cpp:454] attention_reweight5 <- attention_scale5_attention_scale_slice_5_split_1
I0822 23:34:25.895452  2111 net.cpp:454] attention_reweight5 <- attention_weight_tile5
I0822 23:34:25.895454  2111 net.cpp:411] attention_reweight5 -> attention_reweight5
I0822 23:34:25.895467  2111 net.cpp:150] Setting up attention_reweight5
I0822 23:34:25.895470  2111 net.cpp:157] Top shape: 80 64 8 1 (40960)
I0822 23:34:25.895473  2111 net.cpp:165] Memory required for data: 148783040
I0822 23:34:25.895474  2111 layer_factory.hpp:77] Creating layer attention_weight_tile6
I0822 23:34:25.895478  2111 net.cpp:106] Creating Layer attention_weight_tile6
I0822 23:34:25.895480  2111 net.cpp:454] attention_weight_tile6 <- attention_weight_slice6
I0822 23:34:25.895483  2111 net.cpp:411] attention_weight_tile6 -> attention_weight_tile6
I0822 23:34:25.895495  2111 net.cpp:150] Setting up attention_weight_tile6
I0822 23:34:25.895498  2111 net.cpp:157] Top shape: 80 64 8 1 (40960)
I0822 23:34:25.895500  2111 net.cpp:165] Memory required for data: 148946880
I0822 23:34:25.895503  2111 layer_factory.hpp:77] Creating layer attention_reweight6
I0822 23:34:25.895506  2111 net.cpp:106] Creating Layer attention_reweight6
I0822 23:34:25.895509  2111 net.cpp:454] attention_reweight6 <- attention_scale6_attention_scale_slice_6_split_1
I0822 23:34:25.895512  2111 net.cpp:454] attention_reweight6 <- attention_weight_tile6
I0822 23:34:25.895515  2111 net.cpp:411] attention_reweight6 -> attention_reweight6
I0822 23:34:25.895527  2111 net.cpp:150] Setting up attention_reweight6
I0822 23:34:25.895530  2111 net.cpp:157] Top shape: 80 64 8 1 (40960)
I0822 23:34:25.895532  2111 net.cpp:165] Memory required for data: 149110720
I0822 23:34:25.895534  2111 layer_factory.hpp:77] Creating layer attention_weight_tile7
I0822 23:34:25.895539  2111 net.cpp:106] Creating Layer attention_weight_tile7
I0822 23:34:25.895542  2111 net.cpp:454] attention_weight_tile7 <- attention_weight_slice7
I0822 23:34:25.895546  2111 net.cpp:411] attention_weight_tile7 -> attention_weight_tile7
I0822 23:34:25.895558  2111 net.cpp:150] Setting up attention_weight_tile7
I0822 23:34:25.895561  2111 net.cpp:157] Top shape: 80 64 8 1 (40960)
I0822 23:34:25.895563  2111 net.cpp:165] Memory required for data: 149274560
I0822 23:34:25.895566  2111 layer_factory.hpp:77] Creating layer attention_reweight7
I0822 23:34:25.895570  2111 net.cpp:106] Creating Layer attention_reweight7
I0822 23:34:25.895572  2111 net.cpp:454] attention_reweight7 <- attention_scale7_attention_scale_slice_7_split_1
I0822 23:34:25.895576  2111 net.cpp:454] attention_reweight7 <- attention_weight_tile7
I0822 23:34:25.895578  2111 net.cpp:411] attention_reweight7 -> attention_reweight7
I0822 23:34:25.895591  2111 net.cpp:150] Setting up attention_reweight7
I0822 23:34:25.895593  2111 net.cpp:157] Top shape: 80 64 8 1 (40960)
I0822 23:34:25.895596  2111 net.cpp:165] Memory required for data: 149438400
I0822 23:34:25.895597  2111 layer_factory.hpp:77] Creating layer attention_reweight_sum
I0822 23:34:25.895601  2111 net.cpp:106] Creating Layer attention_reweight_sum
I0822 23:34:25.895604  2111 net.cpp:454] attention_reweight_sum <- attention_reweight0
I0822 23:34:25.895607  2111 net.cpp:454] attention_reweight_sum <- attention_reweight1
I0822 23:34:25.895609  2111 net.cpp:454] attention_reweight_sum <- attention_reweight2
I0822 23:34:25.895612  2111 net.cpp:454] attention_reweight_sum <- attention_reweight3
I0822 23:34:25.895614  2111 net.cpp:454] attention_reweight_sum <- attention_reweight4
I0822 23:34:25.895617  2111 net.cpp:454] attention_reweight_sum <- attention_reweight5
I0822 23:34:25.895619  2111 net.cpp:454] attention_reweight_sum <- attention_reweight6
I0822 23:34:25.895622  2111 net.cpp:454] attention_reweight_sum <- attention_reweight7
I0822 23:34:25.895624  2111 net.cpp:411] attention_reweight_sum -> attention_reweight_sum
I0822 23:34:25.895637  2111 net.cpp:150] Setting up attention_reweight_sum
I0822 23:34:25.895642  2111 net.cpp:157] Top shape: 80 64 8 1 (40960)
I0822 23:34:25.895643  2111 net.cpp:165] Memory required for data: 149602240
I0822 23:34:25.895645  2111 layer_factory.hpp:77] Creating layer attention_reweight_flatten
I0822 23:34:25.895650  2111 net.cpp:106] Creating Layer attention_reweight_flatten
I0822 23:34:25.895653  2111 net.cpp:454] attention_reweight_flatten <- attention_reweight_sum
I0822 23:34:25.895655  2111 net.cpp:411] attention_reweight_flatten -> attention_reweight_flatten
I0822 23:34:25.895668  2111 net.cpp:150] Setting up attention_reweight_flatten
I0822 23:34:25.895671  2111 net.cpp:157] Top shape: 80 512 (40960)
I0822 23:34:25.895673  2111 net.cpp:165] Memory required for data: 149766080
I0822 23:34:25.895676  2111 layer_factory.hpp:77] Creating layer attention_reweight_dropout
I0822 23:34:25.895687  2111 net.cpp:106] Creating Layer attention_reweight_dropout
I0822 23:34:25.895689  2111 net.cpp:454] attention_reweight_dropout <- attention_reweight_flatten
I0822 23:34:25.895694  2111 net.cpp:411] attention_reweight_dropout -> attention_reweight_dropout
I0822 23:34:25.895716  2111 net.cpp:150] Setting up attention_reweight_dropout
I0822 23:34:25.895720  2111 net.cpp:157] Top shape: 80 512 (40960)
I0822 23:34:25.895722  2111 net.cpp:165] Memory required for data: 149929920
I0822 23:34:25.895725  2111 layer_factory.hpp:77] Creating layer classification_fc1
I0822 23:34:25.895730  2111 net.cpp:106] Creating Layer classification_fc1
I0822 23:34:25.895732  2111 net.cpp:454] classification_fc1 <- attention_reweight_dropout
I0822 23:34:25.895735  2111 net.cpp:411] classification_fc1 -> classification_fc1
I0822 23:34:25.896558  2111 net.cpp:150] Setting up classification_fc1
I0822 23:34:25.896562  2111 net.cpp:157] Top shape: 80 64 (5120)
I0822 23:34:25.896564  2111 net.cpp:165] Memory required for data: 149950400
I0822 23:34:25.896569  2111 layer_factory.hpp:77] Creating layer classification_dropout
I0822 23:34:25.896574  2111 net.cpp:106] Creating Layer classification_dropout
I0822 23:34:25.896576  2111 net.cpp:454] classification_dropout <- classification_fc1
I0822 23:34:25.896579  2111 net.cpp:411] classification_dropout -> classification_dropout
I0822 23:34:25.896602  2111 net.cpp:150] Setting up classification_dropout
I0822 23:34:25.896605  2111 net.cpp:157] Top shape: 80 64 (5120)
I0822 23:34:25.896607  2111 net.cpp:165] Memory required for data: 149970880
I0822 23:34:25.896610  2111 layer_factory.hpp:77] Creating layer classification_fc2
I0822 23:34:25.896615  2111 net.cpp:106] Creating Layer classification_fc2
I0822 23:34:25.896616  2111 net.cpp:454] classification_fc2 <- classification_dropout
I0822 23:34:25.896620  2111 net.cpp:411] classification_fc2 -> classification_fc2
I0822 23:34:25.896685  2111 net.cpp:150] Setting up classification_fc2
I0822 23:34:25.896689  2111 net.cpp:157] Top shape: 80 4 (320)
I0822 23:34:25.896692  2111 net.cpp:165] Memory required for data: 149972160
I0822 23:34:25.896695  2111 layer_factory.hpp:77] Creating layer classification_fc2_classification_fc2_0_split
I0822 23:34:25.896699  2111 net.cpp:106] Creating Layer classification_fc2_classification_fc2_0_split
I0822 23:34:25.896701  2111 net.cpp:454] classification_fc2_classification_fc2_0_split <- classification_fc2
I0822 23:34:25.896705  2111 net.cpp:411] classification_fc2_classification_fc2_0_split -> classification_fc2_classification_fc2_0_split_0
I0822 23:34:25.896708  2111 net.cpp:411] classification_fc2_classification_fc2_0_split -> classification_fc2_classification_fc2_0_split_1
I0822 23:34:25.896730  2111 net.cpp:150] Setting up classification_fc2_classification_fc2_0_split
I0822 23:34:25.896733  2111 net.cpp:157] Top shape: 80 4 (320)
I0822 23:34:25.896736  2111 net.cpp:157] Top shape: 80 4 (320)
I0822 23:34:25.896739  2111 net.cpp:165] Memory required for data: 149974720
I0822 23:34:25.896740  2111 layer_factory.hpp:77] Creating layer classification_loss
I0822 23:34:25.896744  2111 net.cpp:106] Creating Layer classification_loss
I0822 23:34:25.896747  2111 net.cpp:454] classification_loss <- classification_fc2_classification_fc2_0_split_0
I0822 23:34:25.896750  2111 net.cpp:454] classification_loss <- label_data_1_split_0
…
