…
I0822 13:18:24.403707 16768 net.cpp:322] The NetState phase (0) differed from the phase (1) specified by a rule in layer data
I0822 13:18:24.404795 16768 net.cpp:49] Initializing net from parameters: 
name: "DenseAttentionNet"
state {
  phase: TRAIN
}
layer {
  name: "data"
  type: "TextData"
  top: "data"
  top: "label"
  include {
    phase: TRAIN
  }
  text_data_param {
    label_source: "/ssd/ijcai18/data/agnews/train_label.txt"
    data_source: "/ssd/ijcai18/data/agnews/train_data.txt"
    dict_source: "/ssd/ijcai18/data/agnews/local_dic_index.txt"
    batch_size: 64
    channel: 1
    num_words: 200
    crop_height: 100
    crop_width: 300
  }
}
layer {
  name: "trans_layer_conv0"
  type: "Convolution"
  bottom: "data"
  top: "trans_layer_conv0"
  convolution_param {
    num_output: 64
    group: 1
    stride: 1
    weight_filler {
      type: "gaussian"
      std: 0.058925565
    }
    bias_filler {
      type: "constant"
      value: 0
    }
    pad_h: 0
    pad_w: 0
    kernel_h: 1
    kernel_w: 300
  }
}
layer {
  name: "trans_layer_bn0"
  type: "BatchNorm"
  bottom: "trans_layer_conv0"
  top: "trans_layer_bn0"
  param {
    lr_mult: 0
    decay_mult: 0
  }
  param {
    lr_mult: 0
    decay_mult: 0
  }
  param {
    lr_mult: 0
    decay_mult: 0
  }
}
layer {
  name: "trans_layer_relu0"
  type: "ReLU"
  bottom: "trans_layer_bn0"
  top: "trans_layer_bn0"
}
layer {
  name: "trans_layer_conv1"
  type: "Convolution"
  bottom: "trans_layer_bn0"
  top: "trans_layer_conv1"
  convolution_param {
    num_output: 64
    group: 1
    stride: 1
    weight_filler {
      type: "gaussian"
      std: 0.058925565
    }
    bias_filler {
      type: "constant"
      value: 0
    }
    pad_h: 0
    pad_w: 0
    kernel_h: 1
    kernel_w: 1
  }
}
layer {
  name: "trans_layer_bn1"
  type: "BatchNorm"
  bottom: "trans_layer_conv1"
  top: "trans_layer_bn1"
  param {
    lr_mult: 0
    decay_mult: 0
  }
  param {
    lr_mult: 0
    decay_mult: 0
  }
  param {
    lr_mult: 0
    decay_mult: 0
  }
}
layer {
  name: "trans_layer_relu1"
  type: "ReLU"
  bottom: "trans_layer_bn1"
  top: "trans_layer_bn1"
}
layer {
  name: "trans_layer_conv2"
  type: "Convolution"
  bottom: "trans_layer_bn1"
  top: "trans_layer_conv2"
  convolution_param {
    num_output: 64
    group: 1
    stride: 1
    weight_filler {
      type: "gaussian"
      std: 0.058925565
    }
    bias_filler {
      type: "constant"
      value: 0
    }
    pad_h: 0
    pad_w: 0
    kernel_h: 1
    kernel_w: 1
  }
}
layer {
  name: "trans_layer_bn2"
  type: "BatchNorm"
  bottom: "trans_layer_conv2"
  top: "trans_layer_bn2"
  param {
    lr_mult: 0
    decay_mult: 0
  }
  param {
    lr_mult: 0
    decay_mult: 0
  }
  param {
    lr_mult: 0
    decay_mult: 0
  }
}
layer {
  name: "trans_layer_relu2"
  type: "ReLU"
  bottom: "trans_layer_bn2"
  top: "trans_layer_bn2"
}
layer {
  name: "dense_layer_conv0"
  type: "Convolution"
  bottom: "trans_layer_bn2"
  top: "dense_layer_conv0"
  convolution_param {
    num_output: 64
    group: 1
    stride: 1
    weight_filler {
      type: "gaussian"
      std: 0.058925565
    }
    bias_filler {
      type: "constant"
      value: 0
    }
    pad_h: 1
    pad_w: 0
    kernel_h: 3
    kernel_w: 1
  }
}
layer {
  name: "dense_layer_concat0"
  type: "Concat"
  bottom: "dense_layer_conv0"
  bottom: "trans_layer_conv0"
  bottom: "trans_layer_conv1"
  bottom: "trans_layer_conv2"
  top: "dense_layer_concat0"
  concat_param {
    axis: 1
  }
}
layer {
  name: "dense_layer_bn0"
  type: "BatchNorm"
  bottom: "dense_layer_concat0"
  top: "dense_layer_bn0"
  param {
    lr_mult: 0
    decay_mult: 0
  }
  param {
    lr_mult: 0
    decay_mult: 0
  }
  param {
    lr_mult: 0
    decay_mult: 0
  }
}
layer {
  name: "dense_layer_relu0"
  type: "ReLU"
  bottom: "dense_layer_bn0"
  top: "dense_layer_bn0"
}
layer {
  name: "dense_layer_pool0"
  type: "Pooling"
  bottom: "dense_layer_bn0"
  top: "dense_layer_pool0"
  pooling_param {
    pool: AVE
    kernel_h: 3
    kernel_w: 1
    stride_h: 2
    stride_w: 1
    pad_h: 1
    pad_w: 0
  }
}
layer {
  name: "dense_layer_conv1"
  type: "Convolution"
  bottom: "dense_layer_pool0"
  top: "dense_layer_conv1"
  convolution_param {
    num_output: 64
    group: 1
    stride: 1
    weight_filler {
      type: "gaussian"
      std: 0.058925565
    }
    bias_filler {
      type: "constant"
      value: 0
    }
    pad_h: 1
    pad_w: 0
    kernel_h: 3
    kernel_w: 1
  }
}
layer {
  name: "dense_layer_concat1"
  type: "Concat"
  bottom: "dense_layer_conv1"
  bottom: "dense_layer_pool0"
  top: "dense_layer_concat1"
  concat_param {
    axis: 1
  }
}
layer {
  name: "dense_layer_bn1"
  type: "BatchNorm"
  bottom: "dense_layer_concat1"
  top: "dense_layer_bn1"
  param {
    lr_mult: 0
    decay_mult: 0
  }
  param {
    lr_mult: 0
    decay_mult: 0
  }
  param {
    lr_mult: 0
    decay_mult: 0
  }
}
layer {
  name: "dense_layer_relu1"
  type: "ReLU"
  bottom: "dense_layer_bn1"
  top: "dense_layer_bn1"
}
layer {
  name: "dense_layer_pool1"
  type: "Pooling"
  bottom: "dense_layer_bn1"
  top: "dense_layer_pool1"
  pooling_param {
    pool: AVE
    kernel_h: 3
    kernel_w: 1
    stride_h: 2
    stride_w: 1
    pad_h: 1
    pad_w: 0
  }
}
layer {
  name: "dense_layer_conv2"
  type: "Convolution"
  bottom: "dense_layer_pool1"
  top: "dense_layer_conv2"
  convolution_param {
    num_output: 64
    group: 1
    stride: 1
    weight_filler {
      type: "gaussian"
      std: 0.058925565
    }
    bias_filler {
      type: "constant"
      value: 0
    }
    pad_h: 1
    pad_w: 0
    kernel_h: 3
    kernel_w: 1
  }
}
layer {
  name: "dense_layer_concat2"
  type: "Concat"
  bottom: "dense_layer_conv2"
  bottom: "dense_layer_pool1"
  top: "dense_layer_concat2"
  concat_param {
    axis: 1
  }
}
layer {
  name: "dense_layer_bn2"
  type: "BatchNorm"
  bottom: "dense_layer_concat2"
  top: "dense_layer_bn2"
  param {
    lr_mult: 0
    decay_mult: 0
  }
  param {
    lr_mult: 0
    decay_mult: 0
  }
  param {
    lr_mult: 0
    decay_mult: 0
  }
}
layer {
  name: "dense_layer_relu2"
  type: "ReLU"
  bottom: "dense_layer_bn2"
  top: "dense_layer_bn2"
}
layer {
  name: "dense_layer_pool2"
  type: "Pooling"
  bottom: "dense_layer_bn2"
  top: "dense_layer_pool2"
  pooling_param {
    pool: AVE
    kernel_h: 3
    kernel_w: 1
    stride_h: 2
    stride_w: 1
    pad_h: 1
    pad_w: 0
  }
}
layer {
  name: "dense_layer_conv3"
  type: "Convolution"
  bottom: "dense_layer_pool2"
  top: "dense_layer_conv3"
  convolution_param {
    num_output: 64
    group: 1
    stride: 1
    weight_filler {
      type: "gaussian"
      std: 0.058925565
    }
    bias_filler {
      type: "constant"
      value: 0
    }
    pad_h: 1
    pad_w: 0
    kernel_h: 3
    kernel_w: 1
  }
}
layer {
  name: "dense_layer_concat3"
  type: "Concat"
  bottom: "dense_layer_conv3"
  bottom: "dense_layer_pool2"
  top: "dense_layer_concat3"
  concat_param {
    axis: 1
  }
}
layer {
  name: "dense_layer_bn3"
  type: "BatchNorm"
  bottom: "dense_layer_concat3"
  top: "dense_layer_bn3"
  param {
    lr_mult: 0
    decay_mult: 0
  }
  param {
    lr_mult: 0
    decay_mult: 0
  }
  param {
    lr_mult: 0
    decay_mult: 0
  }
}
layer {
  name: "dense_layer_relu3"
  type: "ReLU"
  bottom: "dense_layer_bn3"
  top: "dense_layer_bn3"
}
layer {
  name: "dense_layer_pool3"
  type: "Pooling"
  bottom: "dense_layer_bn3"
  top: "dense_layer_pool3"
  pooling_param {
    pool: AVE
    kernel_h: 3
    kernel_w: 1
    stride_h: 2
    stride_w: 1
    pad_h: 1
    pad_w: 0
  }
}
layer {
  name: "dense_layer_conv4"
  type: "Convolution"
  bottom: "dense_layer_pool3"
  top: "dense_layer_conv4"
  convolution_param {
    num_output: 64
    group: 1
    stride: 1
    weight_filler {
      type: "gaussian"
      std: 0.058925565
    }
    bias_filler {
      type: "constant"
      value: 0
    }
    pad_h: 1
    pad_w: 0
    kernel_h: 3
    kernel_w: 1
  }
}
layer {
  name: "dense_layer_concat4"
  type: "Concat"
  bottom: "dense_layer_conv4"
  bottom: "dense_layer_pool3"
  top: "dense_layer_concat4"
  concat_param {
    axis: 1
  }
}
layer {
  name: "dense_layer_bn4"
  type: "BatchNorm"
  bottom: "dense_layer_concat4"
  top: "dense_layer_bn4"
  param {
    lr_mult: 0
    decay_mult: 0
  }
  param {
    lr_mult: 0
    decay_mult: 0
  }
  param {
    lr_mult: 0
    decay_mult: 0
  }
}
layer {
  name: "dense_layer_relu4"
  type: "ReLU"
  bottom: "dense_layer_bn4"
  top: "dense_layer_bn4"
}
layer {
  name: "attention_layer_conv0"
  type: "Convolution"
  bottom: "dense_layer_bn4"
  top: "attention_layer_conv0"
  convolution_param {
    num_output: 512
    group: 8
    stride: 1
    weight_filler {
      type: "gaussian"
      std: 0.058925565
    }
    bias_filler {
      type: "constant"
      value: 0
    }
    pad_h: 0
    pad_w: 0
    kernel_h: 1
    kernel_w: 1
  }
}
layer {
  name: "attention_layer_bn0"
  type: "BatchNorm"
  bottom: "attention_layer_conv0"
  top: "attention_layer_bn0"
  param {
    lr_mult: 0
    decay_mult: 0
  }
  param {
    lr_mult: 0
    decay_mult: 0
  }
  param {
    lr_mult: 0
    decay_mult: 0
  }
}
layer {
  name: "attention_layer_relu0"
  type: "ReLU"
  bottom: "attention_layer_bn0"
  top: "attention_layer_bn0"
}
layer {
  name: "attention_layer_conv1"
  type: "Convolution"
  bottom: "attention_layer_bn0"
  top: "attention_layer_conv1"
  convolution_param {
    num_output: 512
    group: 8
    stride: 1
    weight_filler {
      type: "gaussian"
      std: 0.058925565
    }
    bias_filler {
      type: "constant"
      value: 0
    }
    pad_h: 0
    pad_w: 0
    kernel_h: 1
    kernel_w: 1
  }
}
layer {
  name: "attention_layer_bn1"
  type: "BatchNorm"
  bottom: "attention_layer_conv1"
  top: "attention_layer_bn1"
  param {
    lr_mult: 0
    decay_mult: 0
  }
  param {
    lr_mult: 0
    decay_mult: 0
  }
  param {
    lr_mult: 0
    decay_mult: 0
  }
}
layer {
  name: "attention_layer_relu1"
  type: "ReLU"
  bottom: "attention_layer_bn1"
  top: "attention_layer_bn1"
}
layer {
  name: "attention_scale_slice"
  type: "Slice"
  bottom: "attention_layer_bn1"
  top: "attention_scale0"
  top: "attention_scale1"
  top: "attention_scale2"
  top: "attention_scale3"
  top: "attention_scale4"
  top: "attention_scale5"
  top: "attention_scale6"
  top: "attention_scale7"
  slice_param {
    slice_point: 64
    slice_point: 128
    slice_point: 192
    slice_point: 256
    slice_point: 320
    slice_point: 384
    slice_point: 448
    axis: 1
  }
}
layer {
  name: "attention_permute0"
  type: "Permute"
  bottom: "attention_scale0"
  top: "attention_permute0"
  permute_param {
    order: 0
    order: 3
    order: 2
    order: 1
  }
}
layer {
  name: "attention_reduction0"
  type: "Reduction"
  bottom: "attention_permute0"
  top: "attention_reduction0"
  reduction_param {
    axis: 3
  }
}
layer {
  name: "attention_permute1"
  type: "Permute"
  bottom: "attention_scale1"
  top: "attention_permute1"
  permute_param {
    order: 0
    order: 3
    order: 2
    order: 1
  }
}
layer {
  name: "attention_reduction1"
  type: "Reduction"
  bottom: "attention_permute1"
  top: "attention_reduction1"
  reduction_param {
    axis: 3
  }
}
layer {
  name: "attention_permute2"
  type: "Permute"
  bottom: "attention_scale2"
  top: "attention_permute2"
  permute_param {
    order: 0
    order: 3
    order: 2
    order: 1
  }
}
layer {
  name: "attention_reduction2"
  type: "Reduction"
  bottom: "attention_permute2"
  top: "attention_reduction2"
  reduction_param {
    axis: 3
  }
}
layer {
  name: "attention_permute3"
  type: "Permute"
  bottom: "attention_scale3"
  top: "attention_permute3"
  permute_param {
    order: 0
    order: 3
    order: 2
    order: 1
  }
}
layer {
  name: "attention_reduction3"
  type: "Reduction"
  bottom: "attention_permute3"
  top: "attention_reduction3"
  reduction_param {
    axis: 3
  }
}
layer {
  name: "attention_permute4"
  type: "Permute"
  bottom: "attention_scale4"
  top: "attention_permute4"
  permute_param {
    order: 0
    order: 3
    order: 2
    order: 1
  }
}
layer {
  name: "attention_reduction4"
  type: "Reduction"
  bottom: "attention_permute4"
  top: "attention_reduction4"
  reduction_param {
    axis: 3
  }
}
layer {
  name: "attention_permute5"
  type: "Permute"
  bottom: "attention_scale5"
  top: "attention_permute5"
  permute_param {
    order: 0
    order: 3
    order: 2
    order: 1
  }
}
layer {
  name: "attention_reduction5"
  type: "Reduction"
  bottom: "attention_permute5"
  top: "attention_reduction5"
  reduction_param {
    axis: 3
  }
}
layer {
  name: "attention_permute6"
  type: "Permute"
  bottom: "attention_scale6"
  top: "attention_permute6"
  permute_param {
    order: 0
    order: 3
    order: 2
    order: 1
  }
}
layer {
  name: "attention_reduction6"
  type: "Reduction"
  bottom: "attention_permute6"
  top: "attention_reduction6"
  reduction_param {
    axis: 3
  }
}
layer {
  name: "attention_permute7"
  type: "Permute"
  bottom: "attention_scale7"
  top: "attention_permute7"
  permute_param {
    order: 0
    order: 3
    order: 2
    order: 1
  }
}
layer {
  name: "attention_reduction7"
  type: "Reduction"
  bottom: "attention_permute7"
  top: "attention_reduction7"
  reduction_param {
    axis: 3
  }
}
layer {
  name: "attention_scale_concat"
  type: "Concat"
  bottom: "attention_reduction0"
  bottom: "attention_reduction1"
  bottom: "attention_reduction2"
  bottom: "attention_reduction3"
  bottom: "attention_reduction4"
  bottom: "attention_reduction5"
  bottom: "attention_reduction6"
  bottom: "attention_reduction7"
  top: "attention_scale_concat"
  concat_param {
    axis: 1
  }
}
layer {
  name: "attention_height_slice"
  type: "Slice"
  bottom: "attention_scale_concat"
  top: "attention_height0"
  top: "attention_height1"
  top: "attention_height2"
  top: "attention_height3"
  top: "attention_height4"
  top: "attention_height5"
  top: "attention_height6"
  top: "attention_height7"
  slice_param {
    slice_point: 1
    slice_point: 2
    slice_point: 3
    slice_point: 4
    slice_point: 5
    slice_point: 6
    slice_point: 7
    axis: 2
  }
}
layer {
  name: "attention_height_fc1_0"
  type: "InnerProduct"
  bottom: "attention_height0"
  top: "attention_height_fc1_0"
  inner_product_param {
    num_output: 128
    weight_filler {
      type: "gaussian"
      std: 0.001
    }
    bias_filler {
      type: "constant"
      value: 0
    }
  }
}
layer {
  name: "attention_height_fc2_0"
  type: "InnerProduct"
  bottom: "attention_height_fc1_0"
  top: "attention_height_fc2_0"
  inner_product_param {
    num_output: 64
    weight_filler {
      type: "gaussian"
      std: 0.001
    }
    bias_filler {
      type: "constant"
      value: 0
    }
  }
}
layer {
  name: "attention_height_fc3_0"
  type: "InnerProduct"
  bottom: "attention_height_fc2_0"
  top: "attention_height_fc3_0"
  inner_product_param {
    num_output: 8
    weight_filler {
      type: "gaussian"
      std: 0.001
    }
    bias_filler {
      type: "constant"
      value: 0
    }
  }
}
layer {
  name: "attention_height_reshape0"
  type: "Reshape"
  bottom: "attention_height_fc3_0"
  top: "attention_height_reshape0"
  reshape_param {
    shape {
      dim: 0
      dim: 0
      dim: 1
      dim: 1
    }
  }
}
layer {
  name: "attention_height_fc1_1"
  type: "InnerProduct"
  bottom: "attention_height1"
  top: "attention_height_fc1_1"
  inner_product_param {
    num_output: 128
    weight_filler {
      type: "gaussian"
      std: 0.001
    }
    bias_filler {
      type: "constant"
      value: 0
    }
  }
}
layer {
  name: "attention_height_fc2_1"
  type: "InnerProduct"
  bottom: "attention_height_fc1_1"
  top: "attention_height_fc2_1"
  inner_product_param {
    num_output: 64
    weight_filler {
      type: "gaussian"
      std: 0.001
    }
    bias_filler {
      type: "constant"
      value: 0
    }
  }
}
layer {
  name: "attention_height_fc3_1"
  type: "InnerProduct"
  bottom: "attention_height_fc2_1"
  top: "attention_height_fc3_1"
  inner_product_param {
    num_output: 8
    weight_filler {
      type: "gaussian"
      std: 0.001
    }
    bias_filler {
      type: "constant"
      value: 0
    }
  }
}
layer {
  name: "attention_height_reshape1"
  type: "Reshape"
  bottom: "attention_height_fc3_1"
  top: "attention_height_reshape1"
  reshape_param {
    shape {
      dim: 0
      dim: 0
      dim: 1
      dim: 1
    }
  }
}
layer {
  name: "attention_height_fc1_2"
  type: "InnerProduct"
  bottom: "attention_height2"
  top: "attention_height_fc1_2"
  inner_product_param {
    num_output: 128
    weight_filler {
      type: "gaussian"
      std: 0.001
    }
    bias_filler {
      type: "constant"
      value: 0
    }
  }
}
layer {
  name: "attention_height_fc2_2"
  type: "InnerProduct"
  bottom: "attention_height_fc1_2"
  top: "attention_height_fc2_2"
  inner_product_param {
    num_output: 64
    weight_filler {
      type: "gaussian"
      std: 0.001
    }
    bias_filler {
      type: "constant"
      value: 0
    }
  }
}
layer {
  name: "attention_height_fc3_2"
  type: "InnerProduct"
  bottom: "attention_height_fc2_2"
  top: "attention_height_fc3_2"
  inner_product_param {
    num_output: 8
    weight_filler {
      type: "gaussian"
      std: 0.001
    }
    bias_filler {
      type: "constant"
      value: 0
    }
  }
}
layer {
  name: "attention_height_reshape2"
  type: "Reshape"
  bottom: "attention_height_fc3_2"
  top: "attention_height_reshape2"
  reshape_param {
    shape {
      dim: 0
      dim: 0
      dim: 1
      dim: 1
    }
  }
}
layer {
  name: "attention_height_fc1_3"
  type: "InnerProduct"
  bottom: "attention_height3"
  top: "attention_height_fc1_3"
  inner_product_param {
    num_output: 128
    weight_filler {
      type: "gaussian"
      std: 0.001
    }
    bias_filler {
      type: "constant"
      value: 0
    }
  }
}
layer {
  name: "attention_height_fc2_3"
  type: "InnerProduct"
  bottom: "attention_height_fc1_3"
  top: "attention_height_fc2_3"
  inner_product_param {
    num_output: 64
    weight_filler {
      type: "gaussian"
      std: 0.001
    }
    bias_filler {
      type: "constant"
      value: 0
    }
  }
}
layer {
  name: "attention_height_fc3_3"
  type: "InnerProduct"
  bottom: "attention_height_fc2_3"
  top: "attention_height_fc3_3"
  inner_product_param {
    num_output: 8
    weight_filler {
      type: "gaussian"
      std: 0.001
    }
    bias_filler {
      type: "constant"
      value: 0
    }
  }
}
layer {
  name: "attention_height_reshape3"
  type: "Reshape"
  bottom: "attention_height_fc3_3"
  top: "attention_height_reshape3"
  reshape_param {
    shape {
      dim: 0
      dim: 0
      dim: 1
      dim: 1
    }
  }
}
layer {
  name: "attention_height_fc1_4"
  type: "InnerProduct"
  bottom: "attention_height4"
  top: "attention_height_fc1_4"
  inner_product_param {
    num_output: 128
    weight_filler {
      type: "gaussian"
      std: 0.001
    }
    bias_filler {
      type: "constant"
      value: 0
    }
  }
}
layer {
  name: "attention_height_fc2_4"
  type: "InnerProduct"
  bottom: "attention_height_fc1_4"
  top: "attention_height_fc2_4"
  inner_product_param {
    num_output: 64
    weight_filler {
      type: "gaussian"
      std: 0.001
    }
    bias_filler {
      type: "constant"
      value: 0
    }
  }
}
layer {
  name: "attention_height_fc3_4"
  type: "InnerProduct"
  bottom: "attention_height_fc2_4"
  top: "attention_height_fc3_4"
  inner_product_param {
    num_output: 8
    weight_filler {
      type: "gaussian"
      std: 0.001
    }
    bias_filler {
      type: "constant"
      value: 0
    }
  }
}
layer {
  name: "attention_height_reshape4"
  type: "Reshape"
  bottom: "attention_height_fc3_4"
  top: "attention_height_reshape4"
  reshape_param {
    shape {
      dim: 0
      dim: 0
      dim: 1
      dim: 1
    }
  }
}
layer {
  name: "attention_height_fc1_5"
  type: "InnerProduct"
  bottom: "attention_height5"
  top: "attention_height_fc1_5"
  inner_product_param {
    num_output: 128
    weight_filler {
      type: "gaussian"
      std: 0.001
    }
    bias_filler {
      type: "constant"
      value: 0
    }
  }
}
layer {
  name: "attention_height_fc2_5"
  type: "InnerProduct"
  bottom: "attention_height_fc1_5"
  top: "attention_height_fc2_5"
  inner_product_param {
    num_output: 64
    weight_filler {
      type: "gaussian"
      std: 0.001
    }
    bias_filler {
      type: "constant"
      value: 0
    }
  }
}
layer {
  name: "attention_height_fc3_5"
  type: "InnerProduct"
  bottom: "attention_height_fc2_5"
  top: "attention_height_fc3_5"
  inner_product_param {
    num_output: 8
    weight_filler {
      type: "gaussian"
      std: 0.001
    }
    bias_filler {
      type: "constant"
      value: 0
    }
  }
}
layer {
  name: "attention_height_reshape5"
  type: "Reshape"
  bottom: "attention_height_fc3_5"
  top: "attention_height_reshape5"
  reshape_param {
    shape {
      dim: 0
      dim: 0
      dim: 1
      dim: 1
    }
  }
}
layer {
  name: "attention_height_fc1_6"
  type: "InnerProduct"
  bottom: "attention_height6"
  top: "attention_height_fc1_6"
  inner_product_param {
    num_output: 128
    weight_filler {
      type: "gaussian"
      std: 0.001
    }
    bias_filler {
      type: "constant"
      value: 0
    }
  }
}
layer {
  name: "attention_height_fc2_6"
  type: "InnerProduct"
  bottom: "attention_height_fc1_6"
  top: "attention_height_fc2_6"
  inner_product_param {
    num_output: 64
    weight_filler {
      type: "gaussian"
      std: 0.001
    }
    bias_filler {
      type: "constant"
      value: 0
    }
  }
}
layer {
  name: "attention_height_fc3_6"
  type: "InnerProduct"
  bottom: "attention_height_fc2_6"
  top: "attention_height_fc3_6"
  inner_product_param {
    num_output: 8
    weight_filler {
      type: "gaussian"
      std: 0.001
    }
    bias_filler {
      type: "constant"
      value: 0
    }
  }
}
layer {
  name: "attention_height_reshape6"
  type: "Reshape"
  bottom: "attention_height_fc3_6"
  top: "attention_height_reshape6"
  reshape_param {
    shape {
      dim: 0
      dim: 0
      dim: 1
      dim: 1
    }
  }
}
layer {
  name: "attention_height_fc1_7"
  type: "InnerProduct"
  bottom: "attention_height7"
  top: "attention_height_fc1_7"
  inner_product_param {
    num_output: 128
    weight_filler {
      type: "gaussian"
      std: 0.001
    }
    bias_filler {
      type: "constant"
      value: 0
    }
  }
}
layer {
  name: "attention_height_fc2_7"
  type: "InnerProduct"
  bottom: "attention_height_fc1_7"
  top: "attention_height_fc2_7"
  inner_product_param {
    num_output: 64
    weight_filler {
      type: "gaussian"
      std: 0.001
    }
    bias_filler {
      type: "constant"
      value: 0
    }
  }
}
layer {
  name: "attention_height_fc3_7"
  type: "InnerProduct"
  bottom: "attention_height_fc2_7"
  top: "attention_height_fc3_7"
  inner_product_param {
    num_output: 8
    weight_filler {
      type: "gaussian"
      std: 0.001
    }
    bias_filler {
      type: "constant"
      value: 0
    }
  }
}
layer {
  name: "attention_height_reshape7"
  type: "Reshape"
  bottom: "attention_height_fc3_7"
  top: "attention_height_reshape7"
  reshape_param {
    shape {
      dim: 0
      dim: 0
      dim: 1
      dim: 1
    }
  }
}
layer {
  name: "attention_height_concat"
  type: "Concat"
  bottom: "attention_height_reshape0"
  bottom: "attention_height_reshape1"
  bottom: "attention_height_reshape2"
  bottom: "attention_height_reshape3"
  bottom: "attention_height_reshape4"
  bottom: "attention_height_reshape5"
  bottom: "attention_height_reshape6"
  bottom: "attention_height_reshape7"
  top: "attention_height_concat"
  concat_param {
    axis: 2
  }
}
layer {
  name: "attention_weight"
  type: "Softmax"
  bottom: "attention_height_concat"
  top: "attention_weight"
}
layer {
  name: "attention_weight_slice"
  type: "Slice"
  bottom: "attention_weight"
  top: "attention_weight_slice0"
  top: "attention_weight_slice1"
  top: "attention_weight_slice2"
  top: "attention_weight_slice3"
  top: "attention_weight_slice4"
  top: "attention_weight_slice5"
  top: "attention_weight_slice6"
  top: "attention_weight_slice7"
  slice_param {
    slice_point: 1
    slice_point: 2
    slice_point: 3
    slice_point: 4
    slice_point: 5
    slice_point: 6
    slice_point: 7
    axis: 1
  }
}
layer {
  name: "attention_weight_tile0"
  type: "Tile"
  bottom: "attention_weight_slice0"
  top: "attention_weight_tile0"
  tile_param {
    axis: 1
    tiles: 64
  }
}
layer {
  name: "attention_reweight0"
  type: "Eltwise"
  bottom: "attention_scale0"
  bottom: "attention_weight_tile0"
  top: "attention_reweight0"
  eltwise_param {
    operation: PROD
  }
}
layer {
  name: "attention_weight_tile1"
  type: "Tile"
  bottom: "attention_weight_slice1"
  top: "attention_weight_tile1"
  tile_param {
    axis: 1
    tiles: 64
  }
}
layer {
  name: "attention_reweight1"
  type: "Eltwise"
  bottom: "attention_scale1"
  bottom: "attention_weight_tile1"
  top: "attention_reweight1"
  eltwise_param {
    operation: PROD
  }
}
layer {
  name: "attention_weight_tile2"
  type: "Tile"
  bottom: "attention_weight_slice2"
  top: "attention_weight_tile2"
  tile_param {
    axis: 1
    tiles: 64
  }
}
layer {
  name: "attention_reweight2"
  type: "Eltwise"
  bottom: "attention_scale2"
  bottom: "attention_weight_tile2"
  top: "attention_reweight2"
  eltwise_param {
    operation: PROD
  }
}
layer {
  name: "attention_weight_tile3"
  type: "Tile"
  bottom: "attention_weight_slice3"
  top: "attention_weight_tile3"
  tile_param {
    axis: 1
    tiles: 64
  }
}
layer {
  name: "attention_reweight3"
  type: "Eltwise"
  bottom: "attention_scale3"
  bottom: "attention_weight_tile3"
  top: "attention_reweight3"
  eltwise_param {
    operation: PROD
  }
}
layer {
  name: "attention_weight_tile4"
  type: "Tile"
  bottom: "attention_weight_slice4"
  top: "attention_weight_tile4"
  tile_param {
    axis: 1
    tiles: 64
  }
}
layer {
  name: "attention_reweight4"
  type: "Eltwise"
  bottom: "attention_scale4"
  bottom: "attention_weight_tile4"
  top: "attention_reweight4"
  eltwise_param {
    operation: PROD
  }
}
layer {
  name: "attention_weight_tile5"
  type: "Tile"
  bottom: "attention_weight_slice5"
  top: "attention_weight_tile5"
  tile_param {
    axis: 1
    tiles: 64
  }
}
layer {
  name: "attention_reweight5"
  type: "Eltwise"
  bottom: "attention_scale5"
  bottom: "attention_weight_tile5"
  top: "attention_reweight5"
  eltwise_param {
    operation: PROD
  }
}
layer {
  name: "attention_weight_tile6"
  type: "Tile"
  bottom: "attention_weight_slice6"
  top: "attention_weight_tile6"
  tile_param {
    axis: 1
    tiles: 64
  }
}
layer {
  name: "attention_reweight6"
  type: "Eltwise"
  bottom: "attention_scale6"
  bottom: "attention_weight_tile6"
  top: "attention_reweight6"
  eltwise_param {
    operation: PROD
  }
}
layer {
  name: "attention_weight_tile7"
  type: "Tile"
  bottom: "attention_weight_slice7"
  top: "attention_weight_tile7"
  tile_param {
    axis: 1
    tiles: 64
  }
}
layer {
  name: "attention_reweight7"
  type: "Eltwise"
  bottom: "attention_scale7"
  bottom: "attention_weight_tile7"
  top: "attention_reweight7"
  eltwise_param {
    operation: PROD
  }
}
layer {
  name: "attention_reweight_sum"
  type: "Eltwise"
  bottom: "attention_reweight0"
  bottom: "attention_reweight1"
  bottom: "attention_reweight2"
  bottom: "attention_reweight3"
  bottom: "attention_reweight4"
  bottom: "attention_reweight5"
  bottom: "attention_reweight6"
  bottom: "attention_reweight7"
  top: "attention_reweight_sum"
  eltwise_param {
    operation: SUM
  }
}
layer {
  name: "attention_reweight_flatten"
  type: "Flatten"
  bottom: "attention_reweight_sum"
  top: "attention_reweight_flatten"
}
layer {
  name: "attention_reweight_dropout"
  type: "Dropout"
  bottom: "attention_reweight_flatten"
  top: "attention_reweight_dropout"
  dropout_param {
    dropout_ratio: 0.7
  }
}
layer {
  name: "classification_fc1"
  type: "InnerProduct"
  bottom: "attention_reweight_dropout"
  top: "classification_fc1"
  inner_product_param {
    num_output: 64
    weight_filler {
      type: "gaussian"
      std: 0.001
    }
    bias_filler {
      type: "constant"
      value: 0
    }
  }
}
layer {
  name: "classification_dropout"
  type: "Dropout"
  bottom: "classification_fc1"
  top: "classification_dropout"
  dropout_param {
    dropout_ratio: 0.7
  }
}
layer {
  name: "classification_fc2"
  type: "InnerProduct"
  bottom: "classification_dropout"
  top: "classification_fc2"
  param {
    lr_mult: 10
    decay_mult: 2
  }
  param {
    lr_mult: 10
    decay_mult: 2
  }
  inner_product_param {
    num_output: 4
    weight_filler {
      type: "gaussian"
      std: 0.001
    }
    bias_filler {
      type: "constant"
      value: 0
    }
  }
}
layer {
  name: "classification_loss"
  type: "SoftmaxWithLoss"
  bottom: "classification_fc2"
  bottom: "label"
  top: "classification_loss"
}
layer {
  name: "classification_accuracy"
  type: "Accuracy"
  bottom: "classification_fc2"
  bottom: "label"
  top: "classification_accuracy"
}
layer {
  name: "attention_pool_scale0"
  type: "Pooling"
  bottom: "attention_scale0"
  top: "attention_pool_scale0"
  pooling_param {
    global_pooling: true
  }
}
layer {
  name: "attention_flatten_scale0"
  type: "Flatten"
  bottom: "attention_pool_scale0"
  top: "attention_flatten_scale0"
}
layer {
  name: "attention_dropout_scale0"
  type: "Dropout"
  bottom: "attention_flatten_scale0"
  top: "attention_dropout_scale0"
  dropout_param {
    dropout_ratio: 0.7
  }
}
layer {
  name: "classification_fc1_scale0"
  type: "InnerProduct"
  bottom: "attention_dropout_scale0"
  top: "classification_fc1_scale0"
  inner_product_param {
    num_output: 64
    weight_filler {
      type: "gaussian"
      std: 0.001
    }
    bias_filler {
      type: "constant"
      value: 0
    }
  }
}
layer {
  name: "classification_dropout_scale0"
  type: "Dropout"
  bottom: "classification_fc1_scale0"
  top: "classification_dropout_scale0"
  dropout_param {
    dropout_ratio: 0.7
  }
}
layer {
  name: 
I0822 13:18:24.405480 16768 layer_factory.hpp:77] Creating layer data
I0822 13:18:24.405514 16768 net.cpp:106] Creating Layer data
I0822 13:18:24.405519 16768 net.cpp:411] data -> data
I0822 13:18:24.405537 16768 net.cpp:411] data -> label
I0822 13:18:24.411516 16768 text_data_layer.cpp:83] read label done (120000 samples)
I0822 13:18:24.411525 16768 text_data_layer.cpp:86] Reading content
I0822 13:18:24.436678 16768 text_data_layer.cpp:102] read content done: #120000 samples.
I0822 13:18:24.437018 16768 text_data_layer.cpp:108] Shuffling data
I0822 13:18:24.468914 16768 text_data_layer.cpp:117] output data size: 64,1,100,300
I0822 13:18:24.468981 16768 text_data_layer.cpp:125] Reading vector dict...
I0822 13:18:29.050524 16768 text_data_layer.cpp:132] vec_dict size: 56249
I0822 13:18:29.059680 16768 net.cpp:150] Setting up data
I0822 13:18:29.059710 16768 net.cpp:157] Top shape: 64 1 100 300 (1920000)
I0822 13:18:29.059715 16768 net.cpp:157] Top shape: 64 (64)
I0822 13:18:29.059717 16768 net.cpp:165] Memory required for data: 7680256
I0822 13:18:29.059725 16768 layer_factory.hpp:77] Creating layer label_data_1_split
I0822 13:18:29.059738 16768 net.cpp:106] Creating Layer label_data_1_split
I0822 13:18:29.059743 16768 net.cpp:454] label_data_1_split <- label
I0822 13:18:29.059751 16768 net.cpp:411] label_data_1_split -> label_data_1_split_0
I0822 13:18:29.059762 16768 net.cpp:411] label_data_1_split -> label_data_1_split_1
…
I0822 13:18:29.059815 16768 net.cpp:411] label_data_1_split -> label_data_1_split_12
I0822 13:18:29.059820 16768 net.cpp:411] label_data_1_split -> label_data_1_split_13
I0822 13:18:29.059825 16768 net.cpp:411] label_data_1_split -> label_data_1_split_14
I0822 13:18:29.059831 16768 net.cpp:411] label_data_1_split -> label_data_1_split_15
I0822 13:18:29.059836 16768 net.cpp:411] label_data_1_split -> label_data_1_split_16
I0822 13:18:29.059841 16768 net.cpp:411] label_data_1_split -> label_data_1_split_17
I0822 13:18:29.060029 16768 net.cpp:150] Setting up label_data_1_split
I0822 13:18:29.060036 16768 net.cpp:157] Top shape: 64 (64)
I0822 13:18:29.060039 16768 net.cpp:157] Top shape: 64 (64)
I0822 13:18:29.060042 16768 net.cpp:157] Top shape: 64 (64)
I0822 13:18:29.060045 16768 net.cpp:157] Top shape: 64 (64)
I0822 13:18:29.060048 16768 net.cpp:157] Top shape: 64 (64)
I0822 13:18:29.060050 16768 net.cpp:157] Top shape: 64 (64)
I0822 13:18:29.060053 16768 net.cpp:157] Top shape: 64 (64)
I0822 13:18:29.060056 16768 net.cpp:157] Top shape: 64 (64)
I0822 13:18:29.060060 16768 net.cpp:157] Top shape: 64 (64)
I0822 13:18:29.060061 16768 net.cpp:157] Top shape: 64 (64)
I0822 13:18:29.060065 16768 net.cpp:157] Top shape: 64 (64)
I0822 13:18:29.060066 16768 net.cpp:157] Top shape: 64 (64)
I0822 13:18:29.060070 16768 net.cpp:157] Top shape: 64 (64)
I0822 13:18:29.060071 16768 net.cpp:157] Top shape: 64 (64)
I0822 13:18:29.060075 16768 net.cpp:157] Top shape: 64 (64)
I0822 13:18:29.060077 16768 net.cpp:157] Top shape: 64 (64)
I0822 13:18:29.060079 16768 net.cpp:157] Top shape: 64 (64)
I0822 13:18:29.060082 16768 net.cpp:157] Top shape: 64 (64)
I0822 13:18:29.060084 16768 net.cpp:165] Memory required for data: 7684864
I0822 13:18:29.060087 16768 layer_factory.hpp:77] Creating layer trans_layer_conv0
I0822 13:18:29.060103 16768 net.cpp:106] Creating Layer trans_layer_conv0
I0822 13:18:29.060109 16768 net.cpp:454] trans_layer_conv0 <- data
I0822 13:18:29.060113 16768 net.cpp:411] trans_layer_conv0 -> trans_layer_conv0
I0822 13:18:29.061511 16768 net.cpp:150] Setting up trans_layer_conv0
I0822 13:18:29.061522 16768 net.cpp:157] Top shape: 64 64 100 1 (409600)
I0822 13:18:29.061525 16768 net.cpp:165] Memory required for data: 9323264
I0822 13:18:29.061535 16768 layer_factory.hpp:77] Creating layer trans_layer_conv0_trans_layer_conv0_0_split
I0822 13:18:29.061540 16768 net.cpp:106] Creating Layer trans_layer_conv0_trans_layer_conv0_0_split
I0822 13:18:29.061543 16768 net.cpp:454] trans_layer_conv0_trans_layer_conv0_0_split <- trans_layer_conv0
I0822 13:18:29.061547 16768 net.cpp:411] trans_layer_conv0_trans_layer_conv0_0_split -> trans_layer_conv0_trans_layer_conv0_0_split_0
I0822 13:18:29.061553 16768 net.cpp:411] trans_layer_conv0_trans_layer_conv0_0_split -> trans_layer_conv0_trans_layer_conv0_0_split_1
I0822 13:18:29.061619 16768 net.cpp:150] Setting up trans_layer_conv0_trans_layer_conv0_0_split
I0822 13:18:29.061626 16768 net.cpp:157] Top shape: 64 64 100 1 (409600)
I0822 13:18:29.061630 16768 net.cpp:157] Top shape: 64 64 100 1 (409600)
I0822 13:18:29.061632 16768 net.cpp:165] Memory required for data: 12600064
I0822 13:18:29.061635 16768 layer_factory.hpp:77] Creating layer trans_layer_bn0
I0822 13:18:29.061645 16768 net.cpp:106] Creating Layer trans_layer_bn0
I0822 13:18:29.061651 16768 net.cpp:454] trans_layer_bn0 <- trans_layer_conv0_trans_layer_conv0_0_split_0
I0822 13:18:29.061656 16768 net.cpp:411] trans_layer_bn0 -> trans_layer_bn0
I0822 13:18:29.062361 16768 net.cpp:150] Setting up trans_layer_bn0
I0822 13:18:29.062371 16768 net.cpp:157] Top shape: 64 64 100 1 (409600)
I0822 13:18:29.062373 16768 net.cpp:165] Memory required for data: 14238464
I0822 13:18:29.062381 16768 layer_factory.hpp:77] Creating layer trans_layer_relu0
I0822 13:18:29.062386 16768 net.cpp:106] Creating Layer trans_layer_relu0
I0822 13:18:29.062389 16768 net.cpp:454] trans_layer_relu0 <- trans_layer_bn0
I0822 13:18:29.062393 16768 net.cpp:397] trans_layer_relu0 -> trans_layer_bn0 (in-place)
I0822 13:18:29.062398 16768 net.cpp:150] Setting up trans_layer_relu0
I0822 13:18:29.062402 16768 net.cpp:157] Top shape: 64 64 100 1 (409600)
I0822 13:18:29.062403 16768 net.cpp:165] Memory required for data: 15876864
I0822 13:18:29.062407 16768 layer_factory.hpp:77] Creating layer trans_layer_conv1
I0822 13:18:29.062412 16768 net.cpp:106] Creating Layer trans_layer_conv1
I0822 13:18:29.062415 16768 net.cpp:454] trans_layer_conv1 <- trans_layer_bn0
I0822 13:18:29.062419 16768 net.cpp:411] trans_layer_conv1 -> trans_layer_conv1
I0822 13:18:29.063351 16768 net.cpp:150] Setting up trans_layer_conv1
I0822 13:18:29.063364 16768 net.cpp:157] Top shape: 64 64 100 1 (409600)
I0822 13:18:29.063367 16768 net.cpp:165] Memory required for data: 17515264
I0822 13:18:29.063374 16768 layer_factory.hpp:77] Creating layer trans_layer_conv1_trans_layer_conv1_0_split
I0822 13:18:29.063377 16768 net.cpp:106] Creating Layer trans_layer_conv1_trans_layer_conv1_0_split
I0822 13:18:29.063380 16768 net.cpp:454] trans_layer_conv1_trans_layer_conv1_0_split <- trans_layer_conv1
I0822 13:18:29.063385 16768 net.cpp:411] trans_layer_conv1_trans_layer_conv1_0_split -> trans_layer_conv1_trans_layer_conv1_0_split_0
I0822 13:18:29.063390 16768 net.cpp:411] trans_layer_conv1_trans_layer_conv1_0_split -> trans_layer_conv1_trans_layer_conv1_0_split_1
I0822 13:18:29.063414 16768 net.cpp:150] Setting up trans_layer_conv1_trans_layer_conv1_0_split
I0822 13:18:29.063422 16768 net.cpp:157] Top shape: 64 64 100 1 (409600)
I0822 13:18:29.063426 16768 net.cpp:157] Top shape: 64 64 100 1 (409600)
I0822 13:18:29.063428 16768 net.cpp:165] Memory required for data: 20792064
I0822 13:18:29.063431 16768 layer_factory.hpp:77] Creating layer trans_layer_bn1
I0822 13:18:29.063437 16768 net.cpp:106] Creating Layer trans_layer_bn1
I0822 13:18:29.063439 16768 net.cpp:454] trans_layer_bn1 <- trans_layer_conv1_trans_layer_conv1_0_split_0
I0822 13:18:29.063443 16768 net.cpp:411] trans_layer_bn1 -> trans_layer_bn1
I0822 13:18:29.063562 16768 net.cpp:150] Setting up trans_layer_bn1
I0822 13:18:29.063571 16768 net.cpp:157] Top shape: 64 64 100 1 (409600)
I0822 13:18:29.063573 16768 net.cpp:165] Memory required for data: 22430464
I0822 13:18:29.063581 16768 layer_factory.hpp:77] Creating layer trans_layer_relu1
I0822 13:18:29.063588 16768 net.cpp:106] Creating Layer trans_layer_relu1
I0822 13:18:29.063591 16768 net.cpp:454] trans_layer_relu1 <- trans_layer_bn1
I0822 13:18:29.063594 16768 net.cpp:397] trans_layer_relu1 -> trans_layer_bn1 (in-place)
I0822 13:18:29.063599 16768 net.cpp:150] Setting up trans_layer_relu1
I0822 13:18:29.063602 16768 net.cpp:157] Top shape: 64 64 100 1 (409600)
I0822 13:18:29.063604 16768 net.cpp:165] Memory required for data: 24068864
I0822 13:18:29.063607 16768 layer_factory.hpp:77] Creating layer trans_layer_conv2
I0822 13:18:29.063613 16768 net.cpp:106] Creating Layer trans_layer_conv2
I0822 13:18:29.063616 16768 net.cpp:454] trans_layer_conv2 <- trans_layer_bn1
I0822 13:18:29.063619 16768 net.cpp:411] trans_layer_conv2 -> trans_layer_conv2
I0822 13:18:29.063856 16768 net.cpp:150] Setting up trans_layer_conv2
I0822 13:18:29.063863 16768 net.cpp:157] Top shape: 64 64 100 1 (409600)
I0822 13:18:29.063865 16768 net.cpp:165] Memory required for data: 25707264
I0822 13:18:29.063869 16768 layer_factory.hpp:77] Creating layer trans_layer_conv2_trans_layer_conv2_0_split
I0822 13:18:29.063874 16768 net.cpp:106] Creating Layer trans_layer_conv2_trans_layer_conv2_0_split
I0822 13:18:29.063877 16768 net.cpp:454] trans_layer_conv2_trans_layer_conv2_0_split <- trans_layer_conv2
I0822 13:18:29.063881 16768 net.cpp:411] trans_layer_conv2_trans_layer_conv2_0_split -> trans_layer_conv2_trans_layer_conv2_0_split_0
I0822 13:18:29.063885 16768 net.cpp:411] trans_layer_conv2_trans_layer_conv2_0_split -> trans_layer_conv2_trans_layer_conv2_0_split_1
I0822 13:18:29.063907 16768 net.cpp:150] Setting up trans_layer_conv2_trans_layer_conv2_0_split
I0822 13:18:29.063913 16768 net.cpp:157] Top shape: 64 64 100 1 (409600)
I0822 13:18:29.063916 16768 net.cpp:157] Top shape: 64 64 100 1 (409600)
I0822 13:18:29.063918 16768 net.cpp:165] Memory required for data: 28984064
I0822 13:18:29.063920 16768 layer_factory.hpp:77] Creating layer trans_layer_bn2
I0822 13:18:29.063925 16768 net.cpp:106] Creating Layer trans_layer_bn2
I0822 13:18:29.063928 16768 net.cpp:454] trans_layer_bn2 <- trans_layer_conv2_trans_layer_conv2_0_split_0
I0822 13:18:29.063932 16768 net.cpp:411] trans_layer_bn2 -> trans_layer_bn2
I0822 13:18:29.064054 16768 net.cpp:150] Setting up trans_layer_bn2
I0822 13:18:29.064060 16768 net.cpp:157] Top shape: 64 64 100 1 (409600)
I0822 13:18:29.064062 16768 net.cpp:165] Memory required for data: 30622464
I0822 13:18:29.064069 16768 layer_factory.hpp:77] Creating layer trans_layer_relu2
I0822 13:18:29.064072 16768 net.cpp:106] Creating Layer trans_layer_relu2
I0822 13:18:29.064074 16768 net.cpp:454] trans_layer_relu2 <- trans_layer_bn2
I0822 13:18:29.064079 16768 net.cpp:397] trans_layer_relu2 -> trans_layer_bn2 (in-place)
I0822 13:18:29.064085 16768 net.cpp:150] Setting up trans_layer_relu2
I0822 13:18:29.064091 16768 net.cpp:157] Top shape: 64 64 100 1 (409600)
I0822 13:18:29.064095 16768 net.cpp:165] Memory required for data: 32260864
I0822 13:18:29.064097 16768 layer_factory.hpp:77] Creating layer dense_layer_conv0
I0822 13:18:29.064102 16768 net.cpp:106] Creating Layer dense_layer_conv0
I0822 13:18:29.064105 16768 net.cpp:454] dense_layer_conv0 <- trans_layer_bn2
I0822 13:18:29.064110 16768 net.cpp:411] dense_layer_conv0 -> dense_layer_conv0
I0822 13:18:29.065258 16768 net.cpp:150] Setting up dense_layer_conv0
I0822 13:18:29.065271 16768 net.cpp:157] Top shape: 64 64 100 1 (409600)
I0822 13:18:29.065274 16768 net.cpp:165] Memory required for data: 33899264
I0822 13:18:29.065281 16768 layer_factory.hpp:77] Creating layer dense_layer_concat0
I0822 13:18:29.065290 16768 net.cpp:106] Creating Layer dense_layer_concat0
I0822 13:18:29.065294 16768 net.cpp:454] dense_layer_concat0 <- dense_layer_conv0
I0822 13:18:29.065297 16768 net.cpp:454] dense_layer_concat0 <- trans_layer_conv0_trans_layer_conv0_0_split_1
I0822 13:18:29.065300 16768 net.cpp:454] dense_layer_concat0 <- trans_layer_conv1_trans_layer_conv1_0_split_1
I0822 13:18:29.065304 16768 net.cpp:454] dense_layer_concat0 <- trans_layer_conv2_trans_layer_conv2_0_split_1
I0822 13:18:29.065306 16768 net.cpp:411] dense_layer_concat0 -> dense_layer_concat0
I0822 13:18:29.065331 16768 net.cpp:150] Setting up dense_layer_concat0
I0822 13:18:29.065340 16768 net.cpp:157] Top shape: 64 256 100 1 (1638400)
I0822 13:18:29.065342 16768 net.cpp:165] Memory required for data: 40452864
I0822 13:18:29.065346 16768 layer_factory.hpp:77] Creating layer dense_layer_bn0
I0822 13:18:29.065351 16768 net.cpp:106] Creating Layer dense_layer_bn0
I0822 13:18:29.065353 16768 net.cpp:454] dense_layer_bn0 <- dense_layer_concat0
I0822 13:18:29.065358 16768 net.cpp:411] dense_layer_bn0 -> dense_layer_bn0
I0822 13:18:29.065479 16768 net.cpp:150] Setting up dense_layer_bn0
I0822 13:18:29.065486 16768 net.cpp:157] Top shape: 64 256 100 1 (1638400)
I0822 13:18:29.065488 16768 net.cpp:165] Memory required for data: 47006464
I0822 13:18:29.065495 16768 layer_factory.hpp:77] Creating layer dense_layer_relu0
I0822 13:18:29.065498 16768 net.cpp:106] Creating Layer dense_layer_relu0
I0822 13:18:29.065501 16768 net.cpp:454] dense_layer_relu0 <- dense_layer_bn0
I0822 13:18:29.065505 16768 net.cpp:397] dense_layer_relu0 -> dense_layer_bn0 (in-place)
I0822 13:18:29.065510 16768 net.cpp:150] Setting up dense_layer_relu0
I0822 13:18:29.065512 16768 net.cpp:157] Top shape: 64 256 100 1 (1638400)
I0822 13:18:29.065515 16768 net.cpp:165] Memory required for data: 53560064
I0822 13:18:29.065517 16768 layer_factory.hpp:77] Creating layer dense_layer_pool0
I0822 13:18:29.065522 16768 net.cpp:106] Creating Layer dense_layer_pool0
I0822 13:18:29.065524 16768 net.cpp:454] dense_layer_pool0 <- dense_layer_bn0
I0822 13:18:29.065527 16768 net.cpp:411] dense_layer_pool0 -> dense_layer_pool0
I0822 13:18:29.065551 16768 net.cpp:150] Setting up dense_layer_pool0
I0822 13:18:29.065557 16768 net.cpp:157] Top shape: 64 256 51 1 (835584)
I0822 13:18:29.065560 16768 net.cpp:165] Memory required for data: 56902400
I0822 13:18:29.065562 16768 layer_factory.hpp:77] Creating layer dense_layer_pool0_dense_layer_pool0_0_split
I0822 13:18:29.065567 16768 net.cpp:106] Creating Layer dense_layer_pool0_dense_layer_pool0_0_split
I0822 13:18:29.065569 16768 net.cpp:454] dense_layer_pool0_dense_layer_pool0_0_split <- dense_layer_pool0
I0822 13:18:29.065573 16768 net.cpp:411] dense_layer_pool0_dense_layer_pool0_0_split -> dense_layer_pool0_dense_layer_pool0_0_split_0
I0822 13:18:29.065577 16768 net.cpp:411] dense_layer_pool0_dense_layer_pool0_0_split -> dense_layer_pool0_dense_layer_pool0_0_split_1
I0822 13:18:29.065599 16768 net.cpp:150] Setting up dense_layer_pool0_dense_layer_pool0_0_split
I0822 13:18:29.065608 16768 net.cpp:157] Top shape: 64 256 51 1 (835584)
I0822 13:18:29.065610 16768 net.cpp:157] Top shape: 64 256 51 1 (835584)
I0822 13:18:29.065613 16768 net.cpp:165] Memory required for data: 63587072
I0822 13:18:29.065615 16768 layer_factory.hpp:77] Creating layer dense_layer_conv1
I0822 13:18:29.065621 16768 net.cpp:106] Creating Layer dense_layer_conv1
I0822 13:18:29.065624 16768 net.cpp:454] dense_layer_conv1 <- dense_layer_pool0_dense_layer_pool0_0_split_0
I0822 13:18:29.065629 16768 net.cpp:411] dense_layer_conv1 -> dense_layer_conv1
I0822 13:18:29.066960 16768 net.cpp:150] Setting up dense_layer_conv1
I0822 13:18:29.066967 16768 net.cpp:157] Top shape: 64 64 51 1 (208896)
I0822 13:18:29.066969 16768 net.cpp:165] Memory required for data: 64422656
I0822 13:18:29.066974 16768 layer_factory.hpp:77] Creating layer dense_layer_concat1
I0822 13:18:29.066979 16768 net.cpp:106] Creating Layer dense_layer_concat1
I0822 13:18:29.066982 16768 net.cpp:454] dense_layer_concat1 <- dense_layer_conv1
I0822 13:18:29.066984 16768 net.cpp:454] dense_layer_concat1 <- dense_layer_pool0_dense_layer_pool0_0_split_1
I0822 13:18:29.066988 16768 net.cpp:411] dense_layer_concat1 -> dense_layer_concat1
I0822 13:18:29.067003 16768 net.cpp:150] Setting up dense_layer_concat1
I0822 13:18:29.067008 16768 net.cpp:157] Top shape: 64 320 51 1 (1044480)
I0822 13:18:29.067010 16768 net.cpp:165] Memory required for data: 68600576
I0822 13:18:29.067013 16768 layer_factory.hpp:77] Creating layer dense_layer_bn1
I0822 13:18:29.067018 16768 net.cpp:106] Creating Layer dense_layer_bn1
I0822 13:18:29.067019 16768 net.cpp:454] dense_layer_bn1 <- dense_layer_concat1
I0822 13:18:29.067023 16768 net.cpp:411] dense_layer_bn1 -> dense_layer_bn1
I0822 13:18:29.067844 16768 net.cpp:150] Setting up dense_layer_bn1
I0822 13:18:29.067855 16768 net.cpp:157] Top shape: 64 320 51 1 (1044480)
I0822 13:18:29.067858 16768 net.cpp:165] Memory required for data: 72778496
I0822 13:18:29.067865 16768 layer_factory.hpp:77] Creating layer dense_layer_relu1
I0822 13:18:29.067869 16768 net.cpp:106] Creating Layer dense_layer_relu1
I0822 13:18:29.067873 16768 net.cpp:454] dense_layer_relu1 <- dense_layer_bn1
I0822 13:18:29.067876 16768 net.cpp:397] dense_layer_relu1 -> dense_layer_bn1 (in-place)
I0822 13:18:29.067881 16768 net.cpp:150] Setting up dense_layer_relu1
I0822 13:18:29.067885 16768 net.cpp:157] Top shape: 64 320 51 1 (1044480)
I0822 13:18:29.067888 16768 net.cpp:165] Memory required for data: 76956416
I0822 13:18:29.067889 16768 layer_factory.hpp:77] Creating layer dense_layer_pool1
I0822 13:18:29.067893 16768 net.cpp:106] Creating Layer dense_layer_pool1
I0822 13:18:29.067896 16768 net.cpp:454] dense_layer_pool1 <- dense_layer_bn1
I0822 13:18:29.067899 16768 net.cpp:411] dense_layer_pool1 -> dense_layer_pool1
I0822 13:18:29.067916 16768 net.cpp:150] Setting up dense_layer_pool1
I0822 13:18:29.067924 16768 net.cpp:157] Top shape: 64 320 26 1 (532480)
I0822 13:18:29.067927 16768 net.cpp:165] Memory required for data: 79086336
I0822 13:18:29.067929 16768 layer_factory.hpp:77] Creating layer dense_layer_pool1_dense_layer_pool1_0_split
I0822 13:18:29.067934 16768 net.cpp:106] Creating Layer dense_layer_pool1_dense_layer_pool1_0_split
I0822 13:18:29.067935 16768 net.cpp:454] dense_layer_pool1_dense_layer_pool1_0_split <- dense_layer_pool1
I0822 13:18:29.067939 16768 net.cpp:411] dense_layer_pool1_dense_layer_pool1_0_split -> dense_layer_pool1_dense_layer_pool1_0_split_0
I0822 13:18:29.067943 16768 net.cpp:411] dense_layer_pool1_dense_layer_pool1_0_split -> dense_layer_pool1_dense_layer_pool1_0_split_1
I0822 13:18:29.067965 16768 net.cpp:150] Setting up dense_layer_pool1_dense_layer_pool1_0_split
I0822 13:18:29.067970 16768 net.cpp:157] Top shape: 64 320 26 1 (532480)
I0822 13:18:29.067975 16768 net.cpp:157] Top shape: 64 320 26 1 (532480)
I0822 13:18:29.067976 16768 net.cpp:165] Memory required for data: 83346176
I0822 13:18:29.067978 16768 layer_factory.hpp:77] Creating layer dense_layer_conv2
I0822 13:18:29.067986 16768 net.cpp:106] Creating Layer dense_layer_conv2
I0822 13:18:29.067988 16768 net.cpp:454] dense_layer_conv2 <- dense_layer_pool1_dense_layer_pool1_0_split_0
I0822 13:18:29.067992 16768 net.cpp:411] dense_layer_conv2 -> dense_layer_conv2
I0822 13:18:29.069628 16768 net.cpp:150] Setting up dense_layer_conv2
I0822 13:18:29.069638 16768 net.cpp:157] Top shape: 64 64 26 1 (106496)
I0822 13:18:29.069639 16768 net.cpp:165] Memory required for data: 83772160
I0822 13:18:29.069644 16768 layer_factory.hpp:77] Creating layer dense_layer_concat2
I0822 13:18:29.069651 16768 net.cpp:106] Creating Layer dense_layer_concat2
I0822 13:18:29.069654 16768 net.cpp:454] dense_layer_concat2 <- dense_layer_conv2
I0822 13:18:29.069658 16768 net.cpp:454] dense_layer_concat2 <- dense_layer_pool1_dense_layer_pool1_0_split_1
I0822 13:18:29.069661 16768 net.cpp:411] dense_layer_concat2 -> dense_layer_concat2
I0822 13:18:29.069677 16768 net.cpp:150] Setting up dense_layer_concat2
I0822 13:18:29.069684 16768 net.cpp:157] Top shape: 64 384 26 1 (638976)
I0822 13:18:29.069685 16768 net.cpp:165] Memory required for data: 86328064
I0822 13:18:29.069689 16768 layer_factory.hpp:77] Creating layer dense_layer_bn2
I0822 13:18:29.069692 16768 net.cpp:106] Creating Layer dense_layer_bn2
I0822 13:18:29.069695 16768 net.cpp:454] dense_layer_bn2 <- dense_layer_concat2
I0822 13:18:29.069699 16768 net.cpp:411] dense_layer_bn2 -> dense_layer_bn2
I0822 13:18:29.069821 16768 net.cpp:150] Setting up dense_layer_bn2
I0822 13:18:29.069828 16768 net.cpp:157] Top shape: 64 384 26 1 (638976)
I0822 13:18:29.069830 16768 net.cpp:165] Memory required for data: 88883968
I0822 13:18:29.069835 16768 layer_factory.hpp:77] Creating layer dense_layer_relu2
I0822 13:18:29.069839 16768 net.cpp:106] Creating Layer dense_layer_relu2
I0822 13:18:29.069842 16768 net.cpp:454] dense_layer_relu2 <- dense_layer_bn2
I0822 13:18:29.069845 16768 net.cpp:397] dense_layer_relu2 -> dense_layer_bn2 (in-place)
I0822 13:18:29.069849 16768 net.cpp:150] Setting up dense_layer_relu2
I0822 13:18:29.069854 16768 net.cpp:157] Top shape: 64 384 26 1 (638976)
I0822 13:18:29.069855 16768 net.cpp:165] Memory required for data: 91439872
I0822 13:18:29.069857 16768 layer_factory.hpp:77] Creating layer dense_layer_pool2
I0822 13:18:29.069861 16768 net.cpp:106] Creating Layer dense_layer_pool2
I0822 13:18:29.069864 16768 net.cpp:454] dense_layer_pool2 <- dense_layer_bn2
I0822 13:18:29.069867 16768 net.cpp:411] dense_layer_pool2 -> dense_layer_pool2
I0822 13:18:29.069882 16768 net.cpp:150] Setting up dense_layer_pool2
I0822 13:18:29.069887 16768 net.cpp:157] Top shape: 64 384 14 1 (344064)
I0822 13:18:29.069890 16768 net.cpp:165] Memory required for data: 92816128
I0822 13:18:29.069892 16768 layer_factory.hpp:77] Creating layer dense_layer_pool2_dense_layer_pool2_0_split
I0822 13:18:29.069896 16768 net.cpp:106] Creating Layer dense_layer_pool2_dense_layer_pool2_0_split
I0822 13:18:29.069900 16768 net.cpp:454] dense_layer_pool2_dense_layer_pool2_0_split <- dense_layer_pool2
I0822 13:18:29.069903 16768 net.cpp:411] dense_layer_pool2_dense_layer_pool2_0_split -> dense_layer_pool2_dense_layer_pool2_0_split_0
I0822 13:18:29.069907 16768 net.cpp:411] dense_layer_pool2_dense_layer_pool2_0_split -> dense_layer_pool2_dense_layer_pool2_0_split_1
I0822 13:18:29.069931 16768 net.cpp:150] Setting up dense_layer_pool2_dense_layer_pool2_0_split
I0822 13:18:29.069936 16768 net.cpp:157] Top shape: 64 384 14 1 (344064)
I0822 13:18:29.069938 16768 net.cpp:157] Top shape: 64 384 14 1 (344064)
I0822 13:18:29.069941 16768 net.cpp:165] Memory required for data: 95568640
I0822 13:18:29.069942 16768 layer_factory.hpp:77] Creating layer dense_layer_conv3
I0822 13:18:29.069950 16768 net.cpp:106] Creating Layer dense_layer_conv3
I0822 13:18:29.069953 16768 net.cpp:454] dense_layer_conv3 <- dense_layer_pool2_dense_layer_pool2_0_split_0
I0822 13:18:29.069957 16768 net.cpp:411] dense_layer_conv3 -> dense_layer_conv3
I0822 13:18:29.072568 16768 net.cpp:150] Setting up dense_layer_conv3
I0822 13:18:29.072580 16768 net.cpp:157] Top shape: 64 64 14 1 (57344)
I0822 13:18:29.072583 16768 net.cpp:165] Memory required for data: 95798016
I0822 13:18:29.072588 16768 layer_factory.hpp:77] Creating layer dense_layer_concat3
I0822 13:18:29.072593 16768 net.cpp:106] Creating Layer dense_layer_concat3
I0822 13:18:29.072597 16768 net.cpp:454] dense_layer_concat3 <- dense_layer_conv3
I0822 13:18:29.072600 16768 net.cpp:454] dense_layer_concat3 <- dense_layer_pool2_dense_layer_pool2_0_split_1
I0822 13:18:29.072604 16768 net.cpp:411] dense_layer_concat3 -> dense_layer_concat3
I0822 13:18:29.072623 16768 net.cpp:150] Setting up dense_layer_concat3
I0822 13:18:29.072628 16768 net.cpp:157] Top shape: 64 448 14 1 (401408)
I0822 13:18:29.072629 16768 net.cpp:165] Memory required for data: 97403648
I0822 13:18:29.072633 16768 layer_factory.hpp:77] Creating layer dense_layer_bn3
I0822 13:18:29.072636 16768 net.cpp:106] Creating Layer dense_layer_bn3
I0822 13:18:29.072639 16768 net.cpp:454] dense_layer_bn3 <- dense_layer_concat3
I0822 13:18:29.072643 16768 net.cpp:411] dense_layer_bn3 -> dense_layer_bn3
I0822 13:18:29.072769 16768 net.cpp:150] Setting up dense_layer_bn3
I0822 13:18:29.072777 16768 net.cpp:157] Top shape: 64 448 14 1 (401408)
I0822 13:18:29.072778 16768 net.cpp:165] Memory required for data: 99009280
I0822 13:18:29.072788 16768 layer_factory.hpp:77] Creating layer dense_layer_relu3
I0822 13:18:29.072793 16768 net.cpp:106] Creating Layer dense_layer_relu3
I0822 13:18:29.072796 16768 net.cpp:454] dense_layer_relu3 <- dense_layer_bn3
I0822 13:18:29.072799 16768 net.cpp:397] dense_layer_relu3 -> dense_layer_bn3 (in-place)
I0822 13:18:29.072804 16768 net.cpp:150] Setting up dense_layer_relu3
I0822 13:18:29.072808 16768 net.cpp:157] Top shape: 64 448 14 1 (401408)
I0822 13:18:29.072809 16768 net.cpp:165] Memory required for data: 100614912
I0822 13:18:29.072813 16768 layer_factory.hpp:77] Creating layer dense_layer_pool3
I0822 13:18:29.072816 16768 net.cpp:106] Creating Layer dense_layer_pool3
I0822 13:18:29.072818 16768 net.cpp:454] dense_layer_pool3 <- dense_layer_bn3
I0822 13:18:29.072824 16768 net.cpp:411] dense_layer_pool3 -> dense_layer_pool3
I0822 13:18:29.072840 16768 net.cpp:150] Setting up dense_layer_pool3
I0822 13:18:29.072846 16768 net.cpp:157] Top shape: 64 448 8 1 (229376)
I0822 13:18:29.072849 16768 net.cpp:165] Memory required for data: 101532416
I0822 13:18:29.072850 16768 layer_factory.hpp:77] Creating layer dense_layer_pool3_dense_layer_pool3_0_split
I0822 13:18:29.072854 16768 net.cpp:106] Creating Layer dense_layer_pool3_dense_layer_pool3_0_split
I0822 13:18:29.072857 16768 net.cpp:454] dense_layer_pool3_dense_layer_pool3_0_split <- dense_layer_pool3
I0822 13:18:29.072860 16768 net.cpp:411] dense_layer_pool3_dense_layer_pool3_0_split -> dense_layer_pool3_dense_layer_pool3_0_split_0
I0822 13:18:29.072865 16768 net.cpp:411] dense_layer_pool3_dense_layer_pool3_0_split -> dense_layer_pool3_dense_layer_pool3_0_split_1
I0822 13:18:29.072886 16768 net.cpp:150] Setting up dense_layer_pool3_dense_layer_pool3_0_split
I0822 13:18:29.072890 16768 net.cpp:157] Top shape: 64 448 8 1 (229376)
I0822 13:18:29.072892 16768 net.cpp:157] Top shape: 64 448 8 1 (229376)
I0822 13:18:29.072896 16768 net.cpp:165] Memory required for data: 103367424
I0822 13:18:29.072897 16768 layer_factory.hpp:77] Creating layer dense_layer_conv4
I0822 13:18:29.072903 16768 net.cpp:106] Creating Layer dense_layer_conv4
I0822 13:18:29.072906 16768 net.cpp:454] dense_layer_conv4 <- dense_layer_pool3_dense_layer_pool3_0_split_0
I0822 13:18:29.072911 16768 net.cpp:411] dense_layer_conv4 -> dense_layer_conv4
I0822 13:18:29.075127 16768 net.cpp:150] Setting up dense_layer_conv4
I0822 13:18:29.075135 16768 net.cpp:157] Top shape: 64 64 8 1 (32768)
I0822 13:18:29.075139 16768 net.cpp:165] Memory required for data: 103498496
I0822 13:18:29.075142 16768 layer_factory.hpp:77] Creating layer dense_layer_concat4
I0822 13:18:29.075146 16768 net.cpp:106] Creating Layer dense_layer_concat4
I0822 13:18:29.075150 16768 net.cpp:454] dense_layer_concat4 <- dense_layer_conv4
I0822 13:18:29.075152 16768 net.cpp:454] dense_layer_concat4 <- dense_layer_pool3_dense_layer_pool3_0_split_1
I0822 13:18:29.075156 16768 net.cpp:411] dense_layer_concat4 -> dense_layer_concat4
I0822 13:18:29.075175 16768 net.cpp:150] Setting up dense_layer_concat4
I0822 13:18:29.075178 16768 net.cpp:157] Top shape: 64 512 8 1 (262144)
I0822 13:18:29.075181 16768 net.cpp:165] Memory required for data: 104547072
I0822 13:18:29.075183 16768 layer_factory.hpp:77] Creating layer dense_layer_bn4
I0822 13:18:29.075188 16768 net.cpp:106] Creating Layer dense_layer_bn4
I0822 13:18:29.075191 16768 net.cpp:454] dense_layer_bn4 <- dense_layer_concat4
I0822 13:18:29.075194 16768 net.cpp:411] dense_layer_bn4 -> dense_layer_bn4
I0822 13:18:29.075318 16768 net.cpp:150] Setting up dense_layer_bn4
I0822 13:18:29.075325 16768 net.cpp:157] Top shape: 64 512 8 1 (262144)
I0822 13:18:29.075327 16768 net.cpp:165] Memory required for data: 105595648
I0822 13:18:29.075332 16768 layer_factory.hpp:77] Creating layer dense_layer_relu4
I0822 13:18:29.075336 16768 net.cpp:106] Creating Layer dense_layer_relu4
I0822 13:18:29.075340 16768 net.cpp:454] dense_layer_relu4 <- dense_layer_bn4
I0822 13:18:29.075343 16768 net.cpp:397] dense_layer_relu4 -> dense_layer_bn4 (in-place)
I0822 13:18:29.075347 16768 net.cpp:150] Setting up dense_layer_relu4
I0822 13:18:29.075350 16768 net.cpp:157] Top shape: 64 512 8 1 (262144)
I0822 13:18:29.075352 16768 net.cpp:165] Memory required for data: 106644224
I0822 13:18:29.075354 16768 layer_factory.hpp:77] Creating layer attention_layer_conv0
I0822 13:18:29.075361 16768 net.cpp:106] Creating Layer attention_layer_conv0
I0822 13:18:29.075363 16768 net.cpp:454] attention_layer_conv0 <- dense_layer_bn4
I0822 13:18:29.075367 16768 net.cpp:411] attention_layer_conv0 -> attention_layer_conv0
I0822 13:18:29.076306 16768 net.cpp:150] Setting up attention_layer_conv0
I0822 13:18:29.076313 16768 net.cpp:157] Top shape: 64 512 8 1 (262144)
I0822 13:18:29.076315 16768 net.cpp:165] Memory required for data: 107692800
I0822 13:18:29.076319 16768 layer_factory.hpp:77] Creating layer attention_layer_bn0
I0822 13:18:29.076323 16768 net.cpp:106] Creating Layer attention_layer_bn0
I0822 13:18:29.076326 16768 net.cpp:454] attention_layer_bn0 <- attention_layer_conv0
I0822 13:18:29.076330 16768 net.cpp:411] attention_layer_bn0 -> attention_layer_bn0
I0822 13:18:29.076452 16768 net.cpp:150] Setting up attention_layer_bn0
I0822 13:18:29.076457 16768 net.cpp:157] Top shape: 64 512 8 1 (262144)
I0822 13:18:29.076460 16768 net.cpp:165] Memory required for data: 108741376
I0822 13:18:29.076465 16768 layer_factory.hpp:77] Creating layer attention_layer_relu0
I0822 13:18:29.076469 16768 net.cpp:106] Creating Layer attention_layer_relu0
I0822 13:18:29.076472 16768 net.cpp:454] attention_layer_relu0 <- attention_layer_bn0
I0822 13:18:29.076475 16768 net.cpp:397] attention_layer_relu0 -> attention_layer_bn0 (in-place)
I0822 13:18:29.076479 16768 net.cpp:150] Setting up attention_layer_relu0
I0822 13:18:29.076485 16768 net.cpp:157] Top shape: 64 512 8 1 (262144)
I0822 13:18:29.076488 16768 net.cpp:165] Memory required for data: 109789952
I0822 13:18:29.076489 16768 layer_factory.hpp:77] Creating layer attention_layer_conv1
I0822 13:18:29.076495 16768 net.cpp:106] Creating Layer attention_layer_conv1
I0822 13:18:29.076498 16768 net.cpp:454] attention_layer_conv1 <- attention_layer_bn0
I0822 13:18:29.076501 16768 net.cpp:411] attention_layer_conv1 -> attention_layer_conv1
I0822 13:18:29.077440 16768 net.cpp:150] Setting up attention_layer_conv1
I0822 13:18:29.077446 16768 net.cpp:157] Top shape: 64 512 8 1 (262144)
I0822 13:18:29.077450 16768 net.cpp:165] Memory required for data: 110838528
I0822 13:18:29.077455 16768 layer_factory.hpp:77] Creating layer attention_layer_bn1
I0822 13:18:29.077459 16768 net.cpp:106] Creating Layer attention_layer_bn1
I0822 13:18:29.077462 16768 net.cpp:454] attention_layer_bn1 <- attention_layer_conv1
I0822 13:18:29.077466 16768 net.cpp:411] attention_layer_bn1 -> attention_layer_bn1
I0822 13:18:29.077587 16768 net.cpp:150] Setting up attention_layer_bn1
I0822 13:18:29.077594 16768 net.cpp:157] Top shape: 64 512 8 1 (262144)
I0822 13:18:29.077595 16768 net.cpp:165] Memory required for data: 111887104
I0822 13:18:29.077600 16768 layer_factory.hpp:77] Creating layer attention_layer_relu1
I0822 13:18:29.077605 16768 net.cpp:106] Creating Layer attention_layer_relu1
I0822 13:18:29.077607 16768 net.cpp:454] attention_layer_relu1 <- attention_layer_bn1
I0822 13:18:29.077610 16768 net.cpp:397] attention_layer_relu1 -> attention_layer_bn1 (in-place)
I0822 13:18:29.077615 16768 net.cpp:150] Setting up attention_layer_relu1
I0822 13:18:29.077618 16768 net.cpp:157] Top shape: 64 512 8 1 (262144)
I0822 13:18:29.077620 16768 net.cpp:165] Memory required for data: 112935680
I0822 13:18:29.077622 16768 layer_factory.hpp:77] Creating layer attention_scale_slice
I0822 13:18:29.077633 16768 net.cpp:106] Creating Layer attention_scale_slice
I0822 13:18:29.077636 16768 net.cpp:454] attention_scale_slice <- attention_layer_bn1
I0822 13:18:29.077639 16768 net.cpp:411] attention_scale_slice -> attention_scale0
I0822 13:18:29.077648 16768 net.cpp:411] attention_scale_slice -> attention_scale1
I0822 13:18:29.077658 16768 net.cpp:411] attention_scale_slice -> attention_scale2
I0822 13:18:29.077662 16768 net.cpp:411] attention_scale_slice -> attention_scale3
I0822 13:18:29.077667 16768 net.cpp:411] attention_scale_slice -> attention_scale4
I0822 13:18:29.077672 16768 net.cpp:411] attention_scale_slice -> attention_scale5
I0822 13:18:29.077677 16768 net.cpp:411] attention_scale_slice -> attention_scale6
I0822 13:18:29.077680 16768 net.cpp:411] attention_scale_slice -> attention_scale7
I0822 13:18:29.077745 16768 net.cpp:150] Setting up attention_scale_slice
I0822 13:18:29.077751 16768 net.cpp:157] Top shape: 64 64 8 1 (32768)
I0822 13:18:29.077755 16768 net.cpp:157] Top shape: 64 64 8 1 (32768)
I0822 13:18:29.077757 16768 net.cpp:157] Top shape: 64 64 8 1 (32768)
I0822 13:18:29.077760 16768 net.cpp:157] Top shape: 64 64 8 1 (32768)
I0822 13:18:29.077764 16768 net.cpp:157] Top shape: 64 64 8 1 (32768)
I0822 13:18:29.077765 16768 net.cpp:157] Top shape: 64 64 8 1 (32768)
I0822 13:18:29.077769 16768 net.cpp:157] Top shape: 64 64 8 1 (32768)
I0822 13:18:29.077771 16768 net.cpp:157] Top shape: 64 64 8 1 (32768)
I0822 13:18:29.077774 16768 net.cpp:165] Memory required for data: 113984256
I0822 13:18:29.077775 16768 layer_factory.hpp:77] Creating layer attention_scale0_attention_scale_slice_0_split
I0822 13:18:29.077780 16768 net.cpp:106] Creating Layer attention_scale0_attention_scale_slice_0_split
I0822 13:18:29.077782 16768 net.cpp:454] attention_scale0_attention_scale_slice_0_split <- attention_scale0
I0822 13:18:29.077786 16768 net.cpp:411] attention_scale0_attention_scale_slice_0_split -> attention_scale0_attention_scale_slice_0_split_0
I0822 13:18:29.077790 16768 net.cpp:411] attention_scale0_attention_scale_slice_0_split -> attention_scale0_attention_scale_slice_0_split_1
I0822 13:18:29.077795 16768 net.cpp:411] attention_scale0_attention_scale_slice_0_split -> attention_scale0_attention_scale_slice_0_split_2
I0822 13:18:29.077823 16768 net.cpp:150] Setting up attention_scale0_attention_scale_slice_0_split
I0822 13:18:29.077827 16768 net.cpp:157] Top shape: 64 64 8 1 (32768)
I0822 13:18:29.077831 16768 net.cpp:157] Top shape: 64 64 8 1 (32768)
I0822 13:18:29.077833 16768 net.cpp:157] Top shape: 64 64 8 1 (32768)
I0822 13:18:29.077836 16768 net.cpp:165] Memory required for data: 114377472
I0822 13:18:29.077838 16768 layer_factory.hpp:77] Creating layer attention_scale1_attention_scale_slice_1_split
I0822 13:18:29.077841 16768 net.cpp:106] Creating Layer attention_scale1_attention_scale_slice_1_split
I0822 13:18:29.077844 16768 net.cpp:454] attention_scale1_attention_scale_slice_1_split <- attention_scale1
I0822 13:18:29.077848 16768 net.cpp:411] attention_scale1_attention_scale_slice_1_split -> attention_scale1_attention_scale_slice_1_split_0
I0822 13:18:29.077852 16768 net.cpp:411] attention_scale1_attention_scale_slice_1_split -> attention_scale1_attention_scale_slice_1_split_1
I0822 13:18:29.077857 16768 net.cpp:411] attention_scale1_attention_scale_slice_1_split -> attention_scale1_attention_scale_slice_1_split_2
I0822 13:18:29.077883 16768 net.cpp:150] Setting up attention_scale1_attention_scale_slice_1_split
I0822 13:18:29.077886 16768 net.cpp:157] Top shape: 64 64 8 1 (32768)
I0822 13:18:29.077889 16768 net.cpp:157] Top shape: 64 64 8 1 (32768)
I0822 13:18:29.077891 16768 net.cpp:157] Top shape: 64 64 8 1 (32768)
I0822 13:18:29.077894 16768 net.cpp:165] Memory required for data: 114770688
I0822 13:18:29.077896 16768 layer_factory.hpp:77] Creating layer attention_scale2_attention_scale_slice_2_split
I0822 13:18:29.077899 16768 net.cpp:106] Creating Layer attention_scale2_attention_scale_slice_2_split
I0822 13:18:29.077903 16768 net.cpp:454] attention_scale2_attention_scale_slice_2_split <- attention_scale2
I0822 13:18:29.077906 16768 net.cpp:411] attention_scale2_attention_scale_slice_2_split -> attention_scale2_attention_scale_slice_2_split_0
I0822 13:18:29.077910 16768 net.cpp:411] attention_scale2_attention_scale_slice_2_split -> attention_scale2_attention_scale_slice_2_split_1
I0822 13:18:29.077913 16768 net.cpp:411] attention_scale2_attention_scale_slice_2_split -> attention_scale2_attention_scale_slice_2_split_2
I0822 13:18:29.077940 16768 net.cpp:150] Setting up attention_scale2_attention_scale_slice_2_split
I0822 13:18:29.077944 16768 net.cpp:157] Top shape: 64 64 8 1 (32768)
I0822 13:18:29.077946 16768 net.cpp:157] Top shape: 64 64 8 1 (32768)
I0822 13:18:29.077951 16768 net.cpp:157] Top shape: 64 64 8 1 (32768)
I0822 13:18:29.077953 16768 net.cpp:165] Memory required for data: 115163904
I0822 13:18:29.077955 16768 layer_factory.hpp:77] Creating layer attention_scale3_attention_scale_slice_3_split
I0822 13:18:29.077960 16768 net.cpp:106] Creating Layer attention_scale3_attention_scale_slice_3_split
I0822 13:18:29.077961 16768 net.cpp:454] attention_scale3_attention_scale_slice_3_split <- attention_scale3
I0822 13:18:29.077965 16768 net.cpp:411] attention_scale3_attention_scale_slice_3_split -> attention_scale3_attention_scale_slice_3_split_0
I0822 13:18:29.077968 16768 net.cpp:411] attention_scale3_attention_scale_slice_3_split -> attention_scale3_attention_scale_slice_3_split_1
I0822 13:18:29.077972 16768 net.cpp:411] attention_scale3_attention_scale_slice_3_split -> attention_scale3_attention_scale_slice_3_split_2
I0822 13:18:29.077998 16768 net.cpp:150] Setting up attention_scale3_attention_scale_slice_3_split
I0822 13:18:29.078001 16768 net.cpp:157] Top shape: 64 64 8 1 (32768)
I0822 13:18:29.078004 16768 net.cpp:157] Top shape: 64 64 8 1 (32768)
I0822 13:18:29.078007 16768 net.cpp:157] Top shape: 64 64 8 1 (32768)
I0822 13:18:29.078009 16768 net.cpp:165] Memory required for data: 115557120
I0822 13:18:29.078011 16768 layer_factory.hpp:77] Creating layer attention_scale4_attention_scale_slice_4_split
I0822 13:18:29.078014 16768 net.cpp:106] Creating Layer attention_scale4_attention_scale_slice_4_split
I0822 13:18:29.078017 16768 net.cpp:454] attention_scale4_attention_scale_slice_4_split <- attention_scale4
I0822 13:18:29.078021 16768 net.cpp:411] attention_scale4_attention_scale_slice_4_split -> attention_scale4_attention_scale_slice_4_split_0
I0822 13:18:29.078024 16768 net.cpp:411] attention_scale4_attention_scale_slice_4_split -> attention_scale4_attention_scale_slice_4_split_1
I0822 13:18:29.078028 16768 net.cpp:411] attention_scale4_attention_scale_slice_4_split -> attention_scale4_attention_scale_slice_4_split_2
I0822 13:18:29.078053 16768 net.cpp:150] Setting up attention_scale4_attention_scale_slice_4_split
I0822 13:18:29.078058 16768 net.cpp:157] Top shape: 64 64 8 1 (32768)
I0822 13:18:29.078060 16768 net.cpp:157] Top shape: 64 64 8 1 (32768)
I0822 13:18:29.078063 16768 net.cpp:157] Top shape: 64 64 8 1 (32768)
I0822 13:18:29.078065 16768 net.cpp:165] Memory required for data: 115950336
I0822 13:18:29.078068 16768 layer_factory.hpp:77] Creating layer attention_scale5_attention_scale_slice_5_split
I0822 13:18:29.078070 16768 net.cpp:106] Creating Layer attention_scale5_attention_scale_slice_5_split
I0822 13:18:29.078075 16768 net.cpp:454] attention_scale5_attention_scale_slice_5_split <- attention_scale5
I0822 13:18:29.078078 16768 net.cpp:411] attention_scale5_attention_scale_slice_5_split -> attention_scale5_attention_scale_slice_5_split_0
I0822 13:18:29.078083 16768 net.cpp:411] attention_scale5_attention_scale_slice_5_split -> attention_scale5_attention_scale_slice_5_split_1
I0822 13:18:29.078086 16768 net.cpp:411] attention_scale5_attention_scale_slice_5_split -> attention_scale5_attention_scale_slice_5_split_2
I0822 13:18:29.078112 16768 net.cpp:150] Setting up attention_scale5_attention_scale_slice_5_split
I0822 13:18:29.078116 16768 net.cpp:157] Top shape: 64 64 8 1 (32768)
I0822 13:18:29.078119 16768 net.cpp:157] Top shape: 64 64 8 1 (32768)
I0822 13:18:29.078121 16768 net.cpp:157] Top shape: 64 64 8 1 (32768)
I0822 13:18:29.078124 16768 net.cpp:165] Memory required for data: 116343552
I0822 13:18:29.078126 16768 layer_factory.hpp:77] Creating layer attention_scale6_attention_scale_slice_6_split
I0822 13:18:29.078130 16768 net.cpp:106] Creating Layer attention_scale6_attention_scale_slice_6_split
I0822 13:18:29.078131 16768 net.cpp:454] attention_scale6_attention_scale_slice_6_split <- attention_scale6
I0822 13:18:29.078135 16768 net.cpp:411] attention_scale6_attention_scale_slice_6_split -> attention_scale6_attention_scale_slice_6_split_0
I0822 13:18:29.078140 16768 net.cpp:411] attention_scale6_attention_scale_slice_6_split -> attention_scale6_attention_scale_slice_6_split_1
I0822 13:18:29.078142 16768 net.cpp:411] attention_scale6_attention_scale_slice_6_split -> attention_scale6_attention_scale_slice_6_split_2
I0822 13:18:29.078169 16768 net.cpp:150] Setting up attention_scale6_attention_scale_slice_6_split
I0822 13:18:29.078172 16768 net.cpp:157] Top shape: 64 64 8 1 (32768)
I0822 13:18:29.078176 16768 net.cpp:157] Top shape: 64 64 8 1 (32768)
I0822 13:18:29.078177 16768 net.cpp:157] Top shape: 64 64 8 1 (32768)
I0822 13:18:29.078179 16768 net.cpp:165] Memory required for data: 116736768
I0822 13:18:29.078182 16768 layer_factory.hpp:77] Creating layer attention_scale7_attention_scale_slice_7_split
I0822 13:18:29.078186 16768 net.cpp:106] Creating Layer attention_scale7_attention_scale_slice_7_split
I0822 13:18:29.078187 16768 net.cpp:454] attention_scale7_attention_scale_slice_7_split <- attention_scale7
I0822 13:18:29.078191 16768 net.cpp:411] attention_scale7_attention_scale_slice_7_split -> attention_scale7_attention_scale_slice_7_split_0
I0822 13:18:29.078194 16768 net.cpp:411] attention_scale7_attention_scale_slice_7_split -> attention_scale7_attention_scale_slice_7_split_1
I0822 13:18:29.078198 16768 net.cpp:411] attention_scale7_attention_scale_slice_7_split -> attention_scale7_attention_scale_slice_7_split_2
I0822 13:18:29.078223 16768 net.cpp:150] Setting up attention_scale7_attention_scale_slice_7_split
I0822 13:18:29.078227 16768 net.cpp:157] Top shape: 64 64 8 1 (32768)
I0822 13:18:29.078230 16768 net.cpp:157] Top shape: 64 64 8 1 (32768)
I0822 13:18:29.078233 16768 net.cpp:157] Top shape: 64 64 8 1 (32768)
I0822 13:18:29.078235 16768 net.cpp:165] Memory required for data: 117129984
I0822 13:18:29.078238 16768 layer_factory.hpp:77] Creating layer attention_permute0
I0822 13:18:29.078244 16768 net.cpp:106] Creating Layer attention_permute0
I0822 13:18:29.078248 16768 net.cpp:454] attention_permute0 <- attention_scale0_attention_scale_slice_0_split_0
I0822 13:18:29.078253 16768 net.cpp:411] attention_permute0 -> attention_permute0
I0822 13:18:29.078315 16768 net.cpp:150] Setting up attention_permute0
I0822 13:18:29.078318 16768 net.cpp:157] Top shape: 64 1 8 64 (32768)
I0822 13:18:29.078320 16768 net.cpp:165] Memory required for data: 117261056
I0822 13:18:29.078323 16768 layer_factory.hpp:77] Creating layer attention_reduction0
I0822 13:18:29.078327 16768 net.cpp:106] Creating Layer attention_reduction0
I0822 13:18:29.078330 16768 net.cpp:454] attention_reduction0 <- attention_permute0
I0822 13:18:29.078335 16768 net.cpp:411] attention_reduction0 -> attention_reduction0
I0822 13:18:29.078367 16768 net.cpp:150] Setting up attention_reduction0
I0822 13:18:29.078372 16768 net.cpp:157] Top shape: 64 1 8 (512)
I0822 13:18:29.078373 16768 net.cpp:165] Memory required for data: 117263104
I0822 13:18:29.078375 16768 layer_factory.hpp:77] Creating layer attention_permute1
I0822 13:18:29.078379 16768 net.cpp:106] Creating Layer attention_permute1
I0822 13:18:29.078382 16768 net.cpp:454] attention_permute1 <- attention_scale1_attention_scale_slice_1_split_0
I0822 13:18:29.078387 16768 net.cpp:411] attention_permute1 -> attention_permute1
I0822 13:18:29.078444 16768 net.cpp:150] Setting up attention_permute1
I0822 13:18:29.078449 16768 net.cpp:157] Top shape: 64 1 8 64 (32768)
I0822 13:18:29.078452 16768 net.cpp:165] Memory required for data: 117394176
I0822 13:18:29.078454 16768 layer_factory.hpp:77] Creating layer attention_reduction1
I0822 13:18:29.078459 16768 net.cpp:106] Creating Layer attention_reduction1
I0822 13:18:29.078461 16768 net.cpp:454] attention_reduction1 <- attention_permute1
I0822 13:18:29.078465 16768 net.cpp:411] attention_reduction1 -> attention_reduction1
I0822 13:18:29.078495 16768 net.cpp:150] Setting up attention_reduction1
I0822 13:18:29.078500 16768 net.cpp:157] Top shape: 64 1 8 (512)
I0822 13:18:29.078501 16768 net.cpp:165] Memory required for data: 117396224
I0822 13:18:29.078505 16768 layer_factory.hpp:77] Creating layer attention_permute2
I0822 13:18:29.078508 16768 net.cpp:106] Creating Layer attention_permute2
I0822 13:18:29.078510 16768 net.cpp:454] attention_permute2 <- attention_scale2_attention_scale_slice_2_split_0
I0822 13:18:29.078514 16768 net.cpp:411] attention_permute2 -> attention_permute2
I0822 13:18:29.078570 16768 net.cpp:150] Setting up attention_permute2
I0822 13:18:29.078575 16768 net.cpp:157] Top shape: 64 1 8 64 (32768)
I0822 13:18:29.078578 16768 net.cpp:165] Memory required for data: 117527296
I0822 13:18:29.078580 16768 layer_factory.hpp:77] Creating layer attention_reduction2
I0822 13:18:29.078584 16768 net.cpp:106] Creating Layer attention_reduction2
I0822 13:18:29.078586 16768 net.cpp:454] attention_reduction2 <- attention_permute2
I0822 13:18:29.078591 16768 net.cpp:411] attention_reduction2 -> attention_reduction2
I0822 13:18:29.078620 16768 net.cpp:150] Setting up attention_reduction2
I0822 13:18:29.078624 16768 net.cpp:157] Top shape: 64 1 8 (512)
I0822 13:18:29.078626 16768 net.cpp:165] Memory required for data: 117529344
I0822 13:18:29.078629 16768 layer_factory.hpp:77] Creating layer attention_permute3
I0822 13:18:29.078634 16768 net.cpp:106] Creating Layer attention_permute3
I0822 13:18:29.078635 16768 net.cpp:454] attention_permute3 <- attention_scale3_attention_scale_slice_3_split_0
I0822 13:18:29.078639 16768 net.cpp:411] attention_permute3 -> attention_permute3
I0822 13:18:29.078696 16768 net.cpp:150] Setting up attention_permute3
I0822 13:18:29.078701 16768 net.cpp:157] Top shape: 64 1 8 64 (32768)
I0822 13:18:29.078703 16768 net.cpp:165] Memory required for data: 117660416
I0822 13:18:29.078706 16768 layer_factory.hpp:77] Creating layer attention_reduction3
I0822 13:18:29.078713 16768 net.cpp:106] Creating Layer attention_reduction3
I0822 13:18:29.078716 16768 net.cpp:454] attention_reduction3 <- attention_permute3
I0822 13:18:29.078719 16768 net.cpp:411] attention_reduction3 -> attention_reduction3
I0822 13:18:29.078750 16768 net.cpp:150] Setting up attention_reduction3
I0822 13:18:29.078754 16768 net.cpp:157] Top shape: 64 1 8 (512)
I0822 13:18:29.078757 16768 net.cpp:165] Memory required for data: 117662464
I0822 13:18:29.078759 16768 layer_factory.hpp:77] Creating layer attention_permute4
I0822 13:18:29.078763 16768 net.cpp:106] Creating Layer attention_permute4
I0822 13:18:29.078765 16768 net.cpp:454] attention_permute4 <- attention_scale4_attention_scale_slice_4_split_0
I0822 13:18:29.078768 16768 net.cpp:411] attention_permute4 -> attention_permute4
I0822 13:18:29.078824 16768 net.cpp:150] Setting up attention_permute4
I0822 13:18:29.078830 16768 net.cpp:157] Top shape: 64 1 8 64 (32768)
I0822 13:18:29.078832 16768 net.cpp:165] Memory required for data: 117793536
I0822 13:18:29.078835 16768 layer_factory.hpp:77] Creating layer attention_reduction4
I0822 13:18:29.078840 16768 net.cpp:106] Creating Layer attention_reduction4
I0822 13:18:29.078841 16768 net.cpp:454] attention_reduction4 <- attention_permute4
I0822 13:18:29.078845 16768 net.cpp:411] attention_reduction4 -> attention_reduction4
I0822 13:18:29.078874 16768 net.cpp:150] Setting up attention_reduction4
I0822 13:18:29.078877 16768 net.cpp:157] Top shape: 64 1 8 (512)
I0822 13:18:29.078881 16768 net.cpp:165] Memory required for data: 117795584
I0822 13:18:29.078882 16768 layer_factory.hpp:77] Creating layer attention_permute5
I0822 13:18:29.078886 16768 net.cpp:106] Creating Layer attention_permute5
I0822 13:18:29.078888 16768 net.cpp:454] attention_permute5 <- attention_scale5_attention_scale_slice_5_split_0
I0822 13:18:29.078892 16768 net.cpp:411] attention_permute5 -> attention_permute5
I0822 13:18:29.078945 16768 net.cpp:150] Setting up attention_permute5
I0822 13:18:29.078950 16768 net.cpp:157] Top shape: 64 1 8 64 (32768)
I0822 13:18:29.078953 16768 net.cpp:165] Memory required for data: 117926656
I0822 13:18:29.078955 16768 layer_factory.hpp:77] Creating layer attention_reduction5
I0822 13:18:29.078959 16768 net.cpp:106] Creating Layer attention_reduction5
I0822 13:18:29.078963 16768 net.cpp:454] attention_reduction5 <- attention_permute5
I0822 13:18:29.078965 16768 net.cpp:411] attention_reduction5 -> attention_reduction5
I0822 13:18:29.078997 16768 net.cpp:150] Setting up attention_reduction5
I0822 13:18:29.079001 16768 net.cpp:157] Top shape: 64 1 8 (512)
I0822 13:18:29.079004 16768 net.cpp:165] Memory required for data: 117928704
I0822 13:18:29.079005 16768 layer_factory.hpp:77] Creating layer attention_permute6
I0822 13:18:29.079010 16768 net.cpp:106] Creating Layer attention_permute6
I0822 13:18:29.079012 16768 net.cpp:454] attention_permute6 <- attention_scale6_attention_scale_slice_6_split_0
I0822 13:18:29.079015 16768 net.cpp:411] attention_permute6 -> attention_permute6
I0822 13:18:29.079069 16768 net.cpp:150] Setting up attention_permute6
I0822 13:18:29.079075 16768 net.cpp:157] Top shape: 64 1 8 64 (32768)
I0822 13:18:29.079077 16768 net.cpp:165] Memory required for data: 118059776
I0822 13:18:29.079079 16768 layer_factory.hpp:77] Creating layer attention_reduction6
I0822 13:18:29.079083 16768 net.cpp:106] Creating Layer attention_reduction6
I0822 13:18:29.079085 16768 net.cpp:454] attention_reduction6 <- attention_permute6
I0822 13:18:29.079089 16768 net.cpp:411] attention_reduction6 -> attention_reduction6
I0822 13:18:29.079121 16768 net.cpp:150] Setting up attention_reduction6
I0822 13:18:29.079125 16768 net.cpp:157] Top shape: 64 1 8 (512)
I0822 13:18:29.079128 16768 net.cpp:165] Memory required for data: 118061824
I0822 13:18:29.079130 16768 layer_factory.hpp:77] Creating layer attention_permute7
I0822 13:18:29.079134 16768 net.cpp:106] Creating Layer attention_permute7
I0822 13:18:29.079136 16768 net.cpp:454] attention_permute7 <- attention_scale7_attention_scale_slice_7_split_0
I0822 13:18:29.079140 16768 net.cpp:411] attention_permute7 -> attention_permute7
I0822 13:18:29.079193 16768 net.cpp:150] Setting up attention_permute7
I0822 13:18:29.079198 16768 net.cpp:157] Top shape: 64 1 8 64 (32768)
I0822 13:18:29.079201 16768 net.cpp:165] Memory required for data: 118192896
I0822 13:18:29.079203 16768 layer_factory.hpp:77] Creating layer attention_reduction7
I0822 13:18:29.079207 16768 net.cpp:106] Creating Layer attention_reduction7
I0822 13:18:29.079210 16768 net.cpp:454] attention_reduction7 <- attention_permute7
I0822 13:18:29.079212 16768 net.cpp:411] attention_reduction7 -> attention_reduction7
I0822 13:18:29.079244 16768 net.cpp:150] Setting up attention_reduction7
I0822 13:18:29.079248 16768 net.cpp:157] Top shape: 64 1 8 (512)
I0822 13:18:29.079250 16768 net.cpp:165] Memory required for data: 118194944
I0822 13:18:29.079252 16768 layer_factory.hpp:77] Creating layer attention_scale_concat
I0822 13:18:29.079257 16768 net.cpp:106] Creating Layer attention_scale_concat
I0822 13:18:29.079260 16768 net.cpp:454] attention_scale_concat <- attention_reduction0
I0822 13:18:29.079263 16768 net.cpp:454] attention_scale_concat <- attention_reduction1
I0822 13:18:29.079267 16768 net.cpp:454] attention_scale_concat <- attention_reduction2
I0822 13:18:29.079269 16768 net.cpp:454] attention_scale_concat <- attention_reduction3
I0822 13:18:29.079272 16768 net.cpp:454] attention_scale_concat <- attention_reduction4
I0822 13:18:29.079274 16768 net.cpp:454] attention_scale_concat <- attention_reduction5
I0822 13:18:29.079277 16768 net.cpp:454] attention_scale_concat <- attention_reduction6
I0822 13:18:29.079279 16768 net.cpp:454] attention_scale_concat <- attention_reduction7
I0822 13:18:29.079283 16768 net.cpp:411] attention_scale_concat -> attention_scale_concat
I0822 13:18:29.079298 16768 net.cpp:150] Setting up attention_scale_concat
I0822 13:18:29.079300 16768 net.cpp:157] Top shape: 64 8 8 (4096)
I0822 13:18:29.079303 16768 net.cpp:165] Memory required for data: 118211328
I0822 13:18:29.079304 16768 layer_factory.hpp:77] Creating layer attention_height_slice
I0822 13:18:29.079309 16768 net.cpp:106] Creating Layer attention_height_slice
I0822 13:18:29.079313 16768 net.cpp:454] attention_height_slice <- attention_scale_concat
I0822 13:18:29.079316 16768 net.cpp:411] attention_height_slice -> attention_height0
I0822 13:18:29.079320 16768 net.cpp:411] attention_height_slice -> attention_height1
I0822 13:18:29.079324 16768 net.cpp:411] attention_height_slice -> attention_height2
I0822 13:18:29.079329 16768 net.cpp:411] attention_height_slice -> attention_height3
I0822 13:18:29.079334 16768 net.cpp:411] attention_height_slice -> attention_height4
I0822 13:18:29.079337 16768 net.cpp:411] attention_height_slice -> attention_height5
I0822 13:18:29.079341 16768 net.cpp:411] attention_height_slice -> attention_height6
I0822 13:18:29.079344 16768 net.cpp:411] attention_height_slice -> attention_height7
I0822 13:18:29.079408 16768 net.cpp:150] Setting up attention_height_slice
I0822 13:18:29.079412 16768 net.cpp:157] Top shape: 64 8 1 (512)
I0822 13:18:29.079416 16768 net.cpp:157] Top shape: 64 8 1 (512)
I0822 13:18:29.079417 16768 net.cpp:157] Top shape: 64 8 1 (512)
I0822 13:18:29.079421 16768 net.cpp:157] Top shape: 64 8 1 (512)
I0822 13:18:29.079422 16768 net.cpp:157] Top shape: 64 8 1 (512)
I0822 13:18:29.079425 16768 net.cpp:157] Top shape: 64 8 1 (512)
I0822 13:18:29.079428 16768 net.cpp:157] Top shape: 64 8 1 (512)
I0822 13:18:29.079430 16768 net.cpp:157] Top shape: 64 8 1 (512)
I0822 13:18:29.079432 16768 net.cpp:165] Memory required for data: 118227712
I0822 13:18:29.079434 16768 layer_factory.hpp:77] Creating layer attention_height_fc1_0
I0822 13:18:29.079439 16768 net.cpp:106] Creating Layer attention_height_fc1_0
I0822 13:18:29.079442 16768 net.cpp:454] attention_height_fc1_0 <- attention_height0
I0822 13:18:29.079447 16768 net.cpp:411] attention_height_fc1_0 -> attention_height_fc1_0
I0822 13:18:29.079535 16768 net.cpp:150] Setting up attention_height_fc1_0
I0822 13:18:29.079538 16768 net.cpp:157] Top shape: 64 128 (8192)
I0822 13:18:29.079541 16768 net.cpp:165] Memory required for data: 118260480
I0822 13:18:29.079545 16768 layer_factory.hpp:77] Creating layer attention_height_fc2_0
I0822 13:18:29.079550 16768 net.cpp:106] Creating Layer attention_height_fc2_0
I0822 13:18:29.079552 16768 net.cpp:454] attention_height_fc2_0 <- attention_height_fc1_0
I0822 13:18:29.079556 16768 net.cpp:411] attention_height_fc2_0 -> attention_height_fc2_0
I0822 13:18:29.079816 16768 net.cpp:150] Setting up attention_height_fc2_0
I0822 13:18:29.079820 16768 net.cpp:157] Top shape: 64 64 (4096)
I0822 13:18:29.079823 16768 net.cpp:165] Memory required for data: 118276864
I0822 13:18:29.079826 16768 layer_factory.hpp:77] Creating layer attention_height_fc3_0
I0822 13:18:29.079831 16768 net.cpp:106] Creating Layer attention_height_fc3_0
I0822 13:18:29.079833 16768 net.cpp:454] attention_height_fc3_0 <- attention_height_fc2_0
I0822 13:18:29.079838 16768 net.cpp:411] attention_height_fc3_0 -> attention_height_fc3_0
I0822 13:18:29.079912 16768 net.cpp:150] Setting up attention_height_fc3_0
I0822 13:18:29.079916 16768 net.cpp:157] Top shape: 64 8 (512)
I0822 13:18:29.079918 16768 net.cpp:165] Memory required for data: 118278912
I0822 13:18:29.079922 16768 layer_factory.hpp:77] Creating layer attention_height_reshape0
I0822 13:18:29.079927 16768 net.cpp:106] Creating Layer attention_height_reshape0
I0822 13:18:29.079929 16768 net.cpp:454] attention_height_reshape0 <- attention_height_fc3_0
I0822 13:18:29.079933 16768 net.cpp:411] attention_height_reshape0 -> attention_height_reshape0
I0822 13:18:29.079953 16768 net.cpp:150] Setting up attention_height_reshape0
I0822 13:18:29.079957 16768 net.cpp:157] Top shape: 64 8 1 1 (512)
I0822 13:18:29.079959 16768 net.cpp:165] Memory required for data: 118280960
I0822 13:18:29.079962 16768 layer_factory.hpp:77] Creating layer attention_height_fc1_1
I0822 13:18:29.079965 16768 net.cpp:106] Creating Layer attention_height_fc1_1
I0822 13:18:29.079967 16768 net.cpp:454] attention_height_fc1_1 <- attention_height1
I0822 13:18:29.079972 16768 net.cpp:411] attention_height_fc1_1 -> attention_height_fc1_1
I0822 13:18:29.080056 16768 net.cpp:150] Setting up attention_height_fc1_1
I0822 13:18:29.080060 16768 net.cpp:157] Top shape: 64 128 (8192)
I0822 13:18:29.080063 16768 net.cpp:165] Memory required for data: 118313728
I0822 13:18:29.080066 16768 layer_factory.hpp:77] Creating layer attention_height_fc2_1
I0822 13:18:29.080071 16768 net.cpp:106] Creating Layer attention_height_fc2_1
I0822 13:18:29.080075 16768 net.cpp:454] attention_height_fc2_1 <- attention_height_fc1_1
I0822 13:18:29.080078 16768 net.cpp:411] attention_height_fc2_1 -> attention_height_fc2_1
I0822 13:18:29.080338 16768 net.cpp:150] Setting up attention_height_fc2_1
I0822 13:18:29.080343 16768 net.cpp:157] Top shape: 64 64 (4096)
I0822 13:18:29.080344 16768 net.cpp:165] Memory required for data: 118330112
I0822 13:18:29.080348 16768 layer_factory.hpp:77] Creating layer attention_height_fc3_1
I0822 13:18:29.080351 16768 net.cpp:106] Creating Layer attention_height_fc3_1
I0822 13:18:29.080354 16768 net.cpp:454] attention_height_fc3_1 <- attention_height_fc2_1
I0822 13:18:29.080358 16768 net.cpp:411] attention_height_fc3_1 -> attention_height_fc3_1
I0822 13:18:29.080432 16768 net.cpp:150] Setting up attention_height_fc3_1
I0822 13:18:29.080436 16768 net.cpp:157] Top shape: 64 8 (512)
I0822 13:18:29.080438 16768 net.cpp:165] Memory required for data: 118332160
I0822 13:18:29.080441 16768 layer_factory.hpp:77] Creating layer attention_height_reshape1
I0822 13:18:29.080446 16768 net.cpp:106] Creating Layer attention_height_reshape1
I0822 13:18:29.080448 16768 net.cpp:454] attention_height_reshape1 <- attention_height_fc3_1
I0822 13:18:29.080452 16768 net.cpp:411] attention_height_reshape1 -> attention_height_reshape1
I0822 13:18:29.080466 16768 net.cpp:150] Setting up attention_height_reshape1
I0822 13:18:29.080471 16768 net.cpp:157] Top shape: 64 8 1 1 (512)
I0822 13:18:29.080472 16768 net.cpp:165] Memory required for data: 118334208
I0822 13:18:29.080474 16768 layer_factory.hpp:77] Creating layer attention_height_fc1_2
I0822 13:18:29.080478 16768 net.cpp:106] Creating Layer attention_height_fc1_2
I0822 13:18:29.080483 16768 net.cpp:454] attention_height_fc1_2 <- attention_height2
I0822 13:18:29.080487 16768 net.cpp:411] attention_height_fc1_2 -> attention_height_fc1_2
I0822 13:18:29.080574 16768 net.cpp:150] Setting up attention_height_fc1_2
I0822 13:18:29.080579 16768 net.cpp:157] Top shape: 64 128 (8192)
I0822 13:18:29.080581 16768 net.cpp:165] Memory required for data: 118366976
I0822 13:18:29.080585 16768 layer_factory.hpp:77] Creating layer attention_height_fc2_2
I0822 13:18:29.080590 16768 net.cpp:106] Creating Layer attention_height_fc2_2
I0822 13:18:29.080592 16768 net.cpp:454] attention_height_fc2_2 <- attention_height_fc1_2
I0822 13:18:29.080598 16768 net.cpp:411] attention_height_fc2_2 -> attention_height_fc2_2
I0822 13:18:29.080854 16768 net.cpp:150] Setting up attention_height_fc2_2
I0822 13:18:29.080858 16768 net.cpp:157] Top shape: 64 64 (4096)
I0822 13:18:29.080862 16768 net.cpp:165] Memory required for data: 118383360
I0822 13:18:29.080870 16768 layer_factory.hpp:77] Creating layer attention_height_fc3_2
I0822 13:18:29.080874 16768 net.cpp:106] Creating Layer attention_height_fc3_2
I0822 13:18:29.080878 16768 net.cpp:454] attention_height_fc3_2 <- attention_height_fc2_2
I0822 13:18:29.080881 16768 net.cpp:411] attention_height_fc3_2 -> attention_height_fc3_2
I0822 13:18:29.080955 16768 net.cpp:150] Setting up attention_height_fc3_2
I0822 13:18:29.080960 16768 net.cpp:157] Top shape: 64 8 (512)
I0822 13:18:29.080961 16768 net.cpp:165] Memory required for data: 118385408
I0822 13:18:29.080965 16768 layer_factory.hpp:77] Creating layer attention_height_reshape2
I0822 13:18:29.080970 16768 net.cpp:106] Creating Layer attention_height_reshape2
I0822 13:18:29.080971 16768 net.cpp:454] attention_height_reshape2 <- attention_height_fc3_2
I0822 13:18:29.080976 16768 net.cpp:411] attention_height_reshape2 -> attention_height_reshape2
I0822 13:18:29.080989 16768 net.cpp:150] Setting up attention_height_reshape2
I0822 13:18:29.080993 16768 net.cpp:157] Top shape: 64 8 1 1 (512)
I0822 13:18:29.080996 16768 net.cpp:165] Memory required for data: 118387456
I0822 13:18:29.080997 16768 layer_factory.hpp:77] Creating layer attention_height_fc1_3
I0822 13:18:29.081002 16768 net.cpp:106] Creating Layer attention_height_fc1_3
I0822 13:18:29.081005 16768 net.cpp:454] attention_height_fc1_3 <- attention_height3
I0822 13:18:29.081008 16768 net.cpp:411] attention_height_fc1_3 -> attention_height_fc1_3
I0822 13:18:29.081090 16768 net.cpp:150] Setting up attention_height_fc1_3
I0822 13:18:29.081094 16768 net.cpp:157] Top shape: 64 128 (8192)
I0822 13:18:29.081096 16768 net.cpp:165] Memory required for data: 118420224
I0822 13:18:29.081100 16768 layer_factory.hpp:77] Creating layer attention_height_fc2_3
I0822 13:18:29.081104 16768 net.cpp:106] Creating Layer attention_height_fc2_3
I0822 13:18:29.081107 16768 net.cpp:454] attention_height_fc2_3 <- attention_height_fc1_3
I0822 13:18:29.081111 16768 net.cpp:411] attention_height_fc2_3 -> attention_height_fc2_3
I0822 13:18:29.081928 16768 net.cpp:150] Setting up attention_height_fc2_3
I0822 13:18:29.081934 16768 net.cpp:157] Top shape: 64 64 (4096)
I0822 13:18:29.081936 16768 net.cpp:165] Memory required for data: 118436608
I0822 13:18:29.081940 16768 layer_factory.hpp:77] Creating layer attention_height_fc3_3
I0822 13:18:29.081944 16768 net.cpp:106] Creating Layer attention_height_fc3_3
I0822 13:18:29.081948 16768 net.cpp:454] attention_height_fc3_3 <- attention_height_fc2_3
I0822 13:18:29.081951 16768 net.cpp:411] attention_height_fc3_3 -> attention_height_fc3_3
I0822 13:18:29.082026 16768 net.cpp:150] Setting up attention_height_fc3_3
I0822 13:18:29.082031 16768 net.cpp:157] Top shape: 64 8 (512)
I0822 13:18:29.082033 16768 net.cpp:165] Memory required for data: 118438656
I0822 13:18:29.082036 16768 layer_factory.hpp:77] Creating layer attention_height_reshape3
I0822 13:18:29.082041 16768 net.cpp:106] Creating Layer attention_height_reshape3
I0822 13:18:29.082043 16768 net.cpp:454] attention_height_reshape3 <- attention_height_fc3_3
I0822 13:18:29.082047 16768 net.cpp:411] attention_height_reshape3 -> attention_height_reshape3
I0822 13:18:29.082062 16768 net.cpp:150] Setting up attention_height_reshape3
I0822 13:18:29.082065 16768 net.cpp:157] Top shape: 64 8 1 1 (512)
I0822 13:18:29.082067 16768 net.cpp:165] Memory required for data: 118440704
I0822 13:18:29.082069 16768 layer_factory.hpp:77] Creating layer attention_height_fc1_4
I0822 13:18:29.082074 16768 net.cpp:106] Creating Layer attention_height_fc1_4
I0822 13:18:29.082077 16768 net.cpp:454] attention_height_fc1_4 <- attention_height4
I0822 13:18:29.082080 16768 net.cpp:411] attention_height_fc1_4 -> attention_height_fc1_4
I0822 13:18:29.082165 16768 net.cpp:150] Setting up attention_height_fc1_4
I0822 13:18:29.082168 16768 net.cpp:157] Top shape: 64 128 (8192)
I0822 13:18:29.082170 16768 net.cpp:165] Memory required for data: 118473472
I0822 13:18:29.082175 16768 layer_factory.hpp:77] Creating layer attention_height_fc2_4
I0822 13:18:29.082177 16768 net.cpp:106] Creating Layer attention_height_fc2_4
I0822 13:18:29.082180 16768 net.cpp:454] attention_height_fc2_4 <- attention_height_fc1_4
I0822 13:18:29.082185 16768 net.cpp:411] attention_height_fc2_4 -> attention_height_fc2_4
I0822 13:18:29.082440 16768 net.cpp:150] Setting up attention_height_fc2_4
I0822 13:18:29.082444 16768 net.cpp:157] Top shape: 64 64 (4096)
I0822 13:18:29.082446 16768 net.cpp:165] Memory required for data: 118489856
I0822 13:18:29.082450 16768 layer_factory.hpp:77] Creating layer attention_height_fc3_4
I0822 13:18:29.082454 16768 net.cpp:106] Creating Layer attention_height_fc3_4
I0822 13:18:29.082459 16768 net.cpp:454] attention_height_fc3_4 <- attention_height_fc2_4
I0822 13:18:29.082463 16768 net.cpp:411] attention_height_fc3_4 -> attention_height_fc3_4
I0822 13:18:29.082533 16768 net.cpp:150] Setting up attention_height_fc3_4
I0822 13:18:29.082537 16768 net.cpp:157] Top shape: 64 8 (512)
I0822 13:18:29.082540 16768 net.cpp:165] Memory required for data: 118491904
I0822 13:18:29.082542 16768 layer_factory.hpp:77] Creating layer attention_height_reshape4
I0822 13:18:29.082546 16768 net.cpp:106] Creating Layer attention_height_reshape4
I0822 13:18:29.082550 16768 net.cpp:454] attention_height_reshape4 <- attention_height_fc3_4
I0822 13:18:29.082553 16768 net.cpp:411] attention_height_reshape4 -> attention_height_reshape4
I0822 13:18:29.082567 16768 net.cpp:150] Setting up attention_height_reshape4
I0822 13:18:29.082571 16768 net.cpp:157] Top shape: 64 8 1 1 (512)
I0822 13:18:29.082572 16768 net.cpp:165] Memory required for data: 118493952
I0822 13:18:29.082576 16768 layer_factory.hpp:77] Creating layer attention_height_fc1_5
I0822 13:18:29.082579 16768 net.cpp:106] Creating Layer attention_height_fc1_5
I0822 13:18:29.082581 16768 net.cpp:454] attention_height_fc1_5 <- attention_height5
I0822 13:18:29.082585 16768 net.cpp:411] attention_height_fc1_5 -> attention_height_fc1_5
I0822 13:18:29.082669 16768 net.cpp:150] Setting up attention_height_fc1_5
I0822 13:18:29.082672 16768 net.cpp:157] Top shape: 64 128 (8192)
I0822 13:18:29.082674 16768 net.cpp:165] Memory required for data: 118526720
I0822 13:18:29.082679 16768 layer_factory.hpp:77] Creating layer attention_height_fc2_5
I0822 13:18:29.082682 16768 net.cpp:106] Creating Layer attention_height_fc2_5
I0822 13:18:29.082685 16768 net.cpp:454] attention_height_fc2_5 <- attention_height_fc1_5
I0822 13:18:29.082689 16768 net.cpp:411] attention_height_fc2_5 -> attention_height_fc2_5
I0822 13:18:29.082944 16768 net.cpp:150] Setting up attention_height_fc2_5
I0822 13:18:29.082950 16768 net.cpp:157] Top shape: 64 64 (4096)
I0822 13:18:29.082952 16768 net.cpp:165] Memory required for data: 118543104
I0822 13:18:29.082957 16768 layer_factory.hpp:77] Creating layer attention_height_fc3_5
I0822 13:18:29.082962 16768 net.cpp:106] Creating Layer attention_height_fc3_5
I0822 13:18:29.082963 16768 net.cpp:454] attention_height_fc3_5 <- attention_height_fc2_5
I0822 13:18:29.082967 16768 net.cpp:411] attention_height_fc3_5 -> attention_height_fc3_5
I0822 13:18:29.083039 16768 net.cpp:150] Setting up attention_height_fc3_5
I0822 13:18:29.083043 16768 net.cpp:157] Top shape: 64 8 (512)
I0822 13:18:29.083045 16768 net.cpp:165] Memory required for data: 118545152
I0822 13:18:29.083048 16768 layer_factory.hpp:77] Creating layer attention_height_reshape5
I0822 13:18:29.083052 16768 net.cpp:106] Creating Layer attention_height_reshape5
I0822 13:18:29.083055 16768 net.cpp:454] attention_height_reshape5 <- attention_height_fc3_5
I0822 13:18:29.083058 16768 net.cpp:411] attention_height_reshape5 -> attention_height_reshape5
I0822 13:18:29.083072 16768 net.cpp:150] Setting up attention_height_reshape5
I0822 13:18:29.083076 16768 net.cpp:157] Top shape: 64 8 1 1 (512)
I0822 13:18:29.083078 16768 net.cpp:165] Memory required for data: 118547200
I0822 13:18:29.083081 16768 layer_factory.hpp:77] Creating layer attention_height_fc1_6
I0822 13:18:29.083084 16768 net.cpp:106] Creating Layer attention_height_fc1_6
I0822 13:18:29.083087 16768 net.cpp:454] attention_height_fc1_6 <- attention_height6
I0822 13:18:29.083091 16768 net.cpp:411] attention_height_fc1_6 -> attention_height_fc1_6
I0822 13:18:29.083174 16768 net.cpp:150] Setting up attention_height_fc1_6
I0822 13:18:29.083179 16768 net.cpp:157] Top shape: 64 128 (8192)
I0822 13:18:29.083181 16768 net.cpp:165] Memory required for data: 118579968
I0822 13:18:29.083184 16768 layer_factory.hpp:77] Creating layer attention_height_fc2_6
I0822 13:18:29.083189 16768 net.cpp:106] Creating Layer attention_height_fc2_6
I0822 13:18:29.083191 16768 net.cpp:454] attention_height_fc2_6 <- attention_height_fc1_6
I0822 13:18:29.083194 16768 net.cpp:411] attention_height_fc2_6 -> attention_height_fc2_6
I0822 13:18:29.083453 16768 net.cpp:150] Setting up attention_height_fc2_6
I0822 13:18:29.083457 16768 net.cpp:157] Top shape: 64 64 (4096)
I0822 13:18:29.083459 16768 net.cpp:165] Memory required for data: 118596352
I0822 13:18:29.083463 16768 layer_factory.hpp:77] Creating layer attention_height_fc3_6
I0822 13:18:29.083467 16768 net.cpp:106] Creating Layer attention_height_fc3_6
I0822 13:18:29.083470 16768 net.cpp:454] attention_height_fc3_6 <- attention_height_fc2_6
I0822 13:18:29.083473 16768 net.cpp:411] attention_height_fc3_6 -> attention_height_fc3_6
I0822 13:18:29.083547 16768 net.cpp:150] Setting up attention_height_fc3_6
I0822 13:18:29.083551 16768 net.cpp:157] Top shape: 64 8 (512)
I0822 13:18:29.083554 16768 net.cpp:165] Memory required for data: 118598400
I0822 13:18:29.083557 16768 layer_factory.hpp:77] Creating layer attention_height_reshape6
I0822 13:18:29.083561 16768 net.cpp:106] Creating Layer attention_height_reshape6
I0822 13:18:29.083564 16768 net.cpp:454] attention_height_reshape6 <- attention_height_fc3_6
I0822 13:18:29.083567 16768 net.cpp:411] attention_height_reshape6 -> attention_height_reshape6
I0822 13:18:29.083581 16768 net.cpp:150] Setting up attention_height_reshape6
I0822 13:18:29.083585 16768 net.cpp:157] Top shape: 64 8 1 1 (512)
I0822 13:18:29.083587 16768 net.cpp:165] Memory required for data: 118600448
I0822 13:18:29.083590 16768 layer_factory.hpp:77] Creating layer attention_height_fc1_7
I0822 13:18:29.083595 16768 net.cpp:106] Creating Layer attention_height_fc1_7
I0822 13:18:29.083596 16768 net.cpp:454] attention_height_fc1_7 <- attention_height7
I0822 13:18:29.083600 16768 net.cpp:411] attention_height_fc1_7 -> attention_height_fc1_7
I0822 13:18:29.083683 16768 net.cpp:150] Setting up attention_height_fc1_7
I0822 13:18:29.083688 16768 net.cpp:157] Top shape: 64 128 (8192)
I0822 13:18:29.083689 16768 net.cpp:165] Memory required for data: 118633216
I0822 13:18:29.083693 16768 layer_factory.hpp:77] Creating layer attention_height_fc2_7
I0822 13:18:29.083698 16768 net.cpp:106] Creating Layer attention_height_fc2_7
I0822 13:18:29.083699 16768 net.cpp:454] attention_height_fc2_7 <- attention_height_fc1_7
I0822 13:18:29.083703 16768 net.cpp:411] attention_height_fc2_7 -> attention_height_fc2_7
I0822 13:18:29.083961 16768 net.cpp:150] Setting up attention_height_fc2_7
I0822 13:18:29.083966 16768 net.cpp:157] Top shape: 64 64 (4096)
I0822 13:18:29.083967 16768 net.cpp:165] Memory required for data: 118649600
I0822 13:18:29.083971 16768 layer_factory.hpp:77] Creating layer attention_height_fc3_7
I0822 13:18:29.083976 16768 net.cpp:106] Creating Layer attention_height_fc3_7
I0822 13:18:29.083978 16768 net.cpp:454] attention_height_fc3_7 <- attention_height_fc2_7
I0822 13:18:29.083981 16768 net.cpp:411] attention_height_fc3_7 -> attention_height_fc3_7
I0822 13:18:29.084055 16768 net.cpp:150] Setting up attention_height_fc3_7
I0822 13:18:29.084059 16768 net.cpp:157] Top shape: 64 8 (512)
I0822 13:18:29.084061 16768 net.cpp:165] Memory required for data: 118651648
I0822 13:18:29.084065 16768 layer_factory.hpp:77] Creating layer attention_height_reshape7
I0822 13:18:29.084069 16768 net.cpp:106] Creating Layer attention_height_reshape7
I0822 13:18:29.084071 16768 net.cpp:454] attention_height_reshape7 <- attention_height_fc3_7
I0822 13:18:29.084074 16768 net.cpp:411] attention_height_reshape7 -> attention_height_reshape7
I0822 13:18:29.084089 16768 net.cpp:150] Setting up attention_height_reshape7
I0822 13:18:29.084092 16768 net.cpp:157] Top shape: 64 8 1 1 (512)
I0822 13:18:29.084095 16768 net.cpp:165] Memory required for data: 118653696
I0822 13:18:29.084096 16768 layer_factory.hpp:77] Creating layer attention_height_concat
I0822 13:18:29.084102 16768 net.cpp:106] Creating Layer attention_height_concat
I0822 13:18:29.084105 16768 net.cpp:454] attention_height_concat <- attention_height_reshape0
I0822 13:18:29.084107 16768 net.cpp:454] attention_height_concat <- attention_height_reshape1
I0822 13:18:29.084110 16768 net.cpp:454] attention_height_concat <- attention_height_reshape2
I0822 13:18:29.084113 16768 net.cpp:454] attention_height_concat <- attention_height_reshape3
I0822 13:18:29.084115 16768 net.cpp:454] attention_height_concat <- attention_height_reshape4
I0822 13:18:29.084118 16768 net.cpp:454] attention_height_concat <- attention_height_reshape5
I0822 13:18:29.084120 16768 net.cpp:454] attention_height_concat <- attention_height_reshape6
I0822 13:18:29.084125 16768 net.cpp:454] attention_height_concat <- attention_height_reshape7
I0822 13:18:29.084130 16768 net.cpp:411] attention_height_concat -> attention_height_concat
I0822 13:18:29.084144 16768 net.cpp:150] Setting up attention_height_concat
I0822 13:18:29.084148 16768 net.cpp:157] Top shape: 64 8 8 1 (4096)
I0822 13:18:29.084151 16768 net.cpp:165] Memory required for data: 118670080
I0822 13:18:29.084152 16768 layer_factory.hpp:77] Creating layer attention_weight
I0822 13:18:29.084156 16768 net.cpp:106] Creating Layer attention_weight
I0822 13:18:29.084159 16768 net.cpp:454] attention_weight <- attention_height_concat
I0822 13:18:29.084163 16768 net.cpp:411] attention_weight -> attention_weight
I0822 13:18:29.084205 16768 net.cpp:150] Setting up attention_weight
I0822 13:18:29.084209 16768 net.cpp:157] Top shape: 64 8 8 1 (4096)
I0822 13:18:29.084211 16768 net.cpp:165] Memory required for data: 118686464
I0822 13:18:29.084213 16768 layer_factory.hpp:77] Creating layer attention_weight_slice
I0822 13:18:29.084218 16768 net.cpp:106] Creating Layer attention_weight_slice
I0822 13:18:29.084221 16768 net.cpp:454] attention_weight_slice <- attention_weight
I0822 13:18:29.084225 16768 net.cpp:411] attention_weight_slice -> attention_weight_slice0
I0822 13:18:29.084230 16768 net.cpp:411] attention_weight_slice -> attention_weight_slice1
I0822 13:18:29.084234 16768 net.cpp:411] attention_weight_slice -> attention_weight_slice2
I0822 13:18:29.084239 16768 net.cpp:411] attention_weight_slice -> attention_weight_slice3
I0822 13:18:29.084244 16768 net.cpp:411] attention_weight_slice -> attention_weight_slice4
I0822 13:18:29.084250 16768 net.cpp:411] attention_weight_slice -> attention_weight_slice5
I0822 13:18:29.084254 16768 net.cpp:411] attention_weight_slice -> attention_weight_slice6
I0822 13:18:29.084259 16768 net.cpp:411] attention_weight_slice -> attention_weight_slice7
I0822 13:18:29.084321 16768 net.cpp:150] Setting up attention_weight_slice
I0822 13:18:29.084326 16768 net.cpp:157] Top shape: 64 1 8 1 (512)
I0822 13:18:29.084328 16768 net.cpp:157] Top shape: 64 1 8 1 (512)
I0822 13:18:29.084331 16768 net.cpp:157] Top shape: 64 1 8 1 (512)
I0822 13:18:29.084333 16768 net.cpp:157] Top shape: 64 1 8 1 (512)
I0822 13:18:29.084336 16768 net.cpp:157] Top shape: 64 1 8 1 (512)
I0822 13:18:29.084338 16768 net.cpp:157] Top shape: 64 1 8 1 (512)
I0822 13:18:29.084342 16768 net.cpp:157] Top shape: 64 1 8 1 (512)
I0822 13:18:29.084343 16768 net.cpp:157] Top shape: 64 1 8 1 (512)
I0822 13:18:29.084345 16768 net.cpp:165] Memory required for data: 118702848
I0822 13:18:29.084347 16768 layer_factory.hpp:77] Creating layer attention_weight_tile0
I0822 13:18:29.084352 16768 net.cpp:106] Creating Layer attention_weight_tile0
I0822 13:18:29.084355 16768 net.cpp:454] attention_weight_tile0 <- attention_weight_slice0
I0822 13:18:29.084359 16768 net.cpp:411] attention_weight_tile0 -> attention_weight_tile0
I0822 13:18:29.084375 16768 net.cpp:150] Setting up attention_weight_tile0
I0822 13:18:29.084378 16768 net.cpp:157] Top shape: 64 64 8 1 (32768)
I0822 13:18:29.084381 16768 net.cpp:165] Memory required for data: 118833920
I0822 13:18:29.084383 16768 layer_factory.hpp:77] Creating layer attention_reweight0
I0822 13:18:29.084388 16768 net.cpp:106] Creating Layer attention_reweight0
I0822 13:18:29.084390 16768 net.cpp:454] attention_reweight0 <- attention_scale0_attention_scale_slice_0_split_1
I0822 13:18:29.084396 16768 net.cpp:454] attention_reweight0 <- attention_weight_tile0
I0822 13:18:29.084399 16768 net.cpp:411] attention_reweight0 -> attention_reweight0
I0822 13:18:29.084415 16768 net.cpp:150] Setting up attention_reweight0
I0822 13:18:29.084419 16768 net.cpp:157] Top shape: 64 64 8 1 (32768)
I0822 13:18:29.084421 16768 net.cpp:165] Memory required for data: 118964992
I0822 13:18:29.084424 16768 layer_factory.hpp:77] Creating layer attention_weight_tile1
I0822 13:18:29.084427 16768 net.cpp:106] Creating Layer attention_weight_tile1
I0822 13:18:29.084429 16768 net.cpp:454] attention_weight_tile1 <- attention_weight_slice1
I0822 13:18:29.084432 16768 net.cpp:411] attention_weight_tile1 -> attention_weight_tile1
I0822 13:18:29.084445 16768 net.cpp:150] Setting up attention_weight_tile1
I0822 13:18:29.084450 16768 net.cpp:157] Top shape: 64 64 8 1 (32768)
I0822 13:18:29.084451 16768 net.cpp:165] Memory required for data: 119096064
I0822 13:18:29.084455 16768 layer_factory.hpp:77] Creating layer attention_reweight1
I0822 13:18:29.084457 16768 net.cpp:106] Creating Layer attention_reweight1
I0822 13:18:29.084460 16768 net.cpp:454] attention_reweight1 <- attention_scale1_attention_scale_slice_1_split_1
I0822 13:18:29.084463 16768 net.cpp:454] attention_reweight1 <- attention_weight_tile1
I0822 13:18:29.084466 16768 net.cpp:411] attention_reweight1 -> attention_reweight1
I0822 13:18:29.084480 16768 net.cpp:150] Setting up attention_reweight1
I0822 13:18:29.084482 16768 net.cpp:157] Top shape: 64 64 8 1 (32768)
I0822 13:18:29.084484 16768 net.cpp:165] Memory required for data: 119227136
I0822 13:18:29.084486 16768 layer_factory.hpp:77] Creating layer attention_weight_tile2
I0822 13:18:29.084491 16768 net.cpp:106] Creating Layer attention_weight_tile2
I0822 13:18:29.084493 16768 net.cpp:454] attention_weight_tile2 <- attention_weight_slice2
I0822 13:18:29.084496 16768 net.cpp:411] attention_weight_tile2 -> attention_weight_tile2
I0822 13:18:29.084509 16768 net.cpp:150] Setting up attention_weight_tile2
I0822 13:18:29.084512 16768 net.cpp:157] Top shape: 64 64 8 1 (32768)
I0822 13:18:29.084514 16768 net.cpp:165] Memory required for data: 119358208
I0822 13:18:29.084517 16768 layer_factory.hpp:77] Creating layer attention_reweight2
I0822 13:18:29.084520 16768 net.cpp:106] Creating Layer attention_reweight2
I0822 13:18:29.084523 16768 net.cpp:454] attention_reweight2 <- attention_scale2_attention_scale_slice_2_split_1
I0822 13:18:29.084527 16768 net.cpp:454] attention_reweight2 <- attention_weight_tile2
I0822 13:18:29.084529 16768 net.cpp:411] attention_reweight2 -> attention_reweight2
I0822 13:18:29.084764 16768 net.cpp:150] Setting up attention_reweight2
I0822 13:18:29.084769 16768 net.cpp:157] Top shape: 64 64 8 1 (32768)
I0822 13:18:29.084772 16768 net.cpp:165] Memory required for data: 119489280
I0822 13:18:29.084774 16768 layer_factory.hpp:77] Creating layer attention_weight_tile3
I0822 13:18:29.084779 16768 net.cpp:106] Creating Layer attention_weight_tile3
I0822 13:18:29.084781 16768 net.cpp:454] attention_weight_tile3 <- attention_weight_slice3
I0822 13:18:29.084785 16768 net.cpp:411] attention_weight_tile3 -> attention_weight_tile3
I0822 13:18:29.084801 16768 net.cpp:150] Setting up attention_weight_tile3
I0822 13:18:29.084805 16768 net.cpp:157] Top shape: 64 64 8 1 (32768)
I0822 13:18:29.084807 16768 net.cpp:165] Memory required for data: 119620352
I0822 13:18:29.084810 16768 layer_factory.hpp:77] Creating layer attention_reweight3
I0822 13:18:29.084812 16768 net.cpp:106] Creating Layer attention_reweight3
I0822 13:18:29.084815 16768 net.cpp:454] attention_reweight3 <- attention_scale3_attention_scale_slice_3_split_1
I0822 13:18:29.084820 16768 net.cpp:454] attention_reweight3 <- attention_weight_tile3
I0822 13:18:29.084825 16768 net.cpp:411] attention_reweight3 -> attention_reweight3
I0822 13:18:29.084838 16768 net.cpp:150] Setting up attention_reweight3
I0822 13:18:29.084842 16768 net.cpp:157] Top shape: 64 64 8 1 (32768)
I0822 13:18:29.084844 16768 net.cpp:165] Memory required for data: 119751424
I0822 13:18:29.084846 16768 layer_factory.hpp:77] Creating layer attention_weight_tile4
I0822 13:18:29.084851 16768 net.cpp:106] Creating Layer attention_weight_tile4
I0822 13:18:29.084852 16768 net.cpp:454] attention_weight_tile4 <- attention_weight_slice4
I0822 13:18:29.084856 16768 net.cpp:411] attention_weight_tile4 -> attention_weight_tile4
I0822 13:18:29.084869 16768 net.cpp:150] Setting up attention_weight_tile4
I0822 13:18:29.084873 16768 net.cpp:157] Top shape: 64 64 8 1 (32768)
I0822 13:18:29.084875 16768 net.cpp:165] Memory required for data: 119882496
I0822 13:18:29.084877 16768 layer_factory.hpp:77] Creating layer attention_reweight4
I0822 13:18:29.084882 16768 net.cpp:106] Creating Layer attention_reweight4
I0822 13:18:29.084883 16768 net.cpp:454] attention_reweight4 <- attention_scale4_attention_scale_slice_4_split_1
I0822 13:18:29.084887 16768 net.cpp:454] attention_reweight4 <- attention_weight_tile4
I0822 13:18:29.084890 16768 net.cpp:411] attention_reweight4 -> attention_reweight4
I0822 13:18:29.084904 16768 net.cpp:150] Setting up attention_reweight4
I0822 13:18:29.084908 16768 net.cpp:157] Top shape: 64 64 8 1 (32768)
I0822 13:18:29.084909 16768 net.cpp:165] Memory required for data: 120013568
I0822 13:18:29.084911 16768 layer_factory.hpp:77] Creating layer attention_weight_tile5
I0822 13:18:29.084915 16768 net.cpp:106] Creating Layer attention_weight_tile5
I0822 13:18:29.084918 16768 net.cpp:454] attention_weight_tile5 <- attention_weight_slice5
I0822 13:18:29.084921 16768 net.cpp:411] attention_weight_tile5 -> attention_weight_tile5
I0822 13:18:29.084933 16768 net.cpp:150] Setting up attention_weight_tile5
I0822 13:18:29.084938 16768 net.cpp:157] Top shape: 64 64 8 1 (32768)
I0822 13:18:29.084941 16768 net.cpp:165] Memory required for data: 120144640
I0822 13:18:29.084944 16768 layer_factory.hpp:77] Creating layer attention_reweight5
I0822 13:18:29.084947 16768 net.cpp:106] Creating Layer attention_reweight5
I0822 13:18:29.084950 16768 net.cpp:454] attention_reweight5 <- attention_scale5_attention_scale_slice_5_split_1
I0822 13:18:29.084954 16768 net.cpp:454] attention_reweight5 <- attention_weight_tile5
I0822 13:18:29.084956 16768 net.cpp:411] attention_reweight5 -> attention_reweight5
I0822 13:18:29.084969 16768 net.cpp:150] Setting up attention_reweight5
I0822 13:18:29.084972 16768 net.cpp:157] Top shape: 64 64 8 1 (32768)
I0822 13:18:29.084975 16768 net.cpp:165] Memory required for data: 120275712
I0822 13:18:29.084977 16768 layer_factory.hpp:77] Creating layer attention_weight_tile6
I0822 13:18:29.084980 16768 net.cpp:106] Creating Layer attention_weight_tile6
I0822 13:18:29.084982 16768 net.cpp:454] attention_weight_tile6 <- attention_weight_slice6
I0822 13:18:29.084986 16768 net.cpp:411] attention_weight_tile6 -> attention_weight_tile6
I0822 13:18:29.084998 16768 net.cpp:150] Setting up attention_weight_tile6
I0822 13:18:29.085001 16768 net.cpp:157] Top shape: 64 64 8 1 (32768)
I0822 13:18:29.085003 16768 net.cpp:165] Memory required for data: 120406784
I0822 13:18:29.085005 16768 layer_factory.hpp:77] Creating layer attention_reweight6
I0822 13:18:29.085009 16768 net.cpp:106] Creating Layer attention_reweight6
I0822 13:18:29.085011 16768 net.cpp:454] attention_reweight6 <- attention_scale6_attention_scale_slice_6_split_1
I0822 13:18:29.085014 16768 net.cpp:454] attention_reweight6 <- attention_weight_tile6
I0822 13:18:29.085017 16768 net.cpp:411] attention_reweight6 -> attention_reweight6
I0822 13:18:29.085031 16768 net.cpp:150] Setting up attention_reweight6
I0822 13:18:29.085033 16768 net.cpp:157] Top shape: 64 64 8 1 (32768)
I0822 13:18:29.085036 16768 net.cpp:165] Memory required for data: 120537856
I0822 13:18:29.085037 16768 layer_factory.hpp:77] Creating layer attention_weight_tile7
I0822 13:18:29.085041 16768 net.cpp:106] Creating Layer attention_weight_tile7
I0822 13:18:29.085043 16768 net.cpp:454] attention_weight_tile7 <- attention_weight_slice7
I0822 13:18:29.085047 16768 net.cpp:411] attention_weight_tile7 -> attention_weight_tile7
I0822 13:18:29.085058 16768 net.cpp:150] Setting up attention_weight_tile7
I0822 13:18:29.085062 16768 net.cpp:157] Top shape: 64 64 8 1 (32768)
I0822 13:18:29.085064 16768 net.cpp:165] Memory required for data: 120668928
I0822 13:18:29.085067 16768 layer_factory.hpp:77] Creating layer attention_reweight7
I0822 13:18:29.085069 16768 net.cpp:106] Creating Layer attention_reweight7
I0822 13:18:29.085072 16768 net.cpp:454] attention_reweight7 <- attention_scale7_attention_scale_slice_7_split_1
I0822 13:18:29.085074 16768 net.cpp:454] attention_reweight7 <- attention_weight_tile7
I0822 13:18:29.085078 16768 net.cpp:411] attention_reweight7 -> attention_reweight7
I0822 13:18:29.085093 16768 net.cpp:150] Setting up attention_reweight7
I0822 13:18:29.085096 16768 net.cpp:157] Top shape: 64 64 8 1 (32768)
I0822 13:18:29.085098 16768 net.cpp:165] Memory required for data: 120800000
I0822 13:18:29.085100 16768 layer_factory.hpp:77] Creating layer attention_reweight_sum
I0822 13:18:29.085105 16768 net.cpp:106] Creating Layer attention_reweight_sum
I0822 13:18:29.085108 16768 net.cpp:454] attention_reweight_sum <- attention_reweight0
I0822 13:18:29.085110 16768 net.cpp:454] attention_reweight_sum <- attention_reweight1
I0822 13:18:29.085114 16768 net.cpp:454] attention_reweight_sum <- attention_reweight2
I0822 13:18:29.085116 16768 net.cpp:454] attention_reweight_sum <- attention_reweight3
I0822 13:18:29.085119 16768 net.cpp:454] attention_reweight_sum <- attention_reweight4
I0822 13:18:29.085121 16768 net.cpp:454] attention_reweight_sum <- attention_reweight5
I0822 13:18:29.085124 16768 net.cpp:454] attention_reweight_sum <- attention_reweight6
I0822 13:18:29.085126 16768 net.cpp:454] attention_reweight_sum <- attention_reweight7
I0822 13:18:29.085129 16768 net.cpp:411] attention_reweight_sum -> attention_reweight_sum
I0822 13:18:29.085142 16768 net.cpp:150] Setting up attention_reweight_sum
I0822 13:18:29.085146 16768 net.cpp:157] Top shape: 64 64 8 1 (32768)
I0822 13:18:29.085148 16768 net.cpp:165] Memory required for data: 120931072
I0822 13:18:29.085150 16768 layer_factory.hpp:77] Creating layer attention_reweight_flatten
I0822 13:18:29.085155 16768 net.cpp:106] Creating Layer attention_reweight_flatten
I0822 13:18:29.085156 16768 net.cpp:454] attention_reweight_flatten <- attention_reweight_sum
I0822 13:18:29.085160 16768 net.cpp:411] attention_reweight_flatten -> attention_reweight_flatten
I0822 13:18:29.085180 16768 net.cpp:150] Setting up attention_reweight_flatten
I0822 13:18:29.085184 16768 net.cpp:157] Top shape: 64 512 (32768)
I0822 13:18:29.085186 16768 net.cpp:165] Memory required for data: 121062144
I0822 13:18:29.085188 16768 layer_factory.hpp:77] Creating layer attention_reweight_dropout
I0822 13:18:29.085199 16768 net.cpp:106] Creating Layer attention_reweight_dropout
I0822 13:18:29.085202 16768 net.cpp:454] attention_reweight_dropout <- attention_reweight_flatten
I0822 13:18:29.085206 16768 net.cpp:411] attention_reweight_dropout -> attention_reweight_dropout
I0822 13:18:29.085232 16768 net.cpp:150] Setting up attention_reweight_dropout
I0822 13:18:29.085237 16768 net.cpp:157] Top shape: 64 512 (32768)
I0822 13:18:29.085238 16768 net.cpp:165] Memory required for data: 121193216
I0822 13:18:29.085242 16768 layer_factory.hpp:77] Creating layer classification_fc1
I0822 13:18:29.085245 16768 net.cpp:106] Creating Layer classification_fc1
I0822 13:18:29.085248 16768 net.cpp:454] classification_fc1 <- attention_reweight_dropout
I0822 13:18:29.085254 16768 net.cpp:411] classification_fc1 -> classification_fc1
I0822 13:18:29.086117 16768 net.cpp:150] Setting up classification_fc1
I0822 13:18:29.086122 16768 net.cpp:157] Top shape: 64 64 (4096)
I0822 13:18:29.086124 16768 net.cpp:165] Memory required for data: 121209600
I0822 13:18:29.086129 16768 layer_factory.hpp:77] Creating layer classification_dropout
I0822 13:18:29.086133 16768 net.cpp:106] Creating Layer classification_dropout
I0822 13:18:29.086135 16768 net.cpp:454] classification_dropout <- classification_fc1
I0822 13:18:29.086139 16768 net.cpp:411] classification_dropout -> classification_dropout
I0822 13:18:29.086161 16768 net.cpp:150] Setting up classification_dropout
I0822 13:18:29.086165 16768 net.cpp:157] Top shape: 64 64 (4096)
I0822 13:18:29.086167 16768 net.cpp:165] Memory required for data: 121225984
I0822 13:18:29.086169 16768 layer_factory.hpp:77] Creating layer classification_fc2
I0822 13:18:29.086174 16768 net.cpp:106] Creating Layer classification_fc2
I0822 13:18:29.086176 16768 net.cpp:454] classification_fc2 <- classification_dropout
I0822 13:18:29.086180 16768 net.cpp:411] classification_fc2 -> classification_fc2
I0822 13:18:29.086248 16768 net.cpp:150] Setting up classification_fc2
I0822 13:18:29.086252 16768 net.cpp:157] Top shape: 64 4 (256)
I0822 13:18:29.086254 16768 net.cpp:165] Memory required for data: 121227008
I0822 13:18:29.086258 16768 layer_factory.hpp:77] Creating layer classification_fc2_classification_fc2_0_split
I0822 13:18:29.086263 16768 net.cpp:106] Creating Layer classification_fc2_classification_fc2_0_split
I0822 13:18:29.086266 16768 net.cpp:454] classification_fc2_classification_fc2_0_split <- classification_fc2
I0822 13:18:29.086269 16768 net.cpp:411] classification_fc2_classification_fc2_0_split -> classification_fc2_classification_fc2_0_split_0
I0822 13:18:29.086273 16768 net.cpp:411] classification_fc2_classification_fc2_0_split -> classification_fc2_classification_fc2_0_split_1
I0822 13:18:29.086295 16768 net.cpp:150] Setting up classification_fc2_classification_fc2_0_split
I0822 13:18:29.086298 16768 net.cpp:157] Top shape: 64 4 (256)
I0822 13:18:29.086302 16768 net.cpp:157] Top shape: 64 4 (256)
I0822 13:18:29.086303 16768 net.cpp:165] Memory required for data: 121229056
I0822 13:18:29.086305 16768 layer_factory.hpp:77] Creating layer classification_loss
I0822 13:18:29.086310 16768 net.cpp:106] Creating Layer classification_loss
I0822 13:18:29.086313 16768 net.cpp:454] classification_loss <- classification_fc2_classification_fc2_0_split_0
I0822 13:18:29.086316 16768 net.cpp:454] classification_loss <- label_data_1_split_0
…
I0822 13:18:29.086422 16768 net.cpp:157] Top shape: (1)
I0822 13:18:29.086424 16768 net.cpp:165] Memory required for data: 121229064
I0822 13:18:29.086426 16768 layer_factory.hpp:77] Creating layer attention_pool_scale0
I0822 13:18:29.086431 16768 net.cpp:106] Creating Layer attention_pool_scale0
I0822 13:18:29.086433 16768 net.cpp:454] attention_pool_scale0 <- attention_scale0_attention_scale_slice_0_split_2
I0822 13:18:29.086437 16768 net.cpp:411] attention_pool_scale0 -> attention_pool_scale0
I0822 13:18:29.086462 16768 net.cpp:150] Setting up attention_pool_scale0
I0822 13:18:29.086467 16768 net.cpp:157] Top shape: 64 64 1 1 (4096)
I0822 13:18:29.086468 16768 net.cpp:165] Memory required for data: 121245448
I0822 13:18:29.086470 16768 layer_factory.hpp:77] Creating layer attention_flatten_scale0
I0822 13:18:29.086477 16768 net.cpp:106] Creating Layer attention_flatten_scale0
I0822 13:18:29.086479 16768 net.cpp:454] attention_flatten_scale0 <- attention_pool_scale0
I0822 13:18:29.086483 16768 net.cpp:411] attention_flatten_scale0 -> attention_flatten_scale0
I0822 13:18:29.086495 16768 net.cpp:150] Setting up attention_flatten_scale0
I0822 13:18:29.086499 16768 net.cpp:157] Top shape: 64 64 (4096)
I0822 13:18:29.086501 16768 net.cpp:165] Memory required for data: 121261832
I0822 13:18:29.086503 16768 layer_factory.hpp:77] Creating layer attention_dropout_scale0
I0822 13:18:29.086508 16768 net.cpp:106] Creating Layer attention_dropout_scale0
I0822 13:18:29.086509 16768 net.cpp:454] attention_dropout_scale0 <- attention_flatten_scale0
I0822 13:18:29.086513 16768 net.cpp:411] attention_dropout_scale0 -> attention_dropout_scale0
I0822 13:18:29.086534 16768 net.cpp:150] Setting up attention_dropout_scale0
I0822 13:18:29.086537 16768 net.cpp:157] Top shape: 64 64 (4096)
I0822 13:18:29.086539 16768 net.cpp:165] Memory required for data: 121278216
I0822 13:18:29.086541 16768 layer_factory.hpp:77] Creating layer classification_fc1_scale0
I0822 13:18:29.086546 16768 net.cpp:106] Creating Layer classification_fc1_scale0
I0822 13:18:29.086549 16768 net.cpp:454] classification_fc1_scale0 <- attention_dropout_scale0
I0822 13:18:29.086552 16768 net.cpp:411] classification_fc1_scale0 -> classification_fc1_scale0
I0822 13:18:29.086719 16768 net.cpp:150] Setting up classification_fc1_scale0
I0822 13:18:29.086722 16768 net.cpp:157] Top shape: 64 64 (4096)
I0822 13:18:29.086725 16768 net.cpp:165] Memory required for data: 121294600
I0822 13:18:29.086730 16768 layer_factory.hpp:77] Creating layer classification_dropout_scale0
I0822 13:18:29.086733 16768 net.cpp:106] Creating Layer classification_dropout_scale0
I0822 13:18:29.086736 16768 net.cpp:454] classification_dropout_scale0 <- classification_fc1_scale0
I0822 13:18:29.086740 16768 net.cpp:411] classification_dropout_scale0 -> classification_dropout_scale0
I0822 13:18:29.086761 16768 net.cpp:150] Setting up classification_dropout_scale0
I0822 13:18:29.086764 16768 net.cpp:157] Top shape: 64 64 (4096)
I0822 13:18:29.086910 16768 net.cpp:165] Memory required for data: 121310984
I0822 13:18:29.086912 16768 layer_factory.hpp:77] Creating layer clasification_fc2_scale0
I0822 13:18:29.086917 16768 net.cpp:106] Creating Layer clasification_fc2_scale0
I0822 13:18:29.086923 16768 net.cpp:454] clasification_fc2_scale0 <- classification_dropout_scale0
I0822 13:18:29.086971 16768 net.cpp:411] clasification_fc2_scale0 -> classification_fc2_scale0
I0822 13:18:29.087045 16768 net.cpp:150] Setting up clasification_fc2_scale0
I0822 13:18:29.087050 16768 net.cpp:157] Top shape: 64 4 (256)
I0822 13:18:29.087054 16768 net.cpp:165] Memory required for data: 121312008
I0822 13:18:29.087057 16768 layer_factory.hpp:77] Creating layer classification_fc2_scale0_clasification_fc2_scale0_0_split
I0822 13:18:29.087061 16768 net.cpp:106] Creating Layer classification_fc2_scale0_clasification_fc2_scale0_0_split
I0822 13:18:29.087064 16768 net.cpp:454] classification_fc2_scale0_clasification_fc2_scale0_0_split <- classification_fc2_scale0
I0822 13:18:29.087069 16768 net.cpp:411] classification_fc2_scale0_clasification_fc2_scale0_0_split -> classification_fc2_scale0_clasification_fc2_scale0_0_split_0
I0822 13:18:29.087072 16768 net.cpp:411] classification_fc2_scale0_clasification_fc2_scale0_0_split -> classification_fc2_scale0_clasification_fc2_scale0_0_split_1
I0822 13:18:29.087095 16768 net.cpp:150] Setting up classification_fc2_scale0_clasification_fc2_scale0_0_split
I0822 13:18:29.087098 16768 net.cpp:157] Top shape: 64 4 (256)
I0822 13:18:29.087101 16768 net.cpp:157] Top shape: 64 4 (256)
I0822 13:18:29.087103 16768 net.cpp:165] Memory required for data: 121314056
I0822 13:18:29.087105 16768 layer_factory.hpp:77] Creating layer classification_loss_scale0
I0822 13:18:29.087110 16768 net.cpp:106] Creating Layer classification_loss_scale0
I0822 13:18:29.087111 16768 net.cpp:454] classification_loss_scale0 <- classification_fc2_scale0_clasification_fc2_scale0_0_split_0
I0822 13:18:29.087116 16768 net.cpp:454] classification_loss_scale0 <- label_data_1_split_2
…
I0822 13:18:29.101982 16768 net.cpp:49] Initializing net from parameters: 
name: "DenseAttentionNet"
state {
  phase: TEST
}
layer {
  name: "data"
  type: "TextData"
  top: "data"
  top: "label"
  include {
    phase: TEST
  }
  text_data_param {
    label_source: "/ssd/ijcai18/data/agnews/test_label.txt"
    data_source: "/ssd/ijcai18/data/agnews/test_data.txt"
    dict_source: "/ssd/ijcai18/data/agnews/local_dic_index.txt"
    batch_size: 80
    channel: 1
    num_words: 100
    crop_height: 100
    crop_width: 300
    shuffle: false
  }
}
layer {
  name: "trans_layer_conv0"
  type: "Convolution"
  bottom: "data"
  top: "trans_layer_conv0"
  convolution_param {
    num_output: 64
    group: 1
    stride: 1
    weight_filler {
      type: "gaussian"
      std: 0.058925565
    }
    bias_filler {
      type: "constant"
      value: 0
    }
    pad_h: 0
    pad_w: 0
    kernel_h: 1
    kernel_w: 300
  }
}
layer {
  name: "trans_layer_bn0"
  type: "BatchNorm"
  bottom: "trans_layer_conv0"
  top: "trans_layer_bn0"
  param {
    lr_mult: 0
    decay_mult: 0
  }
  param {
    lr_mult: 0
    decay_mult: 0
  }
  param {
    lr_mult: 0
    decay_mult: 0
  }
}
layer {
  name: "trans_layer_relu0"
  type: "ReLU"
  bottom: "trans_layer_bn0"
  top: "trans_layer_bn0"
}
layer {
  name: "trans_layer_conv1"
  type: "Convolution"
  bottom: "trans_layer_bn0"
  top: "trans_layer_conv1"
  convolution_param {
    num_output: 64
    group: 1
    stride: 1
    weight_filler {
      type: "gaussian"
      std: 0.058925565
    }
    bias_filler {
      type: "constant"
      value: 0
    }
    pad_h: 0
    pad_w: 0
    kernel_h: 1
    kernel_w: 1
  }
}
layer {
  name: "trans_layer_bn1"
  type: "BatchNorm"
  bottom: "trans_layer_conv1"
  top: "trans_layer_bn1"
  param {
    lr_mult: 0
    decay_mult: 0
  }
  param {
    lr_mult: 0
    decay_mult: 0
  }
  param {
    lr_mult: 0
    decay_mult: 0
  }
}
layer {
  name: "trans_layer_relu1"
  type: "ReLU"
  bottom: "trans_layer_bn1"
  top: "trans_layer_bn1"
}
layer {
  name: "trans_layer_conv2"
  type: "Convolution"
  bottom: "trans_layer_bn1"
  top: "trans_layer_conv2"
  convolution_param {
    num_output: 64
    group: 1
    stride: 1
    weight_filler {
      type: "gaussian"
      std: 0.058925565
    }
    bias_filler {
      type: "constant"
      value: 0
    }
    pad_h: 0
    pad_w: 0
    kernel_h: 1
    kernel_w: 1
  }
}
layer {
  name: "trans_layer_bn2"
  type: "BatchNorm"
  bottom: "trans_layer_conv2"
  top: "trans_layer_bn2"
  param {
    lr_mult: 0
    decay_mult: 0
  }
  param {
    lr_mult: 0
    decay_mult: 0
  }
  param {
    lr_mult: 0
    decay_mult: 0
  }
}
layer {
  name: "trans_layer_relu2"
  type: "ReLU"
  bottom: "trans_layer_bn2"
  top: "trans_layer_bn2"
}
layer {
  name: "dense_layer_conv0"
  type: "Convolution"
  bottom: "trans_layer_bn2"
  top: "dense_layer_conv0"
  convolution_param {
    num_output: 64
    group: 1
    stride: 1
    weight_filler {
      type: "gaussian"
      std: 0.058925565
    }
    bias_filler {
      type: "constant"
      value: 0
    }
    pad_h: 1
    pad_w: 0
    kernel_h: 3
    kernel_w: 1
  }
}
layer {
  name: "dense_layer_concat0"
  type: "Concat"
  bottom: "dense_layer_conv0"
  bottom: "trans_layer_conv0"
  bottom: "trans_layer_conv1"
  bottom: "trans_layer_conv2"
  top: "dense_layer_concat0"
  concat_param {
    axis: 1
  }
}
layer {
  name: "dense_layer_bn0"
  type: "BatchNorm"
  bottom: "dense_layer_concat0"
  top: "dense_layer_bn0"
  param {
    lr_mult: 0
    decay_mult: 0
  }
  param {
    lr_mult: 0
    decay_mult: 0
  }
  param {
    lr_mult: 0
    decay_mult: 0
  }
}
layer {
  name: "dense_layer_relu0"
  type: "ReLU"
  bottom: "dense_layer_bn0"
  top: "dense_layer_bn0"
}
layer {
  name: "dense_layer_pool0"
  type: "Pooling"
  bottom: "dense_layer_bn0"
  top: "dense_layer_pool0"
  pooling_param {
    pool: AVE
    kernel_h: 3
    kernel_w: 1
    stride_h: 2
    stride_w: 1
    pad_h: 1
    pad_w: 0
  }
}
layer {
  name: "dense_layer_conv1"
  type: "Convolution"
  bottom: "dense_layer_pool0"
  top: "dense_layer_conv1"
  convolution_param {
    num_output: 64
    group: 1
    stride: 1
    weight_filler {
      type: "gaussian"
      std: 0.058925565
    }
    bias_filler {
      type: "constant"
      value: 0
    }
    pad_h: 1
    pad_w: 0
    kernel_h: 3
    kernel_w: 1
  }
}
layer {
  name: "dense_layer_concat1"
  type: "Concat"
  bottom: "dense_layer_conv1"
  bottom: "dense_layer_pool0"
  top: "dense_layer_concat1"
  concat_param {
    axis: 1
  }
}
layer {
  name: "dense_layer_bn1"
  type: "BatchNorm"
  bottom: "dense_layer_concat1"
  top: "dense_layer_bn1"
  param {
    lr_mult: 0
    decay_mult: 0
  }
  param {
    lr_mult: 0
    decay_mult: 0
  }
  param {
    lr_mult: 0
    decay_mult: 0
  }
}
layer {
  name: "dense_layer_relu1"
  type: "ReLU"
  bottom: "dense_layer_bn1"
  top: "dense_layer_bn1"
}
layer {
  name: "dense_layer_pool1"
  type: "Pooling"
  bottom: "dense_layer_bn1"
  top: "dense_layer_pool1"
  pooling_param {
    pool: AVE
    kernel_h: 3
    kernel_w: 1
    stride_h: 2
    stride_w: 1
    pad_h: 1
    pad_w: 0
  }
}
layer {
  name: "dense_layer_conv2"
  type: "Convolution"
  bottom: "dense_layer_pool1"
  top: "dense_layer_conv2"
  convolution_param {
    num_output: 64
    group: 1
    stride: 1
    weight_filler {
      type: "gaussian"
      std: 0.058925565
    }
    bias_filler {
      type: "constant"
      value: 0
    }
    pad_h: 1
    pad_w: 0
    kernel_h: 3
    kernel_w: 1
  }
}
layer {
  name: "dense_layer_concat2"
  type: "Concat"
  bottom: "dense_layer_conv2"
  bottom: "dense_layer_pool1"
  top: "dense_layer_concat2"
  concat_param {
    axis: 1
  }
}
layer {
  name: "dense_layer_bn2"
  type: "BatchNorm"
  bottom: "dense_layer_concat2"
  top: "dense_layer_bn2"
  param {
    lr_mult: 0
    decay_mult: 0
  }
  param {
    lr_mult: 0
    decay_mult: 0
  }
  param {
    lr_mult: 0
    decay_mult: 0
  }
}
layer {
  name: "dense_layer_relu2"
  type: "ReLU"
  bottom: "dense_layer_bn2"
  top: "dense_layer_bn2"
}
layer {
  name: "dense_layer_pool2"
  type: "Pooling"
  bottom: "dense_layer_bn2"
  top: "dense_layer_pool2"
  pooling_param {
    pool: AVE
    kernel_h: 3
    kernel_w: 1
    stride_h: 2
    stride_w: 1
    pad_h: 1
    pad_w: 0
  }
}
layer {
  name: "dense_layer_conv3"
  type: "Convolution"
  bottom: "dense_layer_pool2"
  top: "dense_layer_conv3"
  convolution_param {
    num_output: 64
    group: 1
    stride: 1
    weight_filler {
      type: "gaussian"
      std: 0.058925565
    }
    bias_filler {
      type: "constant"
      value: 0
    }
    pad_h: 1
    pad_w: 0
    kernel_h: 3
    kernel_w: 1
  }
}
layer {
  name: "dense_layer_concat3"
  type: "Concat"
  bottom: "dense_layer_conv3"
  bottom: "dense_layer_pool2"
  top: "dense_layer_concat3"
  concat_param {
    axis: 1
  }
}
layer {
  name: "dense_layer_bn3"
  type: "BatchNorm"
  bottom: "dense_layer_concat3"
  top: "dense_layer_bn3"
  param {
    lr_mult: 0
    decay_mult: 0
  }
  param {
    lr_mult: 0
    decay_mult: 0
  }
  param {
    lr_mult: 0
    decay_mult: 0
  }
}
layer {
  name: "dense_layer_relu3"
  type: "ReLU"
  bottom: "dense_layer_bn3"
  top: "dense_layer_bn3"
}
layer {
  name: "dense_layer_pool3"
  type: "Pooling"
  bottom: "dense_layer_bn3"
  top: "dense_layer_pool3"
  pooling_param {
    pool: AVE
    kernel_h: 3
    kernel_w: 1
    stride_h: 2
    stride_w: 1
    pad_h: 1
    pad_w: 0
  }
}
layer {
  name: "dense_layer_conv4"
  type: "Convolution"
  bottom: "dense_layer_pool3"
  top: "dense_layer_conv4"
  convolution_param {
    num_output: 64
    group: 1
    stride: 1
    weight_filler {
      type: "gaussian"
      std: 0.058925565
    }
    bias_filler {
      type: "constant"
      value: 0
    }
    pad_h: 1
    pad_w: 0
    kernel_h: 3
    kernel_w: 1
  }
}
layer {
  name: "dense_layer_concat4"
  type: "Concat"
  bottom: "dense_layer_conv4"
  bottom: "dense_layer_pool3"
  top: "dense_layer_concat4"
  concat_param {
    axis: 1
  }
}
layer {
  name: "dense_layer_bn4"
  type: "BatchNorm"
  bottom: "dense_layer_concat4"
  top: "dense_layer_bn4"
  param {
    lr_mult: 0
    decay_mult: 0
  }
  param {
    lr_mult: 0
    decay_mult: 0
  }
  param {
    lr_mult: 0
    decay_mult: 0
  }
}
layer {
  name: "dense_layer_relu4"
  type: "ReLU"
  bottom: "dense_layer_bn4"
  top: "dense_layer_bn4"
}
layer {
  name: "attention_layer_conv0"
  type: "Convolution"
  bottom: "dense_layer_bn4"
  top: "attention_layer_conv0"
  convolution_param {
    num_output: 512
    group: 8
    stride: 1
    weight_filler {
      type: "gaussian"
      std: 0.058925565
    }
    bias_filler {
      type: "constant"
      value: 0
    }
    pad_h: 0
    pad_w: 0
    kernel_h: 1
    kernel_w: 1
  }
}
layer {
  name: "attention_layer_bn0"
  type: "BatchNorm"
  bottom: "attention_layer_conv0"
  top: "attention_layer_bn0"
  param {
    lr_mult: 0
    decay_mult: 0
  }
  param {
    lr_mult: 0
    decay_mult: 0
  }
  param {
    lr_mult: 0
    decay_mult: 0
  }
}
layer {
  name: "attention_layer_relu0"
  type: "ReLU"
  bottom: "attention_layer_bn0"
  top: "attention_layer_bn0"
}
layer {
  name: "attention_layer_conv1"
  type: "Convolution"
  bottom: "attention_layer_bn0"
  top: "attention_layer_conv1"
  convolution_param {
    num_output: 512
    group: 8
    stride: 1
    weight_filler {
      type: "gaussian"
      std: 0.058925565
    }
    bias_filler {
      type: "constant"
      value: 0
    }
    pad_h: 0
    pad_w: 0
    kernel_h: 1
    kernel_w: 1
  }
}
layer {
  name: "attention_layer_bn1"
  type: "BatchNorm"
  bottom: "attention_layer_conv1"
  top: "attention_layer_bn1"
  param {
    lr_mult: 0
    decay_mult: 0
  }
  param {
    lr_mult: 0
    decay_mult: 0
  }
  param {
    lr_mult: 0
    decay_mult: 0
  }
}
layer {
  name: "attention_layer_relu1"
  type: "ReLU"
  bottom: "attention_layer_bn1"
  top: "attention_layer_bn1"
}
layer {
  name: "attention_scale_slice"
  type: "Slice"
  bottom: "attention_layer_bn1"
  top: "attention_scale0"
  top: "attention_scale1"
  top: "attention_scale2"
  top: "attention_scale3"
  top: "attention_scale4"
  top: "attention_scale5"
  top: "attention_scale6"
  top: "attention_scale7"
  slice_param {
    slice_point: 64
    slice_point: 128
    slice_point: 192
    slice_point: 256
    slice_point: 320
    slice_point: 384
    slice_point: 448
    axis: 1
  }
}
layer {
  name: "attention_permute0"
  type: "Permute"
  bottom: "attention_scale0"
  top: "attention_permute0"
  permute_param {
    order: 0
    order: 3
    order: 2
    order: 1
  }
}
layer {
  name: "attention_reduction0"
  type: "Reduction"
  bottom: "attention_permute0"
  top: "attention_reduction0"
  reduction_param {
    axis: 3
  }
}
layer {
  name: "attention_permute1"
  type: "Permute"
  bottom: "attention_scale1"
  top: "attention_permute1"
  permute_param {
    order: 0
    order: 3
    order: 2
    order: 1
  }
}
layer {
  name: "attention_reduction1"
  type: "Reduction"
  bottom: "attention_permute1"
  top: "attention_reduction1"
  reduction_param {
    axis: 3
  }
}
layer {
  name: "attention_permute2"
  type: "Permute"
  bottom: "attention_scale2"
  top: "attention_permute2"
  permute_param {
    order: 0
    order: 3
    order: 2
    order: 1
  }
}
layer {
  name: "attention_reduction2"
  type: "Reduction"
  bottom: "attention_permute2"
  top: "attention_reduction2"
  reduction_param {
    axis: 3
  }
}
layer {
  name: "attention_permute3"
  type: "Permute"
  bottom: "attention_scale3"
  top: "attention_permute3"
  permute_param {
    order: 0
    order: 3
    order: 2
    order: 1
  }
}
layer {
  name: "attention_reduction3"
  type: "Reduction"
  bottom: "attention_permute3"
  top: "attention_reduction3"
  reduction_param {
    axis: 3
  }
}
layer {
  name: "attention_permute4"
  type: "Permute"
  bottom: "attention_scale4"
  top: "attention_permute4"
  permute_param {
    order: 0
    order: 3
    order: 2
    order: 1
  }
}
layer {
  name: "attention_reduction4"
  type: "Reduction"
  bottom: "attention_permute4"
  top: "attention_reduction4"
  reduction_param {
    axis: 3
  }
}
layer {
  name: "attention_permute5"
  type: "Permute"
  bottom: "attention_scale5"
  top: "attention_permute5"
  permute_param {
    order: 0
    order: 3
    order: 2
    order: 1
  }
}
layer {
  name: "attention_reduction5"
  type: "Reduction"
  bottom: "attention_permute5"
  top: "attention_reduction5"
  reduction_param {
    axis: 3
  }
}
layer {
  name: "attention_permute6"
  type: "Permute"
  bottom: "attention_scale6"
  top: "attention_permute6"
  permute_param {
    order: 0
    order: 3
    order: 2
    order: 1
  }
}
layer {
  name: "attention_reduction6"
  type: "Reduction"
  bottom: "attention_permute6"
  top: "attention_reduction6"
  reduction_param {
    axis: 3
  }
}
layer {
  name: "attention_permute7"
  type: "Permute"
  bottom: "attention_scale7"
  top: "attention_permute7"
  permute_param {
    order: 0
    order: 3
    order: 2
    order: 1
  }
}
layer {
  name: "attention_reduction7"
  type: "Reduction"
  bottom: "attention_permute7"
  top: "attention_reduction7"
  reduction_param {
    axis: 3
  }
}
layer {
  name: "attention_scale_concat"
  type: "Concat"
  bottom: "attention_reduction0"
  bottom: "attention_reduction1"
  bottom: "attention_reduction2"
  bottom: "attention_reduction3"
  bottom: "attention_reduction4"
  bottom: "attention_reduction5"
  bottom: "attention_reduction6"
  bottom: "attention_reduction7"
  top: "attention_scale_concat"
  concat_param {
    axis: 1
  }
}
layer {
  name: "attention_height_slice"
  type: "Slice"
  bottom: "attention_scale_concat"
  top: "attention_height0"
  top: "attention_height1"
  top: "attention_height2"
  top: "attention_height3"
  top: "attention_height4"
  top: "attention_height5"
  top: "attention_height6"
  top: "attention_height7"
  slice_param {
    slice_point: 1
    slice_point: 2
    slice_point: 3
    slice_point: 4
    slice_point: 5
    slice_point: 6
    slice_point: 7
    axis: 2
  }
}
layer {
  name: "attention_height_fc1_0"
  type: "InnerProduct"
  bottom: "attention_height0"
  top: "attention_height_fc1_0"
  inner_product_param {
    num_output: 128
    weight_filler {
      type: "gaussian"
      std: 0.001
    }
    bias_filler {
      type: "constant"
      value: 0
    }
  }
}
layer {
  name: "attention_height_fc2_0"
  type: "InnerProduct"
  bottom: "attention_height_fc1_0"
  top: "attention_height_fc2_0"
  inner_product_param {
    num_output: 64
    weight_filler {
      type: "gaussian"
      std: 0.001
    }
    bias_filler {
      type: "constant"
      value: 0
    }
  }
}
layer {
  name: "attention_height_fc3_0"
  type: "InnerProduct"
  bottom: "attention_height_fc2_0"
  top: "attention_height_fc3_0"
  inner_product_param {
    num_output: 8
    weight_filler {
      type: "gaussian"
      std: 0.001
    }
    bias_filler {
      type: "constant"
      value: 0
    }
  }
}
layer {
  name: "attention_height_reshape0"
  type: "Reshape"
  bottom: "attention_height_fc3_0"
  top: "attention_height_reshape0"
  reshape_param {
    shape {
      dim: 0
      dim: 0
      dim: 1
      dim: 1
    }
  }
}
layer {
  name: "attention_height_fc1_1"
  type: "InnerProduct"
  bottom: "attention_height1"
  top: "attention_height_fc1_1"
  inner_product_param {
    num_output: 128
    weight_filler {
      type: "gaussian"
      std: 0.001
    }
    bias_filler {
      type: "constant"
      value: 0
    }
  }
}
layer {
  name: "attention_height_fc2_1"
  type: "InnerProduct"
  bottom: "attention_height_fc1_1"
  top: "attention_height_fc2_1"
  inner_product_param {
    num_output: 64
    weight_filler {
      type: "gaussian"
      std: 0.001
    }
    bias_filler {
      type: "constant"
      value: 0
    }
  }
}
layer {
  name: "attention_height_fc3_1"
  type: "InnerProduct"
  bottom: "attention_height_fc2_1"
  top: "attention_height_fc3_1"
  inner_product_param {
    num_output: 8
    weight_filler {
      type: "gaussian"
      std: 0.001
    }
    bias_filler {
      type: "constant"
      value: 0
    }
  }
}
layer {
  name: "attention_height_reshape1"
  type: "Reshape"
  bottom: "attention_height_fc3_1"
  top: "attention_height_reshape1"
  reshape_param {
    shape {
      dim: 0
      dim: 0
      dim: 1
      dim: 1
    }
  }
}
layer {
  name: "attention_height_fc1_2"
  type: "InnerProduct"
  bottom: "attention_height2"
  top: "attention_height_fc1_2"
  inner_product_param {
    num_output: 128
    weight_filler {
      type: "gaussian"
      std: 0.001
    }
    bias_filler {
      type: "constant"
      value: 0
    }
  }
}
layer {
  name: "attention_height_fc2_2"
  type: "InnerProduct"
  bottom: "attention_height_fc1_2"
  top: "attention_height_fc2_2"
  inner_product_param {
    num_output: 64
    weight_filler {
      type: "gaussian"
      std: 0.001
    }
    bias_filler {
      type: "constant"
      value: 0
    }
  }
}
layer {
  name: "attention_height_fc3_2"
  type: "InnerProduct"
  bottom: "attention_height_fc2_2"
  top: "attention_height_fc3_2"
  inner_product_param {
    num_output: 8
    weight_filler {
      type: "gaussian"
      std: 0.001
    }
    bias_filler {
      type: "constant"
      value: 0
    }
  }
}
layer {
  name: "attention_height_reshape2"
  type: "Reshape"
  bottom: "attention_height_fc3_2"
  top: "attention_height_reshape2"
  reshape_param {
    shape {
      dim: 0
      dim: 0
      dim: 1
      dim: 1
    }
  }
}
layer {
  name: "attention_height_fc1_3"
  type: "InnerProduct"
  bottom: "attention_height3"
  top: "attention_height_fc1_3"
  inner_product_param {
    num_output: 128
    weight_filler {
      type: "gaussian"
      std: 0.001
    }
    bias_filler {
      type: "constant"
      value: 0
    }
  }
}
layer {
  name: "attention_height_fc2_3"
  type: "InnerProduct"
  bottom: "attention_height_fc1_3"
  top: "attention_height_fc2_3"
  inner_product_param {
    num_output: 64
    weight_filler {
      type: "gaussian"
      std: 0.001
    }
    bias_filler {
      type: "constant"
      value: 0
    }
  }
}
layer {
  name: "attention_height_fc3_3"
  type: "InnerProduct"
  bottom: "attention_height_fc2_3"
  top: "attention_height_fc3_3"
  inner_product_param {
    num_output: 8
    weight_filler {
      type: "gaussian"
      std: 0.001
    }
    bias_filler {
      type: "constant"
      value: 0
    }
  }
}
layer {
  name: "attention_height_reshape3"
  type: "Reshape"
  bottom: "attention_height_fc3_3"
  top: "attention_height_reshape3"
  reshape_param {
    shape {
      dim: 0
      dim: 0
      dim: 1
      dim: 1
    }
  }
}
layer {
  name: "attention_height_fc1_4"
  type: "InnerProduct"
  bottom: "attention_height4"
  top: "attention_height_fc1_4"
  inner_product_param {
    num_output: 128
    weight_filler {
      type: "gaussian"
      std: 0.001
    }
    bias_filler {
      type: "constant"
      value: 0
    }
  }
}
layer {
  name: "attention_height_fc2_4"
  type: "InnerProduct"
  bottom: "attention_height_fc1_4"
  top: "attention_height_fc2_4"
  inner_product_param {
    num_output: 64
    weight_filler {
      type: "gaussian"
      std: 0.001
    }
    bias_filler {
      type: "constant"
      value: 0
    }
  }
}
layer {
  name: "attention_height_fc3_4"
  type: "InnerProduct"
  bottom: "attention_height_fc2_4"
  top: "attention_height_fc3_4"
  inner_product_param {
    num_output: 8
    weight_filler {
      type: "gaussian"
      std: 0.001
    }
    bias_filler {
      type: "constant"
      value: 0
    }
  }
}
layer {
  name: "attention_height_reshape4"
  type: "Reshape"
  bottom: "attention_height_fc3_4"
  top: "attention_height_reshape4"
  reshape_param {
    shape {
      dim: 0
      dim: 0
      dim: 1
      dim: 1
    }
  }
}
layer {
  name: "attention_height_fc1_5"
  type: "InnerProduct"
  bottom: "attention_height5"
  top: "attention_height_fc1_5"
  inner_product_param {
    num_output: 128
    weight_filler {
      type: "gaussian"
      std: 0.001
    }
    bias_filler {
      type: "constant"
      value: 0
    }
  }
}
layer {
  name: "attention_height_fc2_5"
  type: "InnerProduct"
  bottom: "attention_height_fc1_5"
  top: "attention_height_fc2_5"
  inner_product_param {
    num_output: 64
    weight_filler {
      type: "gaussian"
      std: 0.001
    }
    bias_filler {
      type: "constant"
      value: 0
    }
  }
}
layer {
  name: "attention_height_fc3_5"
  type: "InnerProduct"
  bottom: "attention_height_fc2_5"
  top: "attention_height_fc3_5"
  inner_product_param {
    num_output: 8
    weight_filler {
      type: "gaussian"
      std: 0.001
    }
    bias_filler {
      type: "constant"
      value: 0
    }
  }
}
layer {
  name: "attention_height_reshape5"
  type: "Reshape"
  bottom: "attention_height_fc3_5"
  top: "attention_height_reshape5"
  reshape_param {
    shape {
      dim: 0
      dim: 0
      dim: 1
      dim: 1
    }
  }
}
layer {
  name: "attention_height_fc1_6"
  type: "InnerProduct"
  bottom: "attention_height6"
  top: "attention_height_fc1_6"
  inner_product_param {
    num_output: 128
    weight_filler {
      type: "gaussian"
      std: 0.001
    }
    bias_filler {
      type: "constant"
      value: 0
    }
  }
}
layer {
  name: "attention_height_fc2_6"
  type: "InnerProduct"
  bottom: "attention_height_fc1_6"
  top: "attention_height_fc2_6"
  inner_product_param {
    num_output: 64
    weight_filler {
      type: "gaussian"
      std: 0.001
    }
    bias_filler {
      type: "constant"
      value: 0
    }
  }
}
layer {
  name: "attention_height_fc3_6"
  type: "InnerProduct"
  bottom: "attention_height_fc2_6"
  top: "attention_height_fc3_6"
  inner_product_param {
    num_output: 8
    weight_filler {
      type: "gaussian"
      std: 0.001
    }
    bias_filler {
      type: "constant"
      value: 0
    }
  }
}
layer {
  name: "attention_height_reshape6"
  type: "Reshape"
  bottom: "attention_height_fc3_6"
  top: "attention_height_reshape6"
  reshape_param {
    shape {
      dim: 0
      dim: 0
      dim: 1
      dim: 1
    }
  }
}
layer {
  name: "attention_height_fc1_7"
  type: "InnerProduct"
  bottom: "attention_height7"
  top: "attention_height_fc1_7"
  inner_product_param {
    num_output: 128
    weight_filler {
      type: "gaussian"
      std: 0.001
    }
    bias_filler {
      type: "constant"
      value: 0
    }
  }
}
layer {
  name: "attention_height_fc2_7"
  type: "InnerProduct"
  bottom: "attention_height_fc1_7"
  top: "attention_height_fc2_7"
  inner_product_param {
    num_output: 64
    weight_filler {
      type: "gaussian"
      std: 0.001
    }
    bias_filler {
      type: "constant"
      value: 0
    }
  }
}
layer {
  name: "attention_height_fc3_7"
  type: "InnerProduct"
  bottom: "attention_height_fc2_7"
  top: "attention_height_fc3_7"
  inner_product_param {
    num_output: 8
    weight_filler {
      type: "gaussian"
      std: 0.001
    }
    bias_filler {
      type: "constant"
      value: 0
    }
  }
}
layer {
  name: "attention_height_reshape7"
  type: "Reshape"
  bottom: "attention_height_fc3_7"
  top: "attention_height_reshape7"
  reshape_param {
    shape {
      dim: 0
      dim: 0
      dim: 1
      dim: 1
    }
  }
}
layer {
  name: "attention_height_concat"
  type: "Concat"
  bottom: "attention_height_reshape0"
  bottom: "attention_height_reshape1"
  bottom: "attention_height_reshape2"
  bottom: "attention_height_reshape3"
  bottom: "attention_height_reshape4"
  bottom: "attention_height_reshape5"
  bottom: "attention_height_reshape6"
  bottom: "attention_height_reshape7"
  top: "attention_height_concat"
  concat_param {
    axis: 2
  }
}
layer {
  name: "attention_weight"
  type: "Softmax"
  bottom: "attention_height_concat"
  top: "attention_weight"
}
layer {
  name: "attention_weight_slice"
  type: "Slice"
  bottom: "attention_weight"
  top: "attention_weight_slice0"
  top: "attention_weight_slice1"
  top: "attention_weight_slice2"
  top: "attention_weight_slice3"
  top: "attention_weight_slice4"
  top: "attention_weight_slice5"
  top: "attention_weight_slice6"
  top: "attention_weight_slice7"
  slice_param {
    slice_point: 1
    slice_point: 2
    slice_point: 3
    slice_point: 4
…
I0822 13:18:34.026403 16768 net.cpp:454] attention_permute3 <- attention_scale3_attention_scale_slice_3_split_0
I0822 13:18:34.026407 16768 net.cpp:411] attention_permute3 -> attention_permute3
I0822 13:18:34.026465 16768 net.cpp:150] Setting up attention_permute3
I0822 13:18:34.026469 16768 net.cpp:157] Top shape: 80 1 8 64 (40960)
I0822 13:18:34.026471 16768 net.cpp:165] Memory required for data: 147075520
I0822 13:18:34.026473 16768 layer_factory.hpp:77] Creating layer attention_reduction3
I0822 13:18:34.026482 16768 net.cpp:106] Creating Layer attention_reduction3
I0822 13:18:34.026485 16768 net.cpp:454] attention_reduction3 <- attention_permute3
I0822 13:18:34.026489 16768 net.cpp:411] attention_reduction3 -> attention_reduction3
I0822 13:18:34.026521 16768 net.cpp:150] Setting up attention_reduction3
I0822 13:18:34.026525 16768 net.cpp:157] Top shape: 80 1 8 (640)
I0822 13:18:34.026527 16768 net.cpp:165] Memory required for data: 147078080
I0822 13:18:34.026530 16768 layer_factory.hpp:77] Creating layer attention_permute4
I0822 13:18:34.026535 16768 net.cpp:106] Creating Layer attention_permute4
I0822 13:18:34.026536 16768 net.cpp:454] attention_permute4 <- attention_scale4_attention_scale_slice_4_split_0
I0822 13:18:34.026540 16768 net.cpp:411] attention_permute4 -> attention_permute4
I0822 13:18:34.026598 16768 net.cpp:150] Setting up attention_permute4
I0822 13:18:34.026602 16768 net.cpp:157] Top shape: 80 1 8 64 (40960)
I0822 13:18:34.026604 16768 net.cpp:165] Memory required for data: 147241920
I0822 13:18:34.026607 16768 layer_factory.hpp:77] Creating layer attention_reduction4
I0822 13:18:34.026610 16768 net.cpp:106] Creating Layer attention_reduction4
I0822 13:18:34.026612 16768 net.cpp:454] attention_reduction4 <- attention_permute4
I0822 13:18:34.026616 16768 net.cpp:411] attention_reduction4 -> attention_reduction4
I0822 13:18:34.026648 16768 net.cpp:150] Setting up attention_reduction4
I0822 13:18:34.026651 16768 net.cpp:157] Top shape: 80 1 8 (640)
I0822 13:18:34.026654 16768 net.cpp:165] Memory required for data: 147244480
I0822 13:18:34.026655 16768 layer_factory.hpp:77] Creating layer attention_permute5
I0822 13:18:34.026659 16768 net.cpp:106] Creating Layer attention_permute5
I0822 13:18:34.026662 16768 net.cpp:454] attention_permute5 <- attention_scale5_attention_scale_slice_5_split_0
I0822 13:18:34.026666 16768 net.cpp:411] attention_permute5 -> attention_permute5
I0822 13:18:34.026724 16768 net.cpp:150] Setting up attention_permute5
I0822 13:18:34.026728 16768 net.cpp:157] Top shape: 80 1 8 64 (40960)
I0822 13:18:34.026733 16768 net.cpp:165] Memory required for data: 147408320
I0822 13:18:34.026736 16768 layer_factory.hpp:77] Creating layer attention_reduction5
I0822 13:18:34.026739 16768 net.cpp:106] Creating Layer attention_reduction5
I0822 13:18:34.026741 16768 net.cpp:454] attention_reduction5 <- attention_permute5
I0822 13:18:34.026746 16768 net.cpp:411] attention_reduction5 -> attention_reduction5
I0822 13:18:34.026778 16768 net.cpp:150] Setting up attention_reduction5
I0822 13:18:34.026782 16768 net.cpp:157] Top shape: 80 1 8 (640)
I0822 13:18:34.026784 16768 net.cpp:165] Memory required for data: 147410880
I0822 13:18:34.026787 16768 layer_factory.hpp:77] Creating layer attention_permute6
I0822 13:18:34.026790 16768 net.cpp:106] Creating Layer attention_permute6
I0822 13:18:34.026793 16768 net.cpp:454] attention_permute6 <- attention_scale6_attention_scale_slice_6_split_0
I0822 13:18:34.026796 16768 net.cpp:411] attention_permute6 -> attention_permute6
I0822 13:18:34.026855 16768 net.cpp:150] Setting up attention_permute6
I0822 13:18:34.026859 16768 net.cpp:157] Top shape: 80 1 8 64 (40960)
I0822 13:18:34.026861 16768 net.cpp:165] Memory required for data: 147574720
I0822 13:18:34.026863 16768 layer_factory.hpp:77] Creating layer attention_reduction6
I0822 13:18:34.026868 16768 net.cpp:106] Creating Layer attention_reduction6
I0822 13:18:34.026870 16768 net.cpp:454] attention_reduction6 <- attention_permute6
I0822 13:18:34.026875 16768 net.cpp:411] attention_reduction6 -> attention_reduction6
I0822 13:18:34.026904 16768 net.cpp:150] Setting up attention_reduction6
I0822 13:18:34.026908 16768 net.cpp:157] Top shape: 80 1 8 (640)
I0822 13:18:34.026911 16768 net.cpp:165] Memory required for data: 147577280
I0822 13:18:34.026912 16768 layer_factory.hpp:77] Creating layer attention_permute7
I0822 13:18:34.026916 16768 net.cpp:106] Creating Layer attention_permute7
I0822 13:18:34.026919 16768 net.cpp:454] attention_permute7 <- attention_scale7_attention_scale_slice_7_split_0
I0822 13:18:34.026922 16768 net.cpp:411] attention_permute7 -> attention_permute7
I0822 13:18:34.026984 16768 net.cpp:150] Setting up attention_permute7
I0822 13:18:34.026988 16768 net.cpp:157] Top shape: 80 1 8 64 (40960)
I0822 13:18:34.026991 16768 net.cpp:165] Memory required for data: 147741120
I0822 13:18:34.026993 16768 layer_factory.hpp:77] Creating layer attention_reduction7
I0822 13:18:34.026998 16768 net.cpp:106] Creating Layer attention_reduction7
I0822 13:18:34.026999 16768 net.cpp:454] attention_reduction7 <- attention_permute7
I0822 13:18:34.027004 16768 net.cpp:411] attention_reduction7 -> attention_reduction7
I0822 13:18:34.027034 16768 net.cpp:150] Setting up attention_reduction7
I0822 13:18:34.027038 16768 net.cpp:157] Top shape: 80 1 8 (640)
I0822 13:18:34.027040 16768 net.cpp:165] Memory required for data: 147743680
I0822 13:18:34.027043 16768 layer_factory.hpp:77] Creating layer attention_scale_concat
I0822 13:18:34.027048 16768 net.cpp:106] Creating Layer attention_scale_concat
I0822 13:18:34.027051 16768 net.cpp:454] attention_scale_concat <- attention_reduction0
I0822 13:18:34.027055 16768 net.cpp:454] attention_scale_concat <- attention_reduction1
I0822 13:18:34.027057 16768 net.cpp:454] attention_scale_concat <- attention_reduction2
I0822 13:18:34.027060 16768 net.cpp:454] attention_scale_concat <- attention_reduction3
I0822 13:18:34.027062 16768 net.cpp:454] attention_scale_concat <- attention_reduction4
I0822 13:18:34.027065 16768 net.cpp:454] attention_scale_concat <- attention_reduction5
I0822 13:18:34.027068 16768 net.cpp:454] attention_scale_concat <- attention_reduction6
I0822 13:18:34.027070 16768 net.cpp:454] attention_scale_concat <- attention_reduction7
I0822 13:18:34.027074 16768 net.cpp:411] attention_scale_concat -> attention_scale_concat
I0822 13:18:34.027089 16768 net.cpp:150] Setting up attention_scale_concat
I0822 13:18:34.027093 16768 net.cpp:157] Top shape: 80 8 8 (5120)
I0822 13:18:34.027096 16768 net.cpp:165] Memory required for data: 147764160
I0822 13:18:34.027097 16768 layer_factory.hpp:77] Creating layer attention_height_slice
I0822 13:18:34.027103 16768 net.cpp:106] Creating Layer attention_height_slice
I0822 13:18:34.027106 16768 net.cpp:454] attention_height_slice <- attention_scale_concat
I0822 13:18:34.027109 16768 net.cpp:411] attention_height_slice -> attention_height0
I0822 13:18:34.027114 16768 net.cpp:411] attention_height_slice -> attention_height1
I0822 13:18:34.027119 16768 net.cpp:411] attention_height_slice -> attention_height2
I0822 13:18:34.027123 16768 net.cpp:411] attention_height_slice -> attention_height3
I0822 13:18:34.027127 16768 net.cpp:411] attention_height_slice -> attention_height4
I0822 13:18:34.027132 16768 net.cpp:411] attention_height_slice -> attention_height5
I0822 13:18:34.027135 16768 net.cpp:411] attention_height_slice -> attention_height6
I0822 13:18:34.027139 16768 net.cpp:411] attention_height_slice -> attention_height7
I0822 13:18:34.027206 16768 net.cpp:150] Setting up attention_height_slice
I0822 13:18:34.027210 16768 net.cpp:157] Top shape: 80 8 1 (640)
I0822 13:18:34.027213 16768 net.cpp:157] Top shape: 80 8 1 (640)
I0822 13:18:34.027216 16768 net.cpp:157] Top shape: 80 8 1 (640)
I0822 13:18:34.027220 16768 net.cpp:157] Top shape: 80 8 1 (640)
I0822 13:18:34.027222 16768 net.cpp:157] Top shape: 80 8 1 (640)
I0822 13:18:34.027225 16768 net.cpp:157] Top shape: 80 8 1 (640)
I0822 13:18:34.027227 16768 net.cpp:157] Top shape: 80 8 1 (640)
I0822 13:18:34.027230 16768 net.cpp:157] Top shape: 80 8 1 (640)
I0822 13:18:34.027232 16768 net.cpp:165] Memory required for data: 147784640
I0822 13:18:34.027235 16768 layer_factory.hpp:77] Creating layer attention_height_fc1_0
I0822 13:18:34.027240 16768 net.cpp:106] Creating Layer attention_height_fc1_0
I0822 13:18:34.027243 16768 net.cpp:454] attention_height_fc1_0 <- attention_height0
I0822 13:18:34.027247 16768 net.cpp:411] attention_height_fc1_0 -> attention_height_fc1_0
I0822 13:18:34.027338 16768 net.cpp:150] Setting up attention_height_fc1_0
I0822 13:18:34.027343 16768 net.cpp:157] Top shape: 80 128 (10240)
I0822 13:18:34.027344 16768 net.cpp:165] Memory required for data: 147825600
I0822 13:18:34.027349 16768 layer_factory.hpp:77] Creating layer attention_height_fc2_0
I0822 13:18:34.027354 16768 net.cpp:106] Creating Layer attention_height_fc2_0
I0822 13:18:34.027357 16768 net.cpp:454] attention_height_fc2_0 <- attention_height_fc1_0
I0822 13:18:34.027360 16768 net.cpp:411] attention_height_fc2_0 -> attention_height_fc2_0
I0822 13:18:34.027624 16768 net.cpp:150] Setting up attention_height_fc2_0
I0822 13:18:34.027629 16768 net.cpp:157] Top shape: 80 64 (5120)
I0822 13:18:34.027631 16768 net.cpp:165] Memory required for data: 147846080
I0822 13:18:34.027635 16768 layer_factory.hpp:77] Creating layer attention_height_fc3_0
I0822 13:18:34.027640 16768 net.cpp:106] Creating Layer attention_height_fc3_0
I0822 13:18:34.027642 16768 net.cpp:454] attention_height_fc3_0 <- attention_height_fc2_0
I0822 13:18:34.027647 16768 net.cpp:411] attention_height_fc3_0 -> attention_height_fc3_0
I0822 13:18:34.027725 16768 net.cpp:150] Setting up attention_height_fc3_0
I0822 13:18:34.027729 16768 net.cpp:157] Top shape: 80 8 (640)
I0822 13:18:34.027731 16768 net.cpp:165] Memory required for data: 147848640
I0822 13:18:34.027735 16768 layer_factory.hpp:77] Creating layer attention_height_reshape0
I0822 13:18:34.027741 16768 net.cpp:106] Creating Layer attention_height_reshape0
I0822 13:18:34.027745 16768 net.cpp:454] attention_height_reshape0 <- attention_height_fc3_0
I0822 13:18:34.027747 16768 net.cpp:411] attention_height_reshape0 -> attention_height_reshape0
I0822 13:18:34.027765 16768 net.cpp:150] Setting up attention_height_reshape0
I0822 13:18:34.027770 16768 net.cpp:157] Top shape: 80 8 1 1 (640)
I0822 13:18:34.027771 16768 net.cpp:165] Memory required for data: 147851200
I0822 13:18:34.027773 16768 layer_factory.hpp:77] Creating layer attention_height_fc1_1
I0822 13:18:34.027778 16768 net.cpp:106] Creating Layer attention_height_fc1_1
I0822 13:18:34.027781 16768 net.cpp:454] attention_height_fc1_1 <- attention_height1
I0822 13:18:34.027786 16768 net.cpp:411] attention_height_fc1_1 -> attention_height_fc1_1
I0822 13:18:34.027871 16768 net.cpp:150] Setting up attention_height_fc1_1
I0822 13:18:34.027875 16768 net.cpp:157] Top shape: 80 128 (10240)
I0822 13:18:34.027878 16768 net.cpp:165] Memory required for data: 147892160
I0822 13:18:34.027882 16768 layer_factory.hpp:77] Creating layer attention_height_fc2_1
I0822 13:18:34.027886 16768 net.cpp:106] Creating Layer attention_height_fc2_1
I0822 13:18:34.027889 16768 net.cpp:454] attention_height_fc2_1 <- attention_height_fc1_1
I0822 13:18:34.027894 16768 net.cpp:411] attention_height_fc2_1 -> attention_height_fc2_1
I0822 13:18:34.028154 16768 net.cpp:150] Setting up attention_height_fc2_1
I0822 13:18:34.028159 16768 net.cpp:157] Top shape: 80 64 (5120)
I0822 13:18:34.028162 16768 net.cpp:165] Memory required for data: 147912640
I0822 13:18:34.028165 16768 layer_factory.hpp:77] Creating layer attention_height_fc3_1
I0822 13:18:34.028169 16768 net.cpp:106] Creating Layer attention_height_fc3_1
I0822 13:18:34.028172 16768 net.cpp:454] attention_height_fc3_1 <- attention_height_fc2_1
I0822 13:18:34.028175 16768 net.cpp:411] attention_height_fc3_1 -> attention_height_fc3_1
I0822 13:18:34.028268 16768 net.cpp:150] Setting up attention_height_fc3_1
I0822 13:18:34.028273 16768 net.cpp:157] Top shape: 80 8 (640)
I0822 13:18:34.028275 16768 net.cpp:165] Memory required for data: 147915200
I0822 13:18:34.028278 16768 layer_factory.hpp:77] Creating layer attention_height_reshape1
I0822 13:18:34.028283 16768 net.cpp:106] Creating Layer attention_height_reshape1
I0822 13:18:34.028285 16768 net.cpp:454] attention_height_reshape1 <- attention_height_fc3_1
I0822 13:18:34.028290 16768 net.cpp:411] attention_height_reshape1 -> attention_height_reshape1
I0822 13:18:34.028306 16768 net.cpp:150] Setting up attention_height_reshape1
I0822 13:18:34.028309 16768 net.cpp:157] Top shape: 80 8 1 1 (640)
I0822 13:18:34.028311 16768 net.cpp:165] Memory required for data: 147917760
I0822 13:18:34.028313 16768 layer_factory.hpp:77] Creating layer attention_height_fc1_2
I0822 13:18:34.028318 16768 net.cpp:106] Creating Layer attention_height_fc1_2
I0822 13:18:34.028321 16768 net.cpp:454] attention_height_fc1_2 <- attention_height2
I0822 13:18:34.028324 16768 net.cpp:411] attention_height_fc1_2 -> attention_height_fc1_2
I0822 13:18:34.028417 16768 net.cpp:150] Setting up attention_height_fc1_2
I0822 13:18:34.028422 16768 net.cpp:157] Top shape: 80 128 (10240)
I0822 13:18:34.028424 16768 net.cpp:165] Memory required for data: 147958720
I0822 13:18:34.028429 16768 layer_factory.hpp:77] Creating layer attention_height_fc2_2
I0822 13:18:34.028432 16768 net.cpp:106] Creating Layer attention_height_fc2_2
I0822 13:18:34.028435 16768 net.cpp:454] attention_height_fc2_2 <- attention_height_fc1_2
I0822 13:18:34.028439 16768 net.cpp:411] attention_height_fc2_2 -> attention_height_fc2_2
I0822 13:18:34.028702 16768 net.cpp:150] Setting up attention_height_fc2_2
I0822 13:18:34.028705 16768 net.cpp:157] Top shape: 80 64 (5120)
I0822 13:18:34.028707 16768 net.cpp:165] Memory required for data: 147979200
I0822 13:18:34.028718 16768 layer_factory.hpp:77] Creating layer attention_height_fc3_2
I0822 13:18:34.028723 16768 net.cpp:106] Creating Layer attention_height_fc3_2
I0822 13:18:34.028725 16768 net.cpp:454] attention_height_fc3_2 <- attention_height_fc2_2
I0822 13:18:34.028729 16768 net.cpp:411] attention_height_fc3_2 -> attention_height_fc3_2
I0822 13:18:34.028810 16768 net.cpp:150] Setting up attention_height_fc3_2
I0822 13:18:34.028813 16768 net.cpp:157] Top shape: 80 8 (640)
I0822 13:18:34.028816 16768 net.cpp:165] Memory required for data: 147981760
I0822 13:18:34.028820 16768 layer_factory.hpp:77] Creating layer attention_height_reshape2
I0822 13:18:34.028825 16768 net.cpp:106] Creating Layer attention_height_reshape2
I0822 13:18:34.028827 16768 net.cpp:454] attention_height_reshape2 <- attention_height_fc3_2
I0822 13:18:34.028833 16768 net.cpp:411] attention_height_reshape2 -> attention_height_reshape2
I0822 13:18:34.028851 16768 net.cpp:150] Setting up attention_height_reshape2
I0822 13:18:34.028854 16768 net.cpp:157] Top shape: 80 8 1 1 (640)
I0822 13:18:34.028856 16768 net.cpp:165] Memory required for data: 147984320
I0822 13:18:34.028858 16768 layer_factory.hpp:77] Creating layer attention_height_fc1_3
I0822 13:18:34.028862 16768 net.cpp:106] Creating Layer attention_height_fc1_3
I0822 13:18:34.028865 16768 net.cpp:454] attention_height_fc1_3 <- attention_height3
I0822 13:18:34.028869 16768 net.cpp:411] attention_height_fc1_3 -> attention_height_fc1_3
I0822 13:18:34.028954 16768 net.cpp:150] Setting up attention_height_fc1_3
I0822 13:18:34.028957 16768 net.cpp:157] Top shape: 80 128 (10240)
I0822 13:18:34.028959 16768 net.cpp:165] Memory required for data: 148025280
I0822 13:18:34.028964 16768 layer_factory.hpp:77] Creating layer attention_height_fc2_3
I0822 13:18:34.028969 16768 net.cpp:106] Creating Layer attention_height_fc2_3
I0822 13:18:34.028970 16768 net.cpp:454] attention_height_fc2_3 <- attention_height_fc1_3
I0822 13:18:34.028975 16768 net.cpp:411] attention_height_fc2_3 -> attention_height_fc2_3
I0822 13:18:34.029242 16768 net.cpp:150] Setting up attention_height_fc2_3
I0822 13:18:34.029248 16768 net.cpp:157] Top shape: 80 64 (5120)
I0822 13:18:34.029250 16768 net.cpp:165] Memory required for data: 148045760
I0822 13:18:34.029254 16768 layer_factory.hpp:77] Creating layer attention_height_fc3_3
I0822 13:18:34.029258 16768 net.cpp:106] Creating Layer attention_height_fc3_3
I0822 13:18:34.029261 16768 net.cpp:454] attention_height_fc3_3 <- attention_height_fc2_3
I0822 13:18:34.029265 16768 net.cpp:411] attention_height_fc3_3 -> attention_height_fc3_3
I0822 13:18:34.029343 16768 net.cpp:150] Setting up attention_height_fc3_3
I0822 13:18:34.029347 16768 net.cpp:157] Top shape: 80 8 (640)
I0822 13:18:34.029350 16768 net.cpp:165] Memory required for data: 148048320
I0822 13:18:34.029353 16768 layer_factory.hpp:77] Creating layer attention_height_reshape3
I0822 13:18:34.029357 16768 net.cpp:106] Creating Layer attention_height_reshape3
I0822 13:18:34.029361 16768 net.cpp:454] attention_height_reshape3 <- attention_height_fc3_3
I0822 13:18:34.029364 16768 net.cpp:411] attention_height_reshape3 -> attention_height_reshape3
I0822 13:18:34.029379 16768 net.cpp:150] Setting up attention_height_reshape3
I0822 13:18:34.029383 16768 net.cpp:157] Top shape: 80 8 1 1 (640)
I0822 13:18:34.029386 16768 net.cpp:165] Memory required for data: 148050880
I0822 13:18:34.029388 16768 layer_factory.hpp:77] Creating layer attention_height_fc1_4
I0822 13:18:34.029392 16768 net.cpp:106] Creating Layer attention_height_fc1_4
I0822 13:18:34.029394 16768 net.cpp:454] attention_height_fc1_4 <- attention_height4
I0822 13:18:34.029398 16768 net.cpp:411] attention_height_fc1_4 -> attention_height_fc1_4
I0822 13:18:34.029484 16768 net.cpp:150] Setting up attention_height_fc1_4
I0822 13:18:34.029487 16768 net.cpp:157] Top shape: 80 128 (10240)
I0822 13:18:34.029489 16768 net.cpp:165] Memory required for data: 148091840
I0822 13:18:34.029494 16768 layer_factory.hpp:77] Creating layer attention_height_fc2_4
I0822 13:18:34.029497 16768 net.cpp:106] Creating Layer attention_height_fc2_4
I0822 13:18:34.029500 16768 net.cpp:454] attention_height_fc2_4 <- attention_height_fc1_4
I0822 13:18:34.029505 16768 net.cpp:411] attention_height_fc2_4 -> attention_height_fc2_4
I0822 13:18:34.029762 16768 net.cpp:150] Setting up attention_height_fc2_4
I0822 13:18:34.029767 16768 net.cpp:157] Top shape: 80 64 (5120)
I0822 13:18:34.029768 16768 net.cpp:165] Memory required for data: 148112320
I0822 13:18:34.029772 16768 layer_factory.hpp:77] Creating layer attention_height_fc3_4
I0822 13:18:34.029776 16768 net.cpp:106] Creating Layer attention_height_fc3_4
I0822 13:18:34.029779 16768 net.cpp:454] attention_height_fc3_4 <- attention_height_fc2_4
I0822 13:18:34.029783 16768 net.cpp:411] attention_height_fc3_4 -> attention_height_fc3_4
I0822 13:18:34.029858 16768 net.cpp:150] Setting up attention_height_fc3_4
I0822 13:18:34.029862 16768 net.cpp:157] Top shape: 80 8 (640)
I0822 13:18:34.029865 16768 net.cpp:165] Memory required for data: 148114880
I0822 13:18:34.029868 16768 layer_factory.hpp:77] Creating layer attention_height_reshape4
I0822 13:18:34.029872 16768 net.cpp:106] Creating Layer attention_height_reshape4
I0822 13:18:34.029875 16768 net.cpp:454] attention_height_reshape4 <- attention_height_fc3_4
I0822 13:18:34.029880 16768 net.cpp:411] attention_height_reshape4 -> attention_height_reshape4
I0822 13:18:34.029896 16768 net.cpp:150] Setting up attention_height_reshape4
I0822 13:18:34.029899 16768 net.cpp:157] Top shape: 80 8 1 1 (640)
I0822 13:18:34.029901 16768 net.cpp:165] Memory required for data: 148117440
I0822 13:18:34.029903 16768 layer_factory.hpp:77] Creating layer attention_height_fc1_5
I0822 13:18:34.029907 16768 net.cpp:106] Creating Layer attention_height_fc1_5
I0822 13:18:34.029911 16768 net.cpp:454] attention_height_fc1_5 <- attention_height5
I0822 13:18:34.029913 16768 net.cpp:411] attention_height_fc1_5 -> attention_height_fc1_5
I0822 13:18:34.029997 16768 net.cpp:150] Setting up attention_height_fc1_5
I0822 13:18:34.030001 16768 net.cpp:157] Top shape: 80 128 (10240)
I0822 13:18:34.030004 16768 net.cpp:165] Memory required for data: 148158400
I0822 13:18:34.030007 16768 layer_factory.hpp:77] Creating layer attention_height_fc2_5
I0822 13:18:34.030014 16768 net.cpp:106] Creating Layer attention_height_fc2_5
I0822 13:18:34.030017 16768 net.cpp:454] attention_height_fc2_5 <- attention_height_fc1_5
I0822 13:18:34.030020 16768 net.cpp:411] attention_height_fc2_5 -> attention_height_fc2_5
I0822 13:18:34.030282 16768 net.cpp:150] Setting up attention_height_fc2_5
I0822 13:18:34.030287 16768 net.cpp:157] Top shape: 80 64 (5120)
I0822 13:18:34.030289 16768 net.cpp:165] Memory required for data: 148178880
I0822 13:18:34.030293 16768 layer_factory.hpp:77] Creating layer attention_height_fc3_5
I0822 13:18:34.030297 16768 net.cpp:106] Creating Layer attention_height_fc3_5
I0822 13:18:34.030300 16768 net.cpp:454] attention_height_fc3_5 <- attention_height_fc2_5
I0822 13:18:34.030303 16768 net.cpp:411] attention_height_fc3_5 -> attention_height_fc3_5
I0822 13:18:34.030380 16768 net.cpp:150] Setting up attention_height_fc3_5
I0822 13:18:34.030383 16768 net.cpp:157] Top shape: 80 8 (640)
I0822 13:18:34.030385 16768 net.cpp:165] Memory required for data: 148181440
I0822 13:18:34.030390 16768 layer_factory.hpp:77] Creating layer attention_height_reshape5
I0822 13:18:34.030393 16768 net.cpp:106] Creating Layer attention_height_reshape5
I0822 13:18:34.030396 16768 net.cpp:454] attention_height_reshape5 <- attention_height_fc3_5
I0822 13:18:34.030400 16768 net.cpp:411] attention_height_reshape5 -> attention_height_reshape5
I0822 13:18:34.030414 16768 net.cpp:150] Setting up attention_height_reshape5
I0822 13:18:34.030418 16768 net.cpp:157] Top shape: 80 8 1 1 (640)
I0822 13:18:34.030421 16768 net.cpp:165] Memory required for data: 148184000
I0822 13:18:34.030422 16768 layer_factory.hpp:77] Creating layer attention_height_fc1_6
I0822 13:18:34.030427 16768 net.cpp:106] Creating Layer attention_height_fc1_6
I0822 13:18:34.030429 16768 net.cpp:454] attention_height_fc1_6 <- attention_height6
I0822 13:18:34.030433 16768 net.cpp:411] attention_height_fc1_6 -> attention_height_fc1_6
I0822 13:18:34.030519 16768 net.cpp:150] Setting up attention_height_fc1_6
I0822 13:18:34.030522 16768 net.cpp:157] Top shape: 80 128 (10240)
I0822 13:18:34.030524 16768 net.cpp:165] Memory required for data: 148224960
I0822 13:18:34.030529 16768 layer_factory.hpp:77] Creating layer attention_height_fc2_6
I0822 13:18:34.030532 16768 net.cpp:106] Creating Layer attention_height_fc2_6
I0822 13:18:34.030534 16768 net.cpp:454] attention_height_fc2_6 <- attention_height_fc1_6
I0822 13:18:34.030539 16768 net.cpp:411] attention_height_fc2_6 -> attention_height_fc2_6
I0822 13:18:34.030797 16768 net.cpp:150] Setting up attention_height_fc2_6
I0822 13:18:34.030802 16768 net.cpp:157] Top shape: 80 64 (5120)
I0822 13:18:34.030804 16768 net.cpp:165] Memory required for data: 148245440
I0822 13:18:34.030807 16768 layer_factory.hpp:77] Creating layer attention_height_fc3_6
I0822 13:18:34.030812 16768 net.cpp:106] Creating Layer attention_height_fc3_6
I0822 13:18:34.030814 16768 net.cpp:454] attention_height_fc3_6 <- attention_height_fc2_6
I0822 13:18:34.030819 16768 net.cpp:411] attention_height_fc3_6 -> attention_height_fc3_6
I0822 13:18:34.030897 16768 net.cpp:150] Setting up attention_height_fc3_6
I0822 13:18:34.030901 16768 net.cpp:157] Top shape: 80 8 (640)
I0822 13:18:34.030903 16768 net.cpp:165] Memory required for data: 148248000
I0822 13:18:34.030907 16768 layer_factory.hpp:77] Creating layer attention_height_reshape6
I0822 13:18:34.030911 16768 net.cpp:106] Creating Layer attention_height_reshape6
I0822 13:18:34.030913 16768 net.cpp:454] attention_height_reshape6 <- attention_height_fc3_6
I0822 13:18:34.030917 16768 net.cpp:411] attention_height_reshape6 -> attention_height_reshape6
I0822 13:18:34.030933 16768 net.cpp:150] Setting up attention_height_reshape6
I0822 13:18:34.030936 16768 net.cpp:157] Top shape: 80 8 1 1 (640)
I0822 13:18:34.030938 16768 net.cpp:165] Memory required for data: 148250560
I0822 13:18:34.030941 16768 layer_factory.hpp:77] Creating layer attention_height_fc1_7
I0822 13:18:34.030946 16768 net.cpp:106] Creating Layer attention_height_fc1_7
I0822 13:18:34.030947 16768 net.cpp:454] attention_height_fc1_7 <- attention_height7
I0822 13:18:34.030951 16768 net.cpp:411] attention_height_fc1_7 -> attention_height_fc1_7
I0822 13:18:34.031035 16768 net.cpp:150] Setting up attention_height_fc1_7
I0822 13:18:34.031038 16768 net.cpp:157] Top shape: 80 128 (10240)
I0822 13:18:34.031041 16768 net.cpp:165] Memory required for data: 148291520
I0822 13:18:34.031044 16768 layer_factory.hpp:77] Creating layer attention_height_fc2_7
I0822 13:18:34.031049 16768 net.cpp:106] Creating Layer attention_height_fc2_7
I0822 13:18:34.031051 16768 net.cpp:454] attention_height_fc2_7 <- attention_height_fc1_7
I0822 13:18:34.031055 16768 net.cpp:411] attention_height_fc2_7 -> attention_height_fc2_7
I0822 13:18:34.031317 16768 net.cpp:150] Setting up attention_height_fc2_7
I0822 13:18:34.031322 16768 net.cpp:157] Top shape: 80 64 (5120)
I0822 13:18:34.031324 16768 net.cpp:165] Memory required for data: 148312000
I0822 13:18:34.031328 16768 layer_factory.hpp:77] Creating layer attention_height_fc3_7
I0822 13:18:34.031332 16768 net.cpp:106] Creating Layer attention_height_fc3_7
I0822 13:18:34.031335 16768 net.cpp:454] attention_height_fc3_7 <- attention_height_fc2_7
I0822 13:18:34.031338 16768 net.cpp:411] attention_height_fc3_7 -> attention_height_fc3_7
I0822 13:18:34.031414 16768 net.cpp:150] Setting up attention_height_fc3_7
I0822 13:18:34.031417 16768 net.cpp:157] Top shape: 80 8 (640)
I0822 13:18:34.031419 16768 net.cpp:165] Memory required for data: 148314560
I0822 13:18:34.031424 16768 layer_factory.hpp:77] Creating layer attention_height_reshape7
I0822 13:18:34.031427 16768 net.cpp:106] Creating Layer attention_height_reshape7
I0822 13:18:34.031430 16768 net.cpp:454] attention_height_reshape7 <- attention_height_fc3_7
I0822 13:18:34.031435 16768 net.cpp:411] attention_height_reshape7 -> attention_height_reshape7
I0822 13:18:34.031450 16768 net.cpp:150] Setting up attention_height_reshape7
I0822 13:18:34.031453 16768 net.cpp:157] Top shape: 80 8 1 1 (640)
I0822 13:18:34.031455 16768 net.cpp:165] Memory required for data: 148317120
I0822 13:18:34.031457 16768 layer_factory.hpp:77] Creating layer attention_height_concat
I0822 13:18:34.031462 16768 net.cpp:106] Creating Layer attention_height_concat
I0822 13:18:34.031466 16768 net.cpp:454] attention_height_concat <- attention_height_reshape0
I0822 13:18:34.031468 16768 net.cpp:454] attention_height_concat <- attention_height_reshape1
I0822 13:18:34.031471 16768 net.cpp:454] attention_height_concat <- attention_height_reshape2
I0822 13:18:34.031474 16768 net.cpp:454] attention_height_concat <- attention_height_reshape3
I0822 13:18:34.031476 16768 net.cpp:454] attention_height_concat <- attention_height_reshape4
I0822 13:18:34.031479 16768 net.cpp:454] attention_height_concat <- attention_height_reshape5
I0822 13:18:34.031481 16768 net.cpp:454] attention_height_concat <- attention_height_reshape6
I0822 13:18:34.031484 16768 net.cpp:454] attention_height_concat <- attention_height_reshape7
I0822 13:18:34.031488 16768 net.cpp:411] attention_height_concat -> attention_height_concat
I0822 13:18:34.031504 16768 net.cpp:150] Setting up attention_height_concat
I0822 13:18:34.031507 16768 net.cpp:157] Top shape: 80 8 8 1 (5120)
I0822 13:18:34.031510 16768 net.cpp:165] Memory required for data: 148337600
I0822 13:18:34.031512 16768 layer_factory.hpp:77] Creating layer attention_weight
I0822 13:18:34.031517 16768 net.cpp:106] Creating Layer attention_weight
I0822 13:18:34.031519 16768 net.cpp:454] attention_weight <- attention_height_concat
I0822 13:18:34.031523 16768 net.cpp:411] attention_weight -> attention_weight
I0822 13:18:34.031563 16768 net.cpp:150] Setting up attention_weight
I0822 13:18:34.031566 16768 net.cpp:157] Top shape: 80 8 8 1 (5120)
I0822 13:18:34.031569 16768 net.cpp:165] Memory required for data: 148358080
I0822 13:18:34.031570 16768 layer_factory.hpp:77] Creating layer attention_weight_slice
I0822 13:18:34.031576 16768 net.cpp:106] Creating Layer attention_weight_slice
I0822 13:18:34.031579 16768 net.cpp:454] attention_weight_slice <- attention_weight
I0822 13:18:34.031584 16768 net.cpp:411] attention_weight_slice -> attention_weight_slice0
I0822 13:18:34.031587 16768 net.cpp:411] attention_weight_slice -> attention_weight_slice1
I0822 13:18:34.031592 16768 net.cpp:411] attention_weight_slice -> attention_weight_slice2
I0822 13:18:34.031596 16768 net.cpp:411] attention_weight_slice -> attention_weight_slice3
I0822 13:18:34.031600 16768 net.cpp:411] attention_weight_slice -> attention_weight_slice4
I0822 13:18:34.031605 16768 net.cpp:411] attention_weight_slice -> attention_weight_slice5
I0822 13:18:34.031610 16768 net.cpp:411] attention_weight_slice -> attention_weight_slice6
I0822 13:18:34.031613 16768 net.cpp:411] attention_weight_slice -> attention_weight_slice7
I0822 13:18:34.031678 16768 net.cpp:150] Setting up attention_weight_slice
I0822 13:18:34.031682 16768 net.cpp:157] Top shape: 80 1 8 1 (640)
I0822 13:18:34.031685 16768 net.cpp:157] Top shape: 80 1 8 1 (640)
I0822 13:18:34.031688 16768 net.cpp:157] Top shape: 80 1 8 1 (640)
I0822 13:18:34.031690 16768 net.cpp:157] Top shape: 80 1 8 1 (640)
I0822 13:18:34.031693 16768 net.cpp:157] Top shape: 80 1 8 1 (640)
I0822 13:18:34.031697 16768 net.cpp:157] Top shape: 80 1 8 1 (640)
I0822 13:18:34.031698 16768 net.cpp:157] Top shape: 80 1 8 1 (640)
I0822 13:18:34.031702 16768 net.cpp:157] Top shape: 80 1 8 1 (640)
I0822 13:18:34.031703 16768 net.cpp:165] Memory required for data: 148378560
I0822 13:18:34.031705 16768 layer_factory.hpp:77] Creating layer attention_weight_tile0
I0822 13:18:34.031710 16768 net.cpp:106] Creating Layer attention_weight_tile0
I0822 13:18:34.031713 16768 net.cpp:454] attention_weight_tile0 <- attention_weight_slice0
I0822 13:18:34.031716 16768 net.cpp:411] attention_weight_tile0 -> attention_weight_tile0
I0822 13:18:34.031730 16768 net.cpp:150] Setting up attention_weight_tile0
I0822 13:18:34.031734 16768 net.cpp:157] Top shape: 80 64 8 1 (40960)
I0822 13:18:34.031736 16768 net.cpp:165] Memory required for data: 148542400
I0822 13:18:34.031738 16768 layer_factory.hpp:77] Creating layer attention_reweight0
I0822 13:18:34.031744 16768 net.cpp:106] Creating Layer attention_reweight0
I0822 13:18:34.031746 16768 net.cpp:454] attention_reweight0 <- attention_scale0_attention_scale_slice_0_split_1
I0822 13:18:34.031749 16768 net.cpp:454] attention_reweight0 <- attention_weight_tile0
I0822 13:18:34.031752 16768 net.cpp:411] attention_reweight0 -> attention_reweight0
I0822 13:18:34.031767 16768 net.cpp:150] Setting up attention_reweight0
I0822 13:18:34.031771 16768 net.cpp:157] Top shape: 80 64 8 1 (40960)
I0822 13:18:34.031774 16768 net.cpp:165] Memory required for data: 148706240
I0822 13:18:34.031775 16768 layer_factory.hpp:77] Creating layer attention_weight_tile1
I0822 13:18:34.031780 16768 net.cpp:106] Creating Layer attention_weight_tile1
I0822 13:18:34.031781 16768 net.cpp:454] attention_weight_tile1 <- attention_weight_slice1
I0822 13:18:34.031785 16768 net.cpp:411] attention_weight_tile1 -> attention_weight_tile1
I0822 13:18:34.031798 16768 net.cpp:150] Setting up attention_weight_tile1
I0822 13:18:34.031802 16768 net.cpp:157] Top shape: 80 64 8 1 (40960)
I0822 13:18:34.031805 16768 net.cpp:165] Memory required for data: 148870080
I0822 13:18:34.031806 16768 layer_factory.hpp:77] Creating layer attention_reweight1
I0822 13:18:34.031810 16768 net.cpp:106] Creating Layer attention_reweight1
I0822 13:18:34.031812 16768 net.cpp:454] attention_reweight1 <- attention_scale1_attention_scale_slice_1_split_1
I0822 13:18:34.031816 16768 net.cpp:454] attention_reweight1 <- attention_weight_tile1
I0822 13:18:34.031819 16768 net.cpp:411] attention_reweight1 -> attention_reweight1
I0822 13:18:34.031832 16768 net.cpp:150] Setting up attention_reweight1
I0822 13:18:34.031836 16768 net.cpp:157] Top shape: 80 64 8 1 (40960)
I0822 13:18:34.031837 16768 net.cpp:165] Memory required for data: 149033920
I0822 13:18:34.031839 16768 layer_factory.hpp:77] Creating layer attention_weight_tile2
I0822 13:18:34.031843 16768 net.cpp:106] Creating Layer attention_weight_tile2
I0822 13:18:34.031846 16768 net.cpp:454] attention_weight_tile2 <- attention_weight_slice2
I0822 13:18:34.031849 16768 net.cpp:411] attention_weight_tile2 -> attention_weight_tile2
I0822 13:18:34.031862 16768 net.cpp:150] Setting up attention_weight_tile2
I0822 13:18:34.031868 16768 net.cpp:157] Top shape: 80 64 8 1 (40960)
I0822 13:18:34.031870 16768 net.cpp:165] Memory required for data: 149197760
I0822 13:18:34.031872 16768 layer_factory.hpp:77] Creating layer attention_reweight2
I0822 13:18:34.031877 16768 net.cpp:106] Creating Layer attention_reweight2
I0822 13:18:34.031879 16768 net.cpp:454] attention_reweight2 <- attention_scale2_attention_scale_slice_2_split_1
I0822 13:18:34.031883 16768 net.cpp:454] attention_reweight2 <- attention_weight_tile2
I0822 13:18:34.031885 16768 net.cpp:411] attention_reweight2 -> attention_reweight2
I0822 13:18:34.031898 16768 net.cpp:150] Setting up attention_reweight2
I0822 13:18:34.031901 16768 net.cpp:157] Top shape: 80 64 8 1 (40960)
I0822 13:18:34.031903 16768 net.cpp:165] Memory required for data: 149361600
I0822 13:18:34.031906 16768 layer_factory.hpp:77] Creating layer attention_weight_tile3
I0822 13:18:34.031910 16768 net.cpp:106] Creating Layer attention_weight_tile3
I0822 13:18:34.031913 16768 net.cpp:454] attention_weight_tile3 <- attention_weight_slice3
I0822 13:18:34.031915 16768 net.cpp:411] attention_weight_tile3 -> attention_weight_tile3
I0822 13:18:34.031929 16768 net.cpp:150] Setting up attention_weight_tile3
I0822 13:18:34.031931 16768 net.cpp:157] Top shape: 80 64 8 1 (40960)
I0822 13:18:34.031934 16768 net.cpp:165] Memory required for data: 149525440
I0822 13:18:34.031935 16768 layer_factory.hpp:77] Creating layer attention_reweight3
I0822 13:18:34.031939 16768 net.cpp:106] Creating Layer attention_reweight3
I0822 13:18:34.031942 16768 net.cpp:454] attention_reweight3 <- attention_scale3_attention_scale_slice_3_split_1
I0822 13:18:34.031945 16768 net.cpp:454] attention_reweight3 <- attention_weight_tile3
I0822 13:18:34.031949 16768 net.cpp:411] attention_reweight3 -> attention_reweight3
I0822 13:18:34.031961 16768 net.cpp:150] Setting up attention_reweight3
I0822 13:18:34.031965 16768 net.cpp:157] Top shape: 80 64 8 1 (40960)
I0822 13:18:34.031967 16768 net.cpp:165] Memory required for data: 149689280
I0822 13:18:34.031970 16768 layer_factory.hpp:77] Creating layer attention_weight_tile4
I0822 13:18:34.031972 16768 net.cpp:106] Creating Layer attention_weight_tile4
I0822 13:18:34.031975 16768 net.cpp:454] attention_weight_tile4 <- attention_weight_slice4
I0822 13:18:34.031978 16768 net.cpp:411] attention_weight_tile4 -> attention_weight_tile4
I0822 13:18:34.031991 16768 net.cpp:150] Setting up attention_weight_tile4
I0822 13:18:34.031996 16768 net.cpp:157] Top shape: 80 64 8 1 (40960)
I0822 13:18:34.031997 16768 net.cpp:165] Memory required for data: 149853120
I0822 13:18:34.031999 16768 layer_factory.hpp:77] Creating layer attention_reweight4
I0822 13:18:34.032003 16768 net.cpp:106] Creating Layer attention_reweight4
I0822 13:18:34.032006 16768 net.cpp:454] attention_reweight4 <- attention_scale4_attention_scale_slice_4_split_1
I0822 13:18:34.032009 16768 net.cpp:454] attention_reweight4 <- attention_weight_tile4
I0822 13:18:34.032012 16768 net.cpp:411] attention_reweight4 -> attention_reweight4
I0822 13:18:34.032025 16768 net.cpp:150] Setting up attention_reweight4
I0822 13:18:34.032028 16768 net.cpp:157] Top shape: 80 64 8 1 (40960)
I0822 13:18:34.032030 16768 net.cpp:165] Memory required for data: 150016960
I0822 13:18:34.032032 16768 layer_factory.hpp:77] Creating layer attention_weight_tile5
I0822 13:18:34.032037 16768 net.cpp:106] Creating Layer attention_weight_tile5
I0822 13:18:34.032038 16768 net.cpp:454] attention_weight_tile5 <- attention_weight_slice5
I0822 13:18:34.032042 16768 net.cpp:411] attention_weight_tile5 -> attention_weight_tile5
I0822 13:18:34.032054 16768 net.cpp:150] Setting up attention_weight_tile5
I0822 13:18:34.032058 16768 net.cpp:157] Top shape: 80 64 8 1 (40960)
I0822 13:18:34.032060 16768 net.cpp:165] Memory required for data: 150180800
I0822 13:18:34.032063 16768 layer_factory.hpp:77] Creating layer attention_reweight5
I0822 13:18:34.032066 16768 net.cpp:106] Creating Layer attention_reweight5
I0822 13:18:34.032068 16768 net.cpp:454] attention_reweight5 <- attention_scale5_attention_scale_slice_5_split_1
I0822 13:18:34.032071 16768 net.cpp:454] attention_reweight5 <- attention_weight_tile5
I0822 13:18:34.032074 16768 net.cpp:411] attention_reweight5 -> attention_reweight5
I0822 13:18:34.032088 16768 net.cpp:150] Setting up attention_reweight5
I0822 13:18:34.032091 16768 net.cpp:157] Top shape: 80 64 8 1 (40960)
I0822 13:18:34.032094 16768 net.cpp:165] Memory required for data: 150344640
I0822 13:18:34.032095 16768 layer_factory.hpp:77] Creating layer attention_weight_tile6
I0822 13:18:34.032099 16768 net.cpp:106] Creating Layer attention_weight_tile6
I0822 13:18:34.032101 16768 net.cpp:454] attention_weight_tile6 <- attention_weight_slice6
I0822 13:18:34.032104 16768 net.cpp:411] attention_weight_tile6 -> attention_weight_tile6
I0822 13:18:34.032117 16768 net.cpp:150] Setting up attention_weight_tile6
I0822 13:18:34.032120 16768 net.cpp:157] Top shape: 80 64 8 1 (40960)
I0822 13:18:34.032122 16768 net.cpp:165] Memory required for data: 150508480
I0822 13:18:34.032124 16768 layer_factory.hpp:77] Creating layer attention_reweight6
I0822 13:18:34.032129 16768 net.cpp:106] Creating Layer attention_reweight6
I0822 13:18:34.032130 16768 net.cpp:454] attention_reweight6 <- attention_scale6_attention_scale_slice_6_split_1
I0822 13:18:34.032135 16768 net.cpp:454] attention_reweight6 <- attention_weight_tile6
I0822 13:18:34.032137 16768 net.cpp:411] attention_reweight6 -> attention_reweight6
I0822 13:18:34.032150 16768 net.cpp:150] Setting up attention_reweight6
I0822 13:18:34.032153 16768 net.cpp:157] Top shape: 80 64 8 1 (40960)
I0822 13:18:34.032155 16768 net.cpp:165] Memory required for data: 150672320
I0822 13:18:34.032157 16768 layer_factory.hpp:77] Creating layer attention_weight_tile7
I0822 13:18:34.032161 16768 net.cpp:106] Creating Layer attention_weight_tile7
I0822 13:18:34.032163 16768 net.cpp:454] attention_weight_tile7 <- attention_weight_slice7
I0822 13:18:34.032166 16768 net.cpp:411] attention_weight_tile7 -> attention_weight_tile7
I0822 13:18:34.032179 16768 net.cpp:150] Setting up attention_weight_tile7
I0822 13:18:34.032182 16768 net.cpp:157] Top shape: 80 64 8 1 (40960)
I0822 13:18:34.032184 16768 net.cpp:165] Memory required for data: 150836160
I0822 13:18:34.032186 16768 layer_factory.hpp:77] Creating layer attention_reweight7
I0822 13:18:34.032191 16768 net.cpp:106] Creating Layer attention_reweight7
I0822 13:18:34.032193 16768 net.cpp:454] attention_reweight7 <- attention_scale7_attention_scale_slice_7_split_1
I0822 13:18:34.032196 16768 net.cpp:454] attention_reweight7 <- attention_weight_tile7
I0822 13:18:34.032200 16768 net.cpp:411] attention_reweight7 -> attention_reweight7
I0822 13:18:34.032214 16768 net.cpp:150] Setting up attention_reweight7
I0822 13:18:34.032217 16768 net.cpp:157] Top shape: 80 64 8 1 (40960)
I0822 13:18:34.032219 16768 net.cpp:165] Memory required for data: 151000000
I0822 13:18:34.032222 16768 layer_factory.hpp:77] Creating layer attention_reweight_sum
I0822 13:18:34.032227 16768 net.cpp:106] Creating Layer attention_reweight_sum
I0822 13:18:34.032228 16768 net.cpp:454] attention_reweight_sum <- attention_reweight0
I0822 13:18:34.032232 16768 net.cpp:454] attention_reweight_sum <- attention_reweight1
I0822 13:18:34.032234 16768 net.cpp:454] attention_reweight_sum <- attention_reweight2
I0822 13:18:34.032236 16768 net.cpp:454] attention_reweight_sum <- attention_reweight3
I0822 13:18:34.032239 16768 net.cpp:454] attention_reweight_sum <- attention_reweight4
I0822 13:18:34.032241 16768 net.cpp:454] attention_reweight_sum <- attention_reweight5
I0822 13:18:34.032243 16768 net.cpp:454] attention_reweight_sum <- attention_reweight6
I0822 13:18:34.032246 16768 net.cpp:454] attention_reweight_sum <- attention_reweight7
I0822 13:18:34.032249 16768 net.cpp:411] attention_reweight_sum -> attention_reweight_sum
I0822 13:18:34.032263 16768 net.cpp:150] Setting up attention_reweight_sum
I0822 13:18:34.032266 16768 net.cpp:157] Top shape: 80 64 8 1 (40960)
I0822 13:18:34.032269 16768 net.cpp:165] Memory required for data: 151163840
I0822 13:18:34.032271 16768 layer_factory.hpp:77] Creating layer attention_reweight_flatten
I0822 13:18:34.032274 16768 net.cpp:106] Creating Layer attention_reweight_flatten
I0822 13:18:34.032277 16768 net.cpp:454] attention_reweight_flatten <- attention_reweight_sum
I0822 13:18:34.032280 16768 net.cpp:411] attention_reweight_flatten -> attention_reweight_flatten
I0822 13:18:34.032294 16768 net.cpp:150] Setting up attention_reweight_flatten
I0822 13:18:34.032299 16768 net.cpp:157] Top shape: 80 512 (40960)
I0822 13:18:34.032300 16768 net.cpp:165] Memory required for data: 151327680
I0822 13:18:34.032302 16768 layer_factory.hpp:77] Creating layer attention_reweight_dropout
I0822 13:18:34.032312 16768 net.cpp:106] Creating Layer attention_reweight_dropout
I0822 13:18:34.032315 16768 net.cpp:454] attention_reweight_dropout <- attention_reweight_flatten
I0822 13:18:34.032320 16768 net.cpp:411] attention_reweight_dropout -> attention_reweight_dropout
I0822 13:18:34.032344 16768 net.cpp:150] Setting up attention_reweight_dropout
I0822 13:18:34.032347 16768 net.cpp:157] Top shape: 80 512 (40960)
I0822 13:18:34.032349 16768 net.cpp:165] Memory required for data: 151491520
I0822 13:18:34.032352 16768 layer_factory.hpp:77] Creating layer classification_fc1
I0822 13:18:34.032356 16768 net.cpp:106] Creating Layer classification_fc1
I0822 13:18:34.032359 16768 net.cpp:454] classification_fc1 <- attention_reweight_dropout
I0822 13:18:34.032362 16768 net.cpp:411] classification_fc1 -> classification_fc1
I0822 13:18:34.033216 16768 net.cpp:150] Setting up classification_fc1
I0822 13:18:34.033221 16768 net.cpp:157] Top shape: 80 64 (5120)
I0822 13:18:34.033224 16768 net.cpp:165] Memory required for data: 151512000
I0822 13:18:34.033228 16768 layer_factory.hpp:77] Creating layer classification_dropout
I0822 13:18:34.033232 16768 net.cpp:106] Creating Layer classification_dropout
I0822 13:18:34.033236 16768 net.cpp:454] classification_dropout <- classification_fc1
I0822 13:18:34.033239 16768 net.cpp:411] classification_dropout -> classification_dropout
I0822 13:18:34.033263 16768 net.cpp:150] Setting up classification_dropout
I0822 13:18:34.033267 16768 net.cpp:157] Top shape: 80 64 (5120)
I0822 13:18:34.033270 16768 net.cpp:165] Memory required for data: 151532480
I0822 13:18:34.033272 16768 layer_factory.hpp:77] Creating layer classification_fc2
I0822 13:18:34.033277 16768 net.cpp:106] Creating Layer classification_fc2
I0822 13:18:34.033279 16768 net.cpp:454] classification_fc2 <- classification_dropout
I0822 13:18:34.033284 16768 net.cpp:411] classification_fc2 -> classification_fc2
I0822 13:18:34.033354 16768 net.cpp:150] Setting up classification_fc2
I0822 13:18:34.033357 16768 net.cpp:157] Top shape: 80 4 (320)
I0822 13:18:34.033360 16768 net.cpp:165] Memory required for data: 151533760
I0822 13:18:34.033363 16768 layer_factory.hpp:77] Creating layer classification_fc2_classification_fc2_0_split
I0822 13:18:34.033367 16768 net.cpp:106] Creating Layer classification_fc2_classification_fc2_0_split
I0822 13:18:34.033370 16768 net.cpp:454] classification_fc2_classification_fc2_0_split <- classification_fc2
I0822 13:18:34.033373 16768 net.cpp:411] classification_fc2_classification_fc2_0_split -> classification_fc2_classification_fc2_0_split_0
I0822 13:18:34.033378 16768 net.cpp:411] classification_fc2_classification_fc2_0_split -> classification_fc2_classification_fc2_0_split_1
I0822 13:18:34.033401 16768 net.cpp:150] Setting up classification_fc2_classification_fc2_0_split
I0822 13:18:34.033404 16768 net.cpp:157] Top shape: 80 4 (320)
I0822 13:18:34.033407 16768 net.cpp:157] Top shape: 80 4 (320)
I0822 13:18:34.033409 16768 net.cpp:165] Memory required for data: 151536320
I0822 13:18:34.033411 16768 layer_factory.hpp:77] Creating layer classification_loss
I0822 13:18:34.033416 16768 net.cpp:106] Creating Layer classification_loss
I0822 13:18:34.033418 16768 net.cpp:454] classification_loss <- classification_fc2_classification_fc2_0_split_0
I0822 13:18:34.033421 16768 net.cpp:454] classification_loss <- label_data_1_split_0
…
I0822 13:18:34.033524 16768 net.cpp:157] Top shape: (1)
I0822 13:18:34.033526 16768 net.cpp:165] Memory required for data: 151536328
I0822 13:18:34.033529 16768 layer_factory.hpp:77] Creating layer attention_pool_scale0
I0822 13:18:34.033533 16768 net.cpp:106] Creating Layer attention_pool_scale0
I0822 13:18:34.033535 16768 net.cpp:454] attention_pool_scale0 <- attention_scale0_attention_scale_slice_0_split_2
I0822 13:18:34.033540 16768 net.cpp:411] attention_pool_scale0 -> attention_pool_scale0
I0822 13:18:34.033565 16768 net.cpp:150] Setting up attention_pool_scale0
I0822 13:18:34.033568 16768 net.cpp:157] Top shape: 80 64 1 1 (5120)
I0822 13:18:34.033571 16768 net.cpp:165] Memory required for data: 151556808
I0822 13:18:34.033573 16768 layer_factory.hpp:77] Creating layer attention_flatten_scale0
I0822 13:18:34.033576 16768 net.cpp:106] Creating Layer attention_flatten_scale0
I0822 13:18:34.033579 16768 net.cpp:454] attention_flatten_scale0 <- attention_pool_scale0
I0822 13:18:34.033582 16768 net.cpp:411] attention_flatten_scale0 -> attention_flatten_scale0
I0822 13:18:34.033596 16768 net.cpp:150] Setting up attention_flatten_scale0
I0822 13:18:34.033599 16768 net.cpp:157] Top shape: 80 64 (5120)
I0822 13:18:34.033601 16768 net.cpp:165] Memory required for data: 151577288
I0822 13:18:34.033603 16768 layer_factory.hpp:77] Creating layer attention_dropout_scale0
I0822 13:18:34.033607 16768 net.cpp:106] Creating Layer attention_dropout_scale0
I0822 13:18:34.033609 16768 net.cpp:454] attention_dropout_scale0 <- attention_flatten_scale0
I0822 13:18:34.033613 16768 net.cpp:411] attention_dropout_scale0 -> attention_dropout_scale0
I0822 13:18:34.033634 16768 net.cpp:150] Setting up attention_dropout_scale0
I0822 13:18:34.033638 16768 net.cpp:157] Top shape: 80 64 (5120)
I0822 13:18:34.033640 16768 net.cpp:165] Memory required for data: 151597768
I0822 13:18:34.033643 16768 layer_factory.hpp:77] Creating layer classification_fc1_scale0
I0822 13:18:34.033648 16768 net.cpp:106] Creating Layer classification_fc1_scale0
I0822 13:18:34.033649 16768 net.cpp:454] classification_fc1_scale0 <- attention_dropout_scale0
I0822 13:18:34.033653 16768 net.cpp:411] classification_fc1_scale0 -> classification_fc1_scale0
I0822 13:18:34.033819 16768 net.cpp:150] Setting up classification_fc1_scale0
I0822 13:18:34.033823 16768 net.cpp:157] Top shape: 80 64 (5120)
I0822 13:18:34.033825 16768 net.cpp:165] Memory required for data: 151618248
I0822 13:18:34.033829 16768 layer_factory.hpp:77] Creating layer classification_dropout_scale0
I0822 13:18:34.033833 16768 net.cpp:106] Creating Layer classification_dropout_scale0
I0822 13:18:34.033836 16768 net.cpp:454] classification_dropout_scale0 <- classification_fc1_scale0
I0822 13:18:34.033840 16768 net.cpp:411] classification_dropout_scale0 -> classification_dropout_scale0
I0822 13:18:34.033864 16768 net.cpp:150] Setting up classification_dropout_scale0
I0822 13:18:34.033867 16768 net.cpp:157] Top shape: 80 64 (5120)
I0822 13:18:34.033869 16768 net.cpp:165] Memory required for data: 151638728
I0822 13:18:34.033872 16768 layer_factory.hpp:77] Creating layer clasification_fc2_scale0
I0822 13:18:34.033877 16768 net.cpp:106] Creating Layer clasification_fc2_scale0
I0822 13:18:34.033879 16768 net.cpp:454] clasification_fc2_scale0 <- classification_dropout_scale0
I0822 13:18:34.033884 16768 net.cpp:411] clasification_fc2_scale0 -> classification_fc2_scale0
I0822 13:18:34.033952 16768 net.cpp:150] Setting up clasification_fc2_scale0
I0822 13:18:34.033957 16768 net.cpp:157] Top shape: 80 4 (320)
I0822 13:18:34.033958 16768 net.cpp:165] Memory required for data: 151640008
I0822 13:18:34.033962 16768 layer_factory.hpp:77] Creating layer classification_fc2_scale0_clasification_fc2_scale0_0_split
I0822 13:18:34.033965 16768 net.cpp:106] Creating Layer classification_fc2_scale0_clasification_fc2_scale0_0_split
I0822 13:18:34.033968 16768 net.cpp:454] classification_fc2_scale0_clasification_fc2_scale0_0_split <- classification_fc2_scale0
I0822 13:18:34.033972 16768 net.cpp:411] classification_fc2_scale0_clasification_fc2_scale0_0_split -> classification_fc2_scale0_clasification_fc2_scale0_0_split_0
I0822 13:18:34.033977 16768 net.cpp:411] classification_fc2_scale0_clasification_fc2_scale0_0_split -> classification_fc2_scale0_clasification_fc2_scale0_0_split_1
I0822 13:18:34.033998 16768 net.cpp:150] Setting up classification_fc2_scale0_clasification_fc2_scale0_0_split
I0822 13:18:34.034003 16768 net.cpp:157] Top shape: 80 4 (320)
I0822 13:18:34.034005 16768 net.cpp:157] Top shape: 80 4 (320)
I0822 13:18:34.034008 16768 net.cpp:165] Memory required for data: 151642568
I0822 13:18:34.034009 16768 layer_factory.hpp:77] Creating layer classification_loss_scale0
I0822 13:18:34.034013 16768 net.cpp:106] Creating Layer classification_loss_scale0
I0822 13:18:34.034015 16768 net.cpp:454] classification_loss_scale0 <- classification_fc2_scale0_clasification_fc2_scale0_0_split_0
I0822 13:18:34.034019 16768 net.cpp:454] classification_loss_scale0 <- label_data_1_split_2
…
